h2o_energies_noise_scf_matrices/h2o_noise_matrices_dft_b3lyp_def2-SVP_969.npz (npz, 19491 bytes, 4 tensors)

coords f8 [3, 3]
000000 00 00 00 00 00 00 00 00 00 00 00 00 00 00 00 00
       0.0 0.0
000010 00 00 00 00 00 00 00 00 9f a0 0c 09 1b bf e7 3f
       0.0 0.7420783211464544
000020 bb 6b 9f c4 b0 04 e3 3f 9c 6b d1 fe d2 3a 96 bf
       0.5943225708282321 -0.021708771517619505
000030 e3 64 99 7d 23 5d e9 bf ed 46 5f b9 3f e2 e3 3f
       -0.7926194623097697 0.6213682766485512
000040 bc cf 0a 3e 88 f4 7e 3f
       0.0075574228255170205

energy f8 []
000000 3f a4 46 e3 47 fd 52 c0
       -75.95751268290131

noise_sigma f8 []
000000 7b 14 ae 47 e1 7a 94 3f
       0.02

features f8 [7, 24, 24]
000000 ea 72 90 7e 3f 8a 34 c0 19 63 dd 15 76 d5 1d 40
       -20.540031347528306 7.458458272588154
000010 7a 36 da a2 c2 ee 0b 40 fe bb fb 61 3f 82 4f bf
       3.4915821764796506 -0.0009615716444083542
000020 cc 7c 39 b0 ba e3 97 3f 00 00 00 00 00 30 7f 3c
       0.023329655652898393 2.7050844203513336e-17
000030 3a 1f 92 a8 57 34 31 3f 1b 08 a5 fb 5d 1c 74 3f
       0.00026251926517105765 0.004909865494768818
000040 00 00 00 00 00 50 5a 3c 00 00 00 00 80 c8 80 bc
       5.705613932704967e-18 -2.911421646302481e-17
000050 70 65 c6 e6 7b b6 68 bf 00 00 00 00 20 ec b8 bc
       -0.0030167026472553357 -3.4586726928645395e-16
000060 fc 9e fb e9 b2 08 4d 3f 3a d8 0e ce e6 ff 3a bf
       0.000886046753262953 -0.0004119814384994123
000070 d6 7f 6a 77 c5 8d f1 3f 51 b4 a2 a5 bc 72 f6 3f
       1.0971121468246472 1.4030119390620437
000080 37 e6 d8 62 d4 90 d1 bf 00 00 00 00 00 0e 11 bd
       -0.2744646992974568 -1.514760539222948e-14
000090 ad 4f cd 19 8e 88 00 40 7a 87 ec e1 b7 9d ed 3f
       2.0666772857457176 0.9255027210785862
0000a0 92 70 dd ae ce 6a f5 3f 54 84 03 a1 9f 1e ce bf
       1.3385760145820638 -0.23530955659865305
0000b0 00 00 00 00 00 25 09 3d 1e 61 92 2f e8 5c fa bf
       1.1166415014862707e-14 -1.6476823671601504
0000c0 19 63 dd 15 76 d5 1d 40 fe a1 5b fc b8 cf 0c c0
       7.458458272588154 -3.601427051111613
0000d0 5a f0 09 f7 65 30 03 c0 a8 ec 4d a4 e2 0b 81 bf
       -2.398631982794581 -0.00832345069806302
0000e0 ad 55 74 b6 fd 7b ad bf 00 00 00 00 00 38 9d bc
       -0.05758660175539929 -1.0137290312739466e-16
0000f0 f5 9a ba 22 f9 75 85 bf e7 21 56 87 3a e8 b3 bf
       -0.010478922245352499 -0.07776227764237086
000100 00 00 00 00 00 70 9e bc 00 00 00 00 00 c1 c1 bc
       -1.0560129160008813e-16 -4.927698873946618e-16
000110 18 c2 c4 f7 d3 d0 b3 bf 00 00 00 00 d0 cd 06 bd
       -0.07740521239316711 -1.0126990392100854e-14
000120 71 00 44 cd 3a 78 9c 3f e0 66 09 63 ee 0d 91 3f
       0.027802389887256532 0.016654705805513426
000130 44 2d 6a 6a 0e ff f0 bf 36 8b a7 68 70 b6 f3 bf
       -1.0622696072412774 -1.2320407951417116
000140 ee ac d0 a6 87 cd c4 3f 00 00 00 00 00 26 04 3d
       0.16252227444906658 8.947703689088371e-15
000150 23 d1 f9 41 0f 7a f3 bf 5e be 78 ad 92 1b ee bf
       -1.2172997071439304 -0.940865839778734
000160 6a f2 b7 e0 7b e9 f2 bf 18 89 ed 1f 34 5a c3 3f
       -1.182002904707725 0.15119029578188115
000170 00 00 00 00 00 45 00 bd 85 dd 0f a2 d1 e0 f0 3f
       -7.225123277443402e-15 1.054887421660028
000180 7a 36 da a2 c2 ee 0b 40 5a f0 09 f7 65 30 03 c0
       3.4915821764796506 -2.398631982794581
000190 6c 86 ca ce e2 6d f9 bf 0d 0f 3a 6c 52 8b 6b bf
       -1.5893276288774372 -0.0033623323268460238
0001a0 50 d7 66 c9 89 4d b7 bf 00 00 00 00 00 90 9b bc
       -0.0910268894866395 -9.562663161322149e-17
0001b0 38 35 01 32 2c d6 85 bf 00 96 8f 03 cb 82 c7 bf
       -0.010662408138296983 -0.18367898630019397
0001c0 00 00 00 00 00 28 b0 bc 00 00 00 00 00 fd c8 bc
       -2.242130092700023e-16 -6.935641297389772e-16
0001d0 d6 ea 5d 37 14 6c b9 bf 00 00 00 00 70 8d 0f bd
       -0.09930540420274822 -1.401212045698541e-14
0001e0 16 7f 0a f2 51 76 a3 3f 76 a9 7c d0 39 04 92 3f
       0.03801208572008201 0.017594245290788867
0001f0 94 97 e3 4a 4d 00 ea bf 60 77 63 ac 12 56 ec bf
       -0.8125368559528732 -0.885506951042526
000200 11 45 9f d0 53 40 b8 3f 00 00 00 00 00 40 f9 3c
       0.09473155825914527 5.6066262743570405e-15
000210 82 d1 ee 9a f3 0c ea bf 70 54 8a 61 61 92 e7 bf
       -0.8140810037644288 -0.7366187005124072
000220 28 99 ac 3e 54 69 eb bf c3 08 e6 4a f2 84 b6 3f
       -0.856607553873606 0.08796610191896818
000230 00 00 00 00 00 8e f3 bc 9f f8 82 8e 8d 56 e6 3f
       -4.342012860369948e-15 0.6980655463628586
000240 fe bb fb 61 3f 82 4f bf a8 ec 4d a4 e2 0b 81 bf
       -0.0009615716444083542 -0.00832345069806302
000250 0d 0f 3a 6c 52 8b 6b bf 5a 62 f8 6a 9d f1 b1 bf
       -0.0033623323268460238 -0.07009300099924456
000260 75 f6 e1 d5 6d 9d 88 bf 00 00 00 00 00 20 94 bc
       -0.012019022073441502 -6.982261990806649e-17
000270 93 40 0e d0 f7 06 e6 bf 31 d8 41 31 b8 be ae 3f
       -0.6883505881869659 0.060048824322550216
000280 00 00 00 00 00 f0 d4 3c 00 00 00 00 80 56 b2 bc
       1.1622647289044608e-15 -2.5448935493666003e-16
000290 84 7d ef 64 e4 5b 67 bf 00 00 00 00 e0 16 05 3d
       -0.002851434786392994 9.365555206364284e-15
0002a0 d2 2f 8e b0 53 e6 8d bf 7e 09 cd 74 39 66 cb 3f
       -0.014599469972175348 0.214057142287924
0002b0 bb d1 02 9d f6 1c dc bf 2a 36 14 ee 46 f5 c6 bf
       -0.4392677815733596 -0.17936026215504458
0002c0 62 01 f0 3e d6 80 c6 3f 00 00 00 00 00 96 f9 3c
       0.17580679009553096 5.681219383824043e-15
0002d0 94 b7 54 ef 78 3f b4 bf 51 61 d6 38 89 88 dd 3f
       -0.07909351199188414 0.4614584975293115
0002e0 c0 cd f0 14 89 18 ca 3f 62 37 b2 85 83 5a c2 bf
       0.2038737632989136 -0.143387260705306
0002f0 00 00 00 00 40 bf f8 3c c1 74 bc 8a bf 4c c0 bf
       5.4949534505910336e-15 -0.12734216951586144
000300 cc 7c 39 b0 ba e3 97 3f ad 55 74 b6 fd 7b ad bf
       0.023329655652898393 -0.05758660175539929
000310 50 d7 66 c9 89 4d b7 bf 75 f6 e1 d5 6d 9d 88 bf
       -0.0910268894866395 -0.012019022073441502
000320 56 8f 83 57 c0 81 bc bf 00 00 00 00 00 00 ad bc
       -0.11135484825677841 -2.0122792321330962e-16
000330 fe 8b 0a 9c 9d 8f b3 bf ad bf 72 26 82 ee e5 bf
       -0.07641015109633995 -0.685364794820989
000340 00 00 00 00 00 80 b4 bc 00 00 00 00 00 08 bc bc
       -2.8449465006019636e-16 -3.89011739487799e-16
000350 0a fa e1 36 3c 0c a9 bf 00 00 00 00 b8 73 26 bd
       -0.04892147226290795 -3.9882810595748275e-14
000360 47 04 35 11 32 a5 ba 3f 9d 26 ed 9f 91 7b a1 3f
       0.10408318443389063 0.03414588048196985
000370 aa 4e d6 6b 4f ae da bf 26 cb 05 6b d2 32 cc bf
       -0.41688905268640986 -0.2203009626933518
000380 ad a6 54 ab fc e9 c8 bf 00 00 00 00 80 14 f7 bc
       -0.19464071622615134 -5.124806828904482e-15
000390 76 68 e9 cd 1b 71 c1 bf 02 c1 f0 f8 28 6d d5 bf
       -0.13626430086407354 -0.3347876006182703
0003a0 f5 bf cd f7 cf f1 c8 bf fb 6c 92 69 28 97 c8 bf
       -0.19487952804365674 -0.192112971829239
0003b0 00 00 00 00 00 15 fe 3c 39 5e c4 f3 f7 87 c2 3f
       6.679552744248696e-15 0.14477443125427827
0003c0 00 00 00 00 00 30 7f 3c 00 00 00 00 00 38 9d bc
       2.7050844203513336e-17 -1.0137290312739466e-16
0003d0 00 00 00 00 00 90 9b bc 00 00 00 00 00 40 94 bc
       -9.562663161322149e-17 -7.025630077706069e-17
0003e0 00 00 00 00 00 00 ad bc 2c 02 38 a8 b9 7e c3 bf
       -2.0122792321330962e-16 -0.152304846895292
0003f0 00 00 00 00 00 38 d6 bc 00 00 00 00 00 60 b0 3c
       -1.2333883914195098e-15 2.2724877535296173e-16
000400 de e1 d1 8d 3f 3a e5 bf 49 94 5c b9 29 39 64 3f
       -0.6633603830260275 0.0024686636851521154
000410 00 00 00 00 00 9a b8 3c 00 f3 de bf 17 be b2 3f
       3.4141526411568535e-16 0.0732130855021289
000420 00 00 00 00 f0 2e 20 3d 00 00 00 00 f0 e5 d3 bc
       2.874740376301865e-14 -1.1045716208010758e-15
000430 00 00 00 00 00 40 c9 bc 00 00 00 00 00 00 b7 bc
       -7.008282842946301e-16 -3.191891195797325e-16
000440 00 00 00 00 d0 bc 03 3d 49 ac c0 6a 73 09 d3 bf
       8.76523246345906e-15 -0.29745183396397984
000450 00 00 00 00 00 fc d7 bc 00 00 00 00 00 c0 a9 3c
       -1.3314002678121994e-15 1.7867651802561113e-16
000460 00 00 00 00 00 a0 8e 3c 00 00 00 00 00 b2 05 bd
       5.312590645178972e-17 -9.634654185575187e-15
000470 8e 2f f6 fa fc 31 d1 bf 00 00 00 00 00 00 c0 bc
       -0.2686760378644458 -4.440892098500626e-16
000480 3a 1f 92 a8 57 34 31 3f f5 9a ba 22 f9 75 85 bf
       0.00026251926517105765 -0.010478922245352499
000490 38 35 01 32 2c d6 85 bf 93 40 0e d0 f7 06 e6 bf
       -0.010662408138296983 -0.6883505881869659
0004a0 fd 8b 0a 9c 9d 8f b3 bf 00 00 00 00 00 30 d6 bc
       -0.07641015109633993 -1.231653667943533e-15
0004b0 10 b1 eb 5b aa 95 c8 bf 4b 69 a8 67 6a 42 56 3f
       -0.1920674275237464 0.001358608161018698
0004c0 00 00 00 00 00 50 ad 3c 00 00 00 00 60 89 b7 bc
       2.0339632755828063e-16 -3.266362332519923e-16
0004d0 c6 b9 5e 61 fe 6e 76 bf 00 00 00 00 32 9f fc 3c
       -0.005476945565460805 6.355328860830484e-15
0004e0 5b e1 05 3f 61 4e 76 bf 5d 2a ba 1f e9 7d ce 3f
       -0.005445842616943554 0.23821748780422328
0004f0 1c 94 d8 a4 7d 7f d2 bf 9b ed 95 59 39 b0 ba bf
       -0.2890314206909481 -0.10425146519803834
000500 95 10 05 ea 60 c1 91 3f 00 00 00 00 00 34 cc 3c
       0.017339243205484484 7.827939685345342e-16
000510 d6 e3 1e cd 45 47 b5 bf 5a 15 bd fe 9a 5f d1 3f
       -0.08311878450230323 0.271460293548747
000520 1e 30 4f ff 8b a7 b9 3f 76 d9 af d3 05 41 8a bf
       0.10021281226289644 -0.012819333574935792
000530 00 00 00 00 80 ba c2 3c 22 91 f8 53 ef c8 ac bf
       5.198207315981751e-16 -0.05622051143680752
000540 1b 08 a5 fb 5d 1c 74 3f e7 21 56 87 3a e8 b3 bf
       0.004909865494768818 -0.07776227764237086
000550 00 96 8f 03 cb 82 c7 bf 31 d8 41 31 b8 be ae 3f
       -0.18367898630019397 0.060048824322550216
000560 af bf 72 26 82 ee e5 bf 00 00 00 00 00 60 b0 3c
       -0.6853647948209892 2.2724877535296173e-16
000570 43 69 a8 67 6a 42 56 3f b0 71 a7 9e 45 80 be bf
       0.0013586081610186963 -0.11914477466002071
000580 00 00 00 00 00 28 ad bc 00 00 00 00 00 6a c0 bc
       -2.0231212538579513e-16 -4.55581752878409e-16
000590 48 aa 8b 4b 8e 99 b0 bf 00 00 00 00 22 cb 25 bd
       -0.0648430761754436 -3.871301066174504e-14
0005a0 af 30 81 d7 0a a5 b9 3f 3a c8 fd 1c 35 b2 83 3f
       0.10017459641784641 0.009617247531171203
0005b0 62 37 17 14 c4 ef ce bf df 30 01 1d c6 70 c8 bf
       -0.24169207554808297 -0.19094158569567463
0005c0 05 91 6c 89 06 0c a1 bf 00 00 00 00 00 c0 c7 bc
       -0.03329487254657874 -6.591949208711867e-16
0005d0 11 0c 71 c6 e6 98 b6 bf bd b7 69 da 44 72 d0 bf
       -0.08827059120908155 -0.256974423688799
0005e0 92 0b 86 bd 37 96 c9 bf a5 6a 2a ca 7e 64 9c bf
       -0.1998967814834854 -0.027727109040464843
0005f0 00 00 00 00 00 78 cf 3c 93 80 4b a1 ab d0 b2 3f
       8.734332701543224e-16 0.07349655807365911
000600 00 00 00 00 00 50 5a 3c 00 00 00 00 00 70 9e bc
       5.705613932704967e-18 -1.0560129160008813e-16
000610 00 00 00 00 00 28 b0 bc 00 00 00 00 00 f0 d4 3c
       -2.242130092700023e-16 1.1622647289044608e-15
000620 00 00 00 00 00 c0 b4 bc de e1 d1 8d 3f 3a e5 bf
       -2.8796409701215e-16 -0.6633603830260275
000630 00 00 00 00 00 60 ad 3c 00 00 00 00 00 20 ad bc
       2.0383000842727483e-16 -2.0209528495129803e-16
000640 5b 8f 22 08 62 f5 90 3f 4c 66 c7 f9 73 ca 57 3f
       0.01656106161739444 0.001452077157514958
000650 00 00 00 00 00 9a b2 3c de 58 4b e1 36 b2 af 3f
       2.581485372687986e-16 0.06190654277968276
000660 00 00 00 00 40 70 1b 3d 00 00 00 00 f8 65 d7 bc
       2.4370262752260174e-14 -1.2988674263740563e-15
000670 00 00 00 00 00 00 6c bc 00 00 00 00 00 60 a4 bc
       -1.214306433183765e-17 -1.4137996329210978e-16
000680 00 00 00 00 98 c2 d5 3c 4a 35 f0 ba b8 e1 a6 bf
       1.2079299691568346e-15 -0.04469086915933447
000690 00 00 00 00 00 dc b5 bc 00 00 00 00 00 c8 c2 bc
       -3.0335976786144414e-16 -5.212844045310305e-16
0006a0 00 00 00 00 00 f4 b6 bc 00 00 00 00 00 c5 d6 bc
       -3.185385982762412e-16 -1.263962892683601e-15
0006b0 ec 5f cf 71 b4 ce a2 bf 00 00 00 00 00 14 a0 3c
       -0.036733282940701745 1.115644035487584e-16
0006c0 00 00 00 00 80 c8 80 bc 00 00 00 00 00 c1 c1 bc
       -2.911421646302481e-17 -4.927698873946618e-16
0006d0 00 00 00 00 00 fd c8 bc 00 00 00 00 c0 56 b2 bc
       -6.935641297389772e-16 -2.545029074638161e-16
0006e0 00 00 00 00 60 08 bc bc 49 94 5c b9 29 39 64 3f
       -3.890320682785331e-16 0.0024686636851521154
0006f0 00 00 00 00 20 8d b7 bc 00 00 00 00 78 78 c0 bc
       -3.2683952115933335e-16 -4.571504578967239e-16
000700 4d 66 c7 f9 73 ca 57 3f be a4 8f b5 30 9c 07 40
       0.0014520771575149583 2.95126478047004
000710 00 00 00 00 00 c0 c2 3c d7 a0 4c 54 ae 3b 71 bf
       5.204170427930421e-16 -0.004207306836896594
000720 00 00 00 00 00 40 e0 bc 00 00 00 00 00 f8 b5 3c
       -1.8041124150158794e-15 3.0487765090292385e-16
000730 00 00 00 00 b0 18 b6 bc 00 00 00 00 80 50 c4 bc
       -3.0664964382857984e-16 -5.638393398010866e-16
000740 00 00 00 00 d0 c0 f7 3c 67 4b da d8 cf 43 cd bf
       5.274264098381609e-15 -0.22863195503722553
000750 00 00 00 00 00 98 dc 3c 00 00 00 00 00 6f ad bc
       1.5872719805187785e-15 -2.042365842419569e-16
000760 00 00 00 00 00 15 bd bc 00 00 00 00 00 ba f6 3c
       -4.0359425870772903e-16 5.046310591616532e-15
000770 46 3f 79 0f cf dd c6 3f 00 00 00 00 00 0c d0 bc
       0.17864406829402862 -8.907805049140904e-16
000780 70 65 c6 e6 7b b6 68 bf 18 c2 c4 f7 d3 d0 b3 bf
       -0.0030167026472553357 -0.07740521239316711
000790 d6 ea 5d 37 14 6c b9 bf 85 7d ef 64 e4 5b 67 bf
       -0.09930540420274822 -0.0028514347863929945
0007a0 0a fa e1 36 3c 0c a9 bf 00 00 00 00 00 9a b8 3c
       -0.04892147226290795 3.4141526411568535e-16
0007b0 c7 b9 5e 61 fe 6e 76 bf 46 aa 8b 4b 8e 99 b0 bf
       -0.005476945565460806 -0.06484307617544358
0007c0 00 00 00 00 00 9e b2 3c 00 00 00 00 00 80 c2 3c
       2.583653777032957e-16 5.134781488891349e-16
0007d0 eb d5 47 0e 04 2f 07 40 00 00 00 00 00 a0 ff 3c
       2.8979569545433512 7.022160630754115e-15
0007e0 80 0c b9 8b 05 4e 8f bf 48 89 66 b6 82 4e 7e 3f
       -0.01528553326273241 0.00739909228869557
0007f0 95 f0 f0 b1 29 5b a2 bf 60 1b 18 b6 f7 cd b2 bf
       -0.03585176751264033 -0.0734553165021743
