h2o_energies_noise_scf_matrices/h2o_noise_matrices_dft_b3lyp_def2-SVP_402.npz (npz, 19405 bytes, 4 tensors)

coords f8 [3, 3]
00000000: 0000 0000 0000 0000 0000 0000 0000 0000
00000010: 0000 0000 0000 0000 132d 9e2e 6691 e83f
00000020: e54c cce1 7357 e13f 3bda 8932 632d 883f
00000030: 6408 493a c18e e8bf 20a2 e825 fd5b e33f
00000040: c8ef 4412 8dd3 95bf
0.0 0.0 0.0 0.767748919535196 0.5419253740423328 0.011805319766819191 -0.7674261225113352 0.604979108849026
-0.021314815750187482

energy f8 []
00000000: fcd0 c26a 72fd 52c0
-75.96010846161874

noise_sigma f8 []
00000000: 7b14 ae47 e17a 943f
0.02

features f8 [7, 24, 24]
00000000: c416 4b28 ef88 34c0 e868 9371 afd4 1d40
00000010: dc82 3e2c 5cee 0b40 1b58 9bc3 5380 41bf
00000020: 678c 3770 23bf 973f 0000 0000 00ea a13c
00000030: 8f81 2b35 0320 253f 79f7 0060 f0b9 73bf
00000040: 0000 0000 0018 673c 0000 0000 0050 463c
00000050: c910 eb62 eedc 66bf 0000 0000 f049 abbc
00000060: f49b be8a add0 473f 9244 3151 7556 32bf
00000070: 14c1 8e93 aa23 f23f 4a12 1d75 55a6 f63f
00000080: 6821 4f43 8e96 d2bf 0000 0000 0094 0fbd
00000090: db86 cf01 553e 0140 7a9f cb21 d036 f03f
000000a0: 32da 3472 52f6 f53f 83f8 f1f4 3fc2 d0bf
000000b0: 0000 0000 0098 f8bc 328b b72e 46c6 fdbf
000000c0: e868 9371 afd4 1d40 e832 c257 2cd7 0cc0
000000d0: 96a3 417e 6639 03c0 e12a 3eaa 750c 7abf
000000e0: 504c a8f2 60a1 afbf 0000 0000 0080 b6bc
000000f0: 8351 58cf b297 7cbf acc6 c475 2958 b43f
00000100: 0000 0000 0034 a2bc 0000 0000 00b8 a13c
00000110: f79d 49f2 3ad6 b6bf 0000 0000 20a7 febc
00000120: c4e9 7b04 691f 9a3f be3a 2109 ade1 883f
00000130: 3a6f 113b dd67 f1bf c4be 4fc3 c8e3 f3bf
00000140: 7e4a d4f4 4db7 c53f 0000 0000 005c 023d
00000150: 77a4 51e0 8bfe f3bf e6a2 4d55 7610 f0bf
00000160: 3272 569c 295b f3bf 43eb f628 c09e c43f
00000170: 0000 0000 0068 ed3c 796d b574 4632 f23f
00000180: dc82 3e2c 5cee 0b40 96a3 417e 6639 03c0
00000190: c0ea 0a31 697f f9bf 3443 3865 b627 68bf
000001a0: 76d5 00d9 c7c2 b7bf 0000 0000 007a bcbc
000001b0: 42f8 a80a ec62 79bf ce68 6436 3713 c73f
000001c0: 0000 0000 0024 b8bc 0000 0000 00e0 ab3c
000001d0: 06a4 1c08 e7c3 bcbf 0000 0000 0077 04bd
000001e0: 9914 82d5 9295 a13f 656f c34b e2e1 893f
000001f0: 4c93 8462 7f7c eabf b89c 3854 8981 ecbf
00000200: baa2 919c 1fc1 b93f 0000 0000 00c4 f63c
00000210: 108e c398 eec3 eabf 64b5 509f 52d1 e8bf
00000220: 348c 9008 52e5 ebbf 93d3 563d 416f b83f
00000230: 0000 0000 0020 e43c 9ba5 6797 4135 e83f
00000240: 1b58 9bc3 5380 41bf e12a 3eaa 750c 7abf
00000250: 3443 3865 b627 68bf eb59 295a 2ffd b5bf
00000260: 12c4 2568 05e5 81bf 0000 0000 0060 8fbc
00000270: a789 71c4 9d7e e6bf 60a0 bbde 7257 a2bf
00000280: 0000 0000 0000 983c 0000 0000 002c 903c
00000290: a805 7603 8994 5dbf 0000 0000 802f fa3c
000002a0: cdd6 0c2a 7fe5 85bf fb53 6e47 7dbf cc3f
000002b0: fb86 2dd5 e8ab ddbf e6dd 7ee3 751a c8bf
000002c0: 1613 cca8 9f4d c53f 0000 0000 803c f83c
000002d0: eec0 afbe f7e1 b3bf 1308 4ac8 f469 de3f
000002e0: 8bc8 fbbc 82f2 c93f cb23 6726 899e c2bf
000002f0: 0000 0000 0090 a63c 8fca 0012 6520 bcbf
00000300: 678c 3770 23bf 973f 504c a8f2 60a1 afbf
00000310: 76d5 00d9 c7c2 b7bf 14c4 2568 05e5 81bf
00000320: e725 01bc 2d68 bebf 0000 0000 0082 b2bc
00000330: 0e6a ddce 3201 a8bf 3ede 4b95 9814 e63f
00000340: 0000 0000 00ce f1bc 0000 0000 0088 9d3c
00000350: 7a0d 761c 9899 abbf 0000 0000 e8d9 19bd
00000360: 6851 6d5b 1f38 ba3f 3946 ff7b 4905 983f
00000370: b087 e47a c670 d9bf d382 d907 dbd8 cabf
00000380: 9739 5b3e a4c1 cabf 0000 0000 00d1 f5bc
00000390: c255 11d5 2754 c0bf 0808 bc50 ca0e d6bf
000003a0: 2867 7bc0 f2cf c8bf 5c9b c8d1 5a54 cabf
000003b0: 0000 0000 00f4 e13c f732 20e7 be3e c13f
000003c0: 0000 0000 00ea a13c 0000 0000 0080 b6bc
000003d0: 0000 0000 007a bcbc 0000 0000 0000 8fbc
000003e0: 0000 0000 0084 b2bc d47b 705f 7e4e c3bf
000003f0: 0000 0000 00c0 b7bc 0000 0000 00a8 f33c
00000400: 74a4 9185 963d e53f f9e4 a52e d7c6 5d3f
00000410: 0000 0000 008a cb3c 92e0 e398 70f8 b2bf
00000420: 0000 0000 201c 12bd 0000 0000 3077 d93c
00000430: 0000 0000 00f4 e1bc 0000 0000 00b0 d1bc
00000440: 0000 0000 00eb 023d b56c ae8c 6e5b d3bf
00000450: 0000 0000 0048 dbbc 0000 0000 00d8 d3bc
00000460: 0000 0000 00a0 c7bc 0000 0000 0059 ddbc
00000470: a050 650c f01e d2bf 0000 0000 00a4 db3c
00000480: 8f81 2b35 0320 253f 8351 58cf b297 7cbf
00000490: 42f8 a80a ec62 79bf a889 71c4 9d7e e6bf
000004a0: 0c6a ddce 3201 a8bf 0000 0000 00e0 b7bc
000004b0: f323 416a 6435 cabf f929 267d 6f7e 57bf
000004c0: 0000 0000 0000 9d3c 0000 0000 0070 763c
000004d0: 70ee fbed 1871 68bf 0000 0000 587c f63c
000004e0: 6921 0aa9 fa85 76bf ef20 8efd 3782 cf3f
000004f0: f672 efd2 209c d2bf ffbd 52ef 2960 babf
00000500: 8300 f052 826c 913f 0000 0000 00cc ca3c
00000510: 7091 8364 57a4 b6bf a7ba 5afc 5001 d23f
00000520: 73c0 2b4d 5044 ba3f e4b9 f4eb 8ade 8bbf
00000530: 0000 0000 0040 a3bc cca0 97b7 222c b2bf
00000540: 79f7 0060 f0b9 73bf acc6 c475 2958 b43f
00000550: ce68 6436 3713 c73f 60a0 bbde 7257 a2bf
00000560: 3fde 4b95 9814 e63f 0000 0000 00aa f33c
00000570: f729 267d 6f7e 57bf fd96 35b5 7587 bcbf
00000580: 0000 0000 00ce b03c 0000 0000 0084 a2bc
00000590: 4fd7 9ed4 5bea b13f 0000 0000 883b 193d
000005a0: 5522 ad5f d592 b8bf 488f 283a 0e3e 7fbf
000005b0: 95a9 d06b 9755 ce3f e422 2f46 d790 c73f
000005c0: 8c57 f88e e6a0 a03f 0000 0000 0038 d03c
000005d0: b772 5ae3 29da b63f 2bf6 571f 9374 cf3f
000005e0: 084d 9db2 3943 c83f 6912 9d4c 6a06 9d3f
000005f0: 0000 0000 0030 adbc 60d9 05bd 516d b4bf
00000600: 0000 0000 0018 673c 0000 0000 0034 a2bc
00000610: 0000 0000 0024 b8bc 0000 0000 0080 973c
00000620: 0000 0000 00cd f1bc 74a4 9185 963d e53f
00000630: 0000 0000 00d4 9c3c 0000 0000 00cb b03c
00000640: 92d3 16fb f634 8f3f 0342 0e77 9fe5 50bf
00000650: 0000 0000 c0c2 d1bc 9cf7 dcb3 f8dc af3f
00000660: 0000 0000 d0a0 0f3d 0000 0000 e4cb d3bc
00000670: 0000 0000 0040 b6bc 0000 0000 00ec b7bc
00000680: 0000 0000 001d dabc 530c 5f9e d588 a73f
00000690: 0000 0000 004c a03c 0000 0000 0000 c7bc
000006a0: 0000 0000 0090 bfbc 0000 0000 0088 7b3c
000006b0: fc99 dde7 6c8b a43f 0000 0000 00e0 793c
000006c0: 0000 0000 0050 463c 0000 0000 00b8 a13c
000006d0: 0000 0000 00e0 ab3c 0000 0000 0025 903c
000006e0: 0000 0000 c0a2 9d3c f8e4 a52e d7c6 5d3f
000006f0: 0000 0000 0066 763c 0000 0000 1081 a2bc
00000700: 0242 0e77 9fe5 50bf 5835 c1d3 c28e 0740
00000710: 0000 0000 0000 aa3c 6650 176e 333c 693f
00000720: 0000 0000 0040 c43c 0000 0000 00c0 89bc
00000730: 0000 0000 005c 8f3c 0000 0000 0010 a53c
00000740: 0000 0000 00b4 013d 33f1 556f 52f7 cfbf
00000750: 0000 0000 00ac cebc 0000 0000 0060 793c
00000760: 0000 0000 0030 a13c 0000 0000 0080 cd3c
00000770: e4f3 7216 9a6b cb3f 0000 0000 0080 93bc
00000780: c910 eb62 eedc 66bf f79d 49f2 3ad6 b6bf
00000790: 06a4 1c08 e7c3 bcbf b505 7603 8994 5dbf
000007a0: 7d0d 761c 9899 abbf 0000 0000 0088 cb3c
000007b0: 73ee fbed 1871 68bf 4ed7 9ed4 5bea b13f
000007c0: 0000 0000 80c3 d1bc 0000 0000 0000 ad3c
000007d0: 5e1b 6f7e e70b 0740 0000 0000 0070 e23c
000007e0: c04e 3e92 8d54 91bf 90f3 f52c 8bea 753f
000007f0: fe0b 488f bf67 a3bf 7f33 cfbd 41d7 b4bf
-20.534899252254732 7.457700514433078 3.4913867432190795 -0.0005340966228810669 0.023190072750264436 1.2430377907546308e-16 0.00016117133289751367 -0.004815997090245599
1.0015317568334847e-17 2.4191260973582818e-18 -0.002790895079075016 -1.8935421535869884e-16 0.0007267806408791642 -0.0002798115176050965 1.1337075962038101 1.4156088423489046
-0.29043919156222 -1.4023504579796509e-14 2.155435575624194 1.0133820839054963 1.372637220496142 -0.26185606880597606 -5.460909502374989e-15 -1.860906774986415
7.457700514433078 -3.605065045942286 -2.4030275214940486 -0.006359538678121197 -0.061778096791521464 -3.122502256758253e-16 -0.006980608440717242 0.07947024464808788
-1.2630955309456127e-16 1.229485263598562e-16 -0.08920639434074205 -6.806295978212251e-15 0.02551044549816496 0.012149192658538307 -1.0878574664447584 -1.2431113843303345
0.16965650991967957 8.153200337090993e-15 -1.2496451151330612 -1.0040191013487685 -1.2097564799252152 0.16109468460293827 3.264749581788351e-15 1.1372742232259425
3.4913867432190795 -2.4030275214940486 -1.5936061778763104 -0.0029486238870578777 -0.09281586692744334 -3.9519169187096637e-16 -0.0061978550316422205 0.18027391582365343
-3.3501847129802087e-16 1.93421667571414e-16 -0.11236423442882434 -9.088216290642492e-15 0.03434428077984215 0.012637870728603404 -0.8276974605729293 -0.8908125538772742
0.1006030804870858 5.054984208996416e-15 -0.8364174827260644 -0.7755520927072834 -0.8717432181623566 0.09544761416948537 2.2343238370581275e-15 0.7565010029913312
-0.0005340966228810669 -0.006359538678121197 -0.0029486238870578777 -0.08589454604348361 -0.0087376043709089 -5.442694905877232e-17 -0.7029560887133827 -0.03582343071849503
8.326672684688674e-17 5.610746242612485e-17 -0.0018054330847408848 5.814359410605263e-15 -0.010691636534470384 0.2245937918457058 -0.4636175233664372 -0.188307510454009
0.1664313863949693 5.38154590334905e-15 -0.07766674428399131 0.4752170520733909 0.2027133391162049 -0.1454631268991576 1.5655879370690684e-16 -0.10986930551079353
0.023190072750264436 -0.061778096791521464 -0.09281586692744334 -0.008737604370908904 -0.11877714004472005 -2.56847494661816e-16 -0.04688414359289449 0.6900141635841874
-3.953434801751143e-15 1.0245710529988017e-16 -0.05390620562959732 -2.2960474667377273e-14 0.10241886121850075 0.023457668488680226 -0.3975082588314036 -0.2097429073646909
-0.20903447193854838 -4.844215306665234e-15 -0.12756822494217884 -0.34465272793033863 -0.19384607695138212 -0.2056993030866704 1.9931972738973514e-15 0.1347273472350918
1.2430377907546308e-16 -3.122502256758253e-16 -3.9519169187096637e-16 -5.377642775528102e-17 -2.5695591487906455e-16 -0.15083293590666236 -3.2959746043559335e-16 4.364564265557647e-15
0.6637680634277232 0.0018174268139701784 7.643625316022806e-16 -0.07410339100522581 -1.608478975012595e-14 1.4136234500680689e-15 -1.9931972738973514e-15 -9.818534874028728e-16
8.401265794155677e-15 -0.30245555628216475 -1.5144135945277526e-15 -1.1015494072452725e-15 -6.557254739192331e-16 -1.629122184376719e-15 -0.2831382866909369 1.5343629145014859e-15
0.00016117133289751367 -0.006980608440717242 -0.0061978550316422205 -0.7029560887133828 -0.04688414359289447 -3.3133218391157016e-16 -0.20475440204816628 -0.0014339531668122725
1.0061396160665481e-16 1.9461428996114805e-17 -0.00298361653392281 4.992832319458684e-15 -0.005498866216506173 0.24616145973801148 -0.29077931021838255 -0.10302984326221319
0.01701549178324103 7.43762690325056e-16 -0.08844515041307033 0.2813303436659375 0.10260488399558358 -0.013608060193829048 -1.3357370765021415e-16 -0.07098595602258512
-0.004815997090245599 0.07947024464808788 0.18027391582365343 -0.03582343071849503 0.6900141635841875 4.3662989890336235e-15 -0.001433953166812272 -0.11144195245796236
2.33211887301632e-16 -1.2847795743953228e-16 0.06998228016786111 2.241100100636162e-14 -0.09599050126883786 -0.007627540182998001 0.23698704494865966 0.18410769392928394
0.03247757430305773 9.003214840319629e-16 0.08926641274087897 0.24574507742356508 0.1895515558377172 0.028344784666176546 -2.0252896582029223e-16 -0.0797930799943507
1.0015317568334847e-17 -1.2630955309456127e-16 -3.3501847129802087e-16 8.153200337090993e-17 -3.952567440013155e-15 0.6637680634277232 1.0001765041178778e-16 2.330492569757592e-16
0.015237741029389604 -0.001031308868025716 -9.859192455496935e-16 0.062232753711654015 1.4045730724332461e-14 -1.0989236051087842e-15 -3.0878077872387166e-16 -3.3198270521506146e-16
-1.4495783046131194e-15 0.04596583898776232 1.1308228659023811e-16 -6.38378239159465e-16 -4.380176776841438e-16 2.3879552848993235e-17 0.04012623148337366 2.2442984970449942e-17
2.4191260973582818e-18 1.229485263598562e-16 1.93421667571414e-16 5.601259473603237e-17 1.0281963540130501e-16 0.0018174268139701782 1.9427547678224633e-17 -1.2839833634249037e-16
-0.0010313088680257159 2.9447075408303753 1.8041124150158794e-16 0.003080463837912761 5.620504062164855e-16 -4.466912950640278e-17 5.4399844004460185e-17 1.46150452851046e-16
7.86176679312689e-15 -0.24973516880334898 -8.513155458356181e-16 2.200930410145574e-17 1.192622389734055e-16 8.187894806610529e-16 0.21422124954361188 -6.765421556309548e-17
-0.002790895079075016 -0.08920639434074205 -0.11236423442882434 -0.0018054330847408877 -0.05390620562959734 7.641456911677835e-16 -0.0029836165339228115 0.0699822801678611
-9.860818758755663e-16 2.0122792321330962e-16 2.8808126332909714 2.0469737016526324e-15 -0.016924106646526438 0.005350631384655538 -0.03790091156044893 -0.0814095581437879
