h2o_energies_noise_scf_matrices/h2o_noise_matrices_dft_b3lyp_def2-SVP_13.npz (npz, 19563 bytes, 4 tensors)

coords f8 [3, 3]
00000000: 0000 0000 0000 0000 0000 0000 0000 0000
00000010: 0000 0000 0000 0000 c0db 3f38 8243 e83f
00000020: 0f35 bba4 9c98 e33f 2cce 7a45 3b97 7f3f
00000030: 310c 18a4 b80c e7bf f830 e5a8 d4c5 e23f
00000040: 252c 03dd 0e25 85bf
0.0 0.0 0.0 0.7582408045408258 0.6123793809325963 0.00771258499996778 -0.7203028874358833 0.5866492556320102
-0.010324588889849615

energy f8 []
00000000: fa13 ba70 6efd 52c0
-75.95986574336703

noise_sigma f8 []
00000000: 7b14 ae47 e17a 943f
0.02

features f8 [7, 24, 24]
00000000: 6ec8 4d07 4a89 34c0 74a9 acef 30d5 1d40
00000010: 45a8 da89 d0ee 0b40 c1e2 21f9 b4f6 4c3f
00000020: 5fba e2a0 bb4c 983f 0000 0000 0000 7f3c
00000030: ade5 b527 4d90 2cbf 6339 67e4 a994 743f
00000040: 0000 0000 00e4 4b3c 0000 0000 00f6 6fbc
00000050: 5b21 7cfd 9c88 663f 0000 0000 d59a c13c
00000060: a61c 9cc1 f7f7 46bf b240 7554 babb 373f
00000070: 3e3b d0bc 805a f03f c5ce c2f9 f103 f63f
00000080: 4f4e 913b cfad d1bf 0000 0000 8017 133d
00000090: 10dc 2c97 4d15 fe3f bf84 910b bfb9 f23f
000000a0: fd7b 3f03 23d9 f63f 4587 ed03 872a d4bf
000000b0: 0000 0000 00e4 fdbc 60e7 ddaa e2f0 01c0
000000c0: 74a9 acef 30d5 1d40 d6b7 0fd5 f9e0 0cc0
000000d0: de7a 58c9 7740 03c0 bd0b f371 04cd 7b3f
000000e0: daf3 7a0c c367 b1bf 0000 0000 00b0 92bc
000000f0: 4425 6abe 8f2c 823f cf8c fe7e e5da b5bf
00000100: 0000 0000 00f8 8dbc 0000 0000 00a0 87bc
00000110: 84cf 29d0 bc4b b53f 0000 0000 f042 193d
00000120: 64ac c33b 0bd5 a0bf 1c7b bc92 ef4c 8fbf
00000130: e4bf 7185 102e f0bf bad8 a5e2 906e f3bf
00000140: 1d5f dff9 4d6c c53f 0000 0000 0041 07bd
00000150: 257e 08a7 8e5c f2bf 4a5b 8290 77d3 f1bf
00000160: be70 2ad6 e213 f4bf 6675 139f f4fa c63f
00000170: 0000 0000 0030 f13c d827 f8d6 e78f f43f
00000180: 45a8 da89 d0ee 0b40 de7a 58c9 7740 03c0
00000190: a0fe ad4a 5c89 f9bf b476 c05e 8c68 623f
000001a0: 332e 97db 226a b9bf 0000 0000 00d8 91bc
000001b0: 89d2 34bc d918 813f dd13 0873 f83c c8bf
000001c0: 0000 0000 00f8 9fbc 0000 0000 0030 89bc
000001d0: 3ae7 05ca 84c3 ba3f 0000 0000 8dbc 203d
000001e0: 24cb 0092 5849 a6bf 5a27 bd61 f322 90bf
000001f0: 5862 065b d406 e9bf c4a1 15ef 940d ecbf
00000200: ee88 a932 5a25 b93f 0000 0000 0032 fcbc
00000210: efdf 711c d07e e8bf a082 766a 4213 ebbf
00000220: 5c31 5a84 70ca ecbf 107f 429d 8cfd ba3f
00000230: 0000 0000 00f8 e53c 73a2 274d 9d9e eb3f
00000240: c1e2 21f9 b4f6 4c3f bd0b f371 04cd 7b3f
00000250: b476 c05e 8c68 623f 6ce7 4a65 2172 b6bf
00000260: ac86 77ac 14a2 853f 0000 0000 0010 95bc
00000270: 8659 8b0d 2a5a e6bf de81 787a 8eed aabf
00000280: 0000 0000 0040 c53c 0000 0000 002c c63c
00000290: a8b1 1735 7e7c 56bf 0000 0000 3c6b 0b3d
000002a0: 7583 2496 7304 8ebf 439d 2572 0177 cd3f
000002b0: cced 2342 452c debf c9be 6b2f 0793 c9bf
000002c0: fa14 2112 4cab c33f 0000 0000 e0f3 febc
000002d0: 1fef 4513 9281 babf c529 dc95 d6a9 dc3f
000002e0: 9cdb 54a7 01b5 c63f 6357 6e81 a576 c7bf
000002f0: 0000 0000 d0d4 d0bc 31c2 597f d2b9 afbf
00000300: 5fba e2a0 bb4c 983f daf3 7a0c c367 b1bf
00000310: 332e 97db 226a b9bf ac86 77ac 14a2 853f
00000320: 3de2 9bf0 0301 c0bf 0000 0000 0048 91bc
00000330: a963 e727 6fec b03f 9da5 f45e eb43 e6bf
00000340: 0000 0000 0000 9ebc 0000 0000 0030 90bc
00000350: 7f1d 35c4 d5e2 aa3f 0000 0040 b883 353d
00000360: a285 2377 80f8 bcbf 07e3 ec46 5158 a0bf
00000370: 5990 36b1 dbd6 d6bf 1b01 0e34 c5d6 c9bf
00000380: e2c9 526a 2845 cabf 0000 0000 4092 043d
00000390: 93ec 4ac1 a120 c2bf df25 df41 a571 dbbf
000003a0: ba6b b330 eea0 ccbf 7f10 1e7b e23a cabf
000003b0: 0000 0000 00cc d3bc 943a bffc 9ddf c03f
000003c0: 0000 0000 0000 7f3c 0000 0000 00b0 92bc
000003d0: 0000 0000 00d8 91bc 0000 0000 0010 95bc
000003e0: 0000 0000 0050 91bc 5266 2cdd 4da6 c3bf
000003f0: 0000 0000 00b0 cebc 0000 0000 0038 b4bc
00000400: 0288 a3a3 8c46 e5bf 326a 205f 7004 62bf
00000410: 0000 0000 809a b4bc 49bd 2ffe dcd2 b33f
00000420: 0000 0080 e87f 2d3d 0000 0000 8ed4 c2bc
00000430: 0000 0000 0040 d0bc 0000 0000 0038 bcbc
00000440: 0000 0000 00d1 0cbd c6b7 b070 1d45 d2bf
00000450: 0000 0000 00a8 b83c 0000 0000 0090 c13c
00000460: 0000 0000 0070 a63c 0000 0000 00e5 df3c
00000470: 9bb2 c0f3 17c7 d3bf 0000 0000 0098 c23c
00000480: ade5 b527 4d90 2cbf 4425 6abe 8f2c 823f
00000490: 89d2 34bc d918 813f 8659 8b0d 2a5a e6bf
000004a0: aa63 e727 6fec b03f 0000 0000 00b0 cebc
000004b0: 8208 feaa 9b75 c8bf 7b81 5703 e7b5 58bf
000004c0: 0000 0000 0080 9ebc 0000 0000 a08b c73c
000004d0: 5888 6b75 e186 6cbf 0000 0080 2967 fe3c
000004e0: a00e 50b6 4b40 79bf 6c1a c1b0 ea0b d03f
000004f0: ef7b ff1f 695d d1bf 30f9 a583 f761 b8bf
00000500: 8bd6 167b 7f84 923f 0000 0000 00fd d0bc
00000510: 1ea9 3b75 31eb b0bf 86db f53f 4842 d23f
00000520: fcff 84e6 7206 b93f aec6 6237 afff 96bf
00000530: 0000 0000 005c b4bc 7f6e bc1a 196f b6bf
00000540: 6339 67e4 a994 743f cf8c fe7e e5da b5bf
00000550: dd13 0873 f83c c8bf de81 787a 8eed aabf
00000560: 9da5 f45e eb43 e6bf 0000 0000 0038 b4bc
00000570: 7981 5703 e7b5 58bf 1cfa 4640 9925 c0bf
00000580: 0000 0000 00fc 9ebc 0000 0000 0040 68bc
00000590: bc77 5fde 886f b13f 0000 0080 4d9f 343d
000005a0: fc08 363b a4a7 bbbf f6f2 8626 d964 82bf
000005b0: 5b74 764a 1bc9 d0bf 386b 87ba 96c4 c9bf
000005c0: f6bc 8443 ff42 a0bf 0000 0000 0073 d63c
000005d0: 1802 cac1 19d1 b6bf 05ff 9870 2dfa cfbf
000005e0: 6a0a 0586 9dd8 c8bf f065 5667 0e2f a3bf
000005f0: 0000 0000 0070 9dbc 5ef6 8038 60bd b93f
00000600: 0000 0000 00e4 4b3c 0000 0000 00f8 8dbc
00000610: 0000 0000 00f8 9fbc 0000 0000 0040 c53c
00000620: 0000 0000 0020 9ebc 0388 a3a3 8c46 e5bf
00000630: 0000 0000 00a8 9ebc 0000 0000 0004 9fbc
00000640: 2ef2 9023 c355 8d3f 1967 8de4 7114 54bf
00000650: 0000 0000 c02e b0bc 2035 d59a 1ba8 b03f
00000660: 0000 0000 22c8 283d 0000 0000 a1e9 c6bc
00000670: 0000 0000 0080 b1bc 0000 0000 0094 a2bc
00000680: 0000 0000 20c1 e0bc ce5e 9a30 db5f a5bf
00000690: 0000 0000 0090 70bc 0000 0000 0080 86bc
000006a0: 0000 0000 0000 99bc 0000 0000 0033 b53c
000006b0: 6eb2 1b96 772d a9bf 0000 0000 00b8 973c
000006c0: 0000 0000 00f6 6fbc 0000 0000 00a0 87bc
000006d0: 0000 0000 0030 89bc 0000 0000 e82c c63c
000006e0: 0000 0000 8019 90bc 336a 205f 7004 62bf
000006f0: 0000 0000 648b c73c 0000 0000 009e 66bc
00000700: 1867 8de4 7114 54bf 8994 3b48 5a90 0740
00000710: 0000 0000 0000 9cbc 3c47 f032 f095 6d3f
00000720: 0000 0000 0040 e63c 0000 0000 00e3 c0bc
00000730: 0000 0000 f05d a73c 0000 0000 00e0 9b3c
00000740: 0000 0000 e053 06bd fc4e b393 ed06 cbbf
00000750: 0000 0000 00a0 c9bc 0000 0000 00ba abbc
00000760: 0000 0000 00da adbc 0000 0000 0079 e1bc
00000770: ba81 fd8c be30 d03f 0000 0000 0074 e0bc
00000780: 5b21 7cfd 9c88 663f 84cf 29d0 bc4b b53f
00000790: 3ae7 05ca 84c3 ba3f a7b1 1735 7e7c 56bf
000007a0: 7c1d 35c4 d5e2 aa3f 0000 0000 809b b4bc
000007b0: 5988 6b75 e186 6cbf ba77 5fde 886f b13f
000007c0: 0000 0000 0030 b0bc 0000 0000 0000 96bc
000007d0: fca8 b025 bd1c 0740 0000 0000 809a 063d
000007e0: 8081 d281 6600 8fbf 00fe c2d3 b89f 783f
000007f0: f0e1 a586 f26b a43f f81f 0609 ba61 b33f
-20.536285835733388 7.458194489396522 3.491608693108932 0.0008839019449303419 0.023730212874108477 2.688821387764051e-17 -0.00021792356333686977 0.005024589196592852
3.0239076216978522e-18 -1.386084714886937e-17 0.0027506891455041766 4.886317079308509e-16 -0.0007009467837812047 0.00036214160032433794 1.022095429947242 1.3759631878173633
-0.2762334901537757 1.695692197767329e-14 1.8802009492189917 1.1703482105152003 1.4280119063257637 -0.3150956667287697 -6.637052019087264e-15 -2.242619833847968
7.458194489396522 -3.6098515172406946 -2.40647847462911 0.006787316669206453 -0.06798953108496111 -6.483528991463317e-17 0.008874056814664251 -0.08537134504745157
-5.198749417067994e-17 -4.098284211995207e-17 0.08318691331970568 2.2436696597849526e-14 -0.03287539581818846 -0.015283462205443459 -1.0112462246579463 -1.2144936421805554
0.1673676939087664 -1.0326808852489933e-14 -1.1475969814999953 -1.1141276974573935 -1.2548550001002208 0.17953355567344004 3.816391647148976e-15 1.2851332089653535
3.491608693108932 -2.40647847462911 -1.5960352818655466 0.00224711814918418 -0.09927575932595616 -6.19079440489223e-17 0.00834817987070237 -0.1893606721570497
-1.109138822452671e-16 -4.369334755116583e-17 0.10454587871745682 2.973004329699658e-14 -0.043528335402149204 -0.01575832637835304 -0.7820836808996985 -0.8766579312914975
0.09822620140906554 -6.260617024800297e-15 -0.7654800944865182 -0.8461010054926028 -0.8997118554121175 0.10543135489797018 2.4390212072233908e-15 0.8631121165208938
0.0008839019449303419 0.006787316669206453 0.00224711814918418 -0.08767899249042238 0.010563050759574942 -7.3075226425523e-17 -0.698506380513934 -0.05259366269115494
5.898059818321144e-16 6.153931531027723e-16 -0.0013724548811025836 1.2176430653695891e-14 -0.01465692808102557 0.23019426415997132 -0.4714520593549565 -0.19979944053146984
0.15366507420745973 -6.872865991602861e-15 -0.1035395905545866 0.44786610255019027 0.17739887876970506 -0.1833083040225417 -9.343247746665395e-16 -0.061964586301546005
0.023730212874108477 -0.06798953108496111 -0.09927575932595616 0.010563050759574942 -0.12503098724825348 -5.99563801384484e-17 0.06610769962516251 -0.6957909445383624
-1.0408340855860843e-16 -5.616167253474913e-17 0.05251186390028816 7.643496567014824e-14 -0.11316683682118492 -0.03192380896365959 -0.3568639021489211 -0.20186677018865215
-0.20523553077289508 9.13548750536286e-15 -0.1416208452045323 -0.42881137306957656 -0.22366120698901942 -0.2049220181617137 -1.0989473220313073e-15 0.13182425347482207
2.688821387764051e-17 -6.483528991463317e-17 -6.19079440489223e-17 -7.3075226425523e-17 -6.006480035569695e-17 -0.15351270007595247 -8.517492267046123e-16 -2.8059152223924855e-16
-0.6648619838781544 -0.0021993822820267845 -2.8593121793873966e-16 0.0774362679073778 5.2401889793531053e-14 -5.226455864772682e-16 -9.020562075079397e-16 -3.916138247017642e-16
-1.2797055082280906e-14 -0.28546844487106815 3.421742056364252e-16 4.874572967494828e-16 1.5569143196891844e-16 1.7705021476688287e-15 -0.30902670673348503 5.160802341031001e-16
-0.00021792356333686977 0.008874056814664251 0.00834817987070237 -0.698506380513934 0.06610769962516252 -8.517492267046123e-16 -0.19108911370500797 -0.0015082126604895874
-1.0581813203458523e-16 6.535164119927939e-16 -0.0034822848787010967 6.750817014232989e-15 -0.006164832831021677 0.2507273412815383 -0.2713263332825013 -0.09524485553808826
0.018083564651269184 -9.430390496278918e-16 -0.06608876335272781 0.28529554601794194 0.09775465133589017 -0.022459733729823732 -2.8254308614972246e-16 -0.08763272192703118
0.005024589196592852 -0.08537134504745157 -0.1893606721570497 -0.05259366269115494 -0.6957909445383624 -2.8059152223924855e-16 -0.001508212660489587 -0.12614741934335505
-1.0749864540193776e-16 -1.0516761073109393e-17 0.06810813359285722 7.32650431208709e-14 -0.10802675672133327 -0.008981415260558272 -0.2622745730566913 -0.20131191356525746
-0.03176114749146024 1.2461819770548388e-15 -0.08912812215022148 -0.24982231138164238 -0.19411057514124092 -0.037468385805549675 -1.0213184464813452e-16 0.10054589633451758
3.0239076216978522e-18 -5.198749417067994e-17 -1.109138822452671e-16 5.898059818321144e-16 -1.0451708942760263e-16 -0.6648619838781545 -1.0636023312082798e-16 -1.0760706561918632e-16
0.014323734782117983 -0.0012255775675015844 -2.2457892750321617e-16 0.06506512193773917 4.402126449823407e-14 -6.359527603150023e-16 -2.42861286636753e-16 -1.2891163830852648e-16
-1.8601114572247557e-15 -0.0417469498472066 -1.4365678785432934e-17 -3.903127820947816e-17 -8.673617379884035e-17 2.9419825950394163e-16 -0.04917501170516379 8.229094489164979e-17
-1.386084714886937e-17 -4.098284211995207e-17 -4.369334755116583e-17 6.154914089246538e-16 -5.585674067373758e-17 -0.002199382282026785 6.534910010043762e-16 -9.808641529204798e-18
-0.0012255775675015842 2.9454846995527686 -9.71445146547012e-17 0.0036115352045350806 2.4702462297909733e-15 -4.687005991654836e-16 1.6214074082931268e-16 9.6710833785707e-17
-9.915462548248932e-15 -0.2111489268487431 -7.112366251504909e-16 -1.9239167550755276e-16 -2.0713682505335562e-16 -1.9398545270110645e-15 0.2529751183374419 -1.826663820203578e-15
0.0027506891455041766 0.08318691331970568 0.10454587871745682 -0.0013724548811025834 0.05251186390028814 -2.8598542804736393e-16 -0.003482284878701097 0.0681081335928572
-2.246466901389965e-16 -7.632783294297951e-17 2.889032644704569 1.0037977393739794e-14 -0.01513748248754676 0.0060116977512616465 0.039886073051949356 0.07570994110403706
