h2o_energies_noise_scf_matrices/h2o_noise_matrices_dft_b3lyp_def2-SVP_822.npz (npz, 19400 bytes, 4 tensors)

coords f8 [3, 3]
0	0x0000000000000000	0.0
1	0x0000000000000000	0.0
2	0x0000000000000000	0.0
3	0x3fe895966dae7064	0.7682602064337627
4	0x3fe2af3fc4dafdd3	0.5838927121002889
5	0xbf942afbe110c1e1	-0.01969522057714979
6	0xbfe7f7246c09c337	-0.7489187345619034
7	0x3fe22cd535353764	0.5679727591720902
8	0xbf7b26dfade229a9	-0.006628869769097192

energy f8 []
0	0xc052fd7eaa204550	-75.96085599090043

noise_sigma f8 []
0	0x3f947ae147ae147b	0.02

features f8 [7, 24, 24]
0	0xc03488d45140735c	-20.534489706263557
1	0x401dd4ba55979123	7.457742059112465
2	0x400bee73800a5892	3.4914312365681974
3	0x3f393eb256ee0219	0.0003852067374552639
4	0x3f97e7a756d018a3	0.023344626115453192
5	0x3c85900000000000	3.74049749507499e-17
6	0xbf1cdd8725cb8343	-0.00011011254668914527
7	0x3f73f2b057089f91	0.004870117977169645
8	0xbc40c00000000000	-1.81603863891322e-18
9	0x3c64740000000000	8.870129023647033e-18
10	0x3f6660f4a6cbc1d6	0.0027317789412040034
11	0xbcb4c5a000000000	-2.8826902887316153e-16
12	0xbf46776e4433211e	-0.0006856239710027222
13	0x3f293cff02b8afde	0.00019255268976914227
14	0x3ff0d3420ea31bf6	1.0515766689074986
15	0x3ff6300ffde43f91	1.3867340009346416
16	0xbfd1ca4e0345cb84	-0.2779727012595503
17	0xbd09ec0000000000	-1.1511624986582092e-14
18	0x3fff40a048ba9422	1.953277858826603
19	0x3ff221fcfe23678f	1.1332979132916738
20	0x3ff6a5d5f9bfc270	1.4154872661421471
21	0xbfd317ed23eaf2a3	-0.2983353472480223
22	0xbcd4780000000000	-1.1362438767648086e-15
23	0xc00139eb98e3ee09	-2.1532813973005926
24	0x401dd4ba55979123	7.457742059112465
25	0xc00cdbe05e577424	-3.607361542743563
26	0xc0033d79a2b9852e	-2.4050171578279764
27	0x3f713b936680694b	0.004207206518936533
28	0xbfb07cf6ed601d5d	-0.0644068078546431
29	0xbca4580000000000	-1.4116312285761268e-16
30	0x3f736b1dbc0d4226	0.004740825796787839
31	0xbfb4f2dce72620fd	-0.08183079379353227
32	0xbc66800000000000	-9.75781955236954e-18
33	0x3c9cb40000000000	9.958396954279358e-17
34	0x3fb6e9390c900aea	0.08949619824128843
35	0xbd0893e000000000	-1.0914663270411573e-14
36	0xbf9c4fd518880ae7	-0.02764828645923503
37	0xbf8124775531cb66	-0.008370334899358855
38	0xbff0802979dc0142	-1.0312895546085916
39	0xbff38bf4c93c339a	-1.2216689930676012
40	0x3fc56f8b9b096918	0.16746659345773973
41	0x3cff080000000000	6.890321646579878e-15
42	0xbff2c6c2c503202c	-1.1735255904950561
43	0xbff16871866ae4d0	-1.0879988909421634
44	0xbff3e756844e1682	-1.2439789932408591
45	0x3fc63bf09324b5d3	0.17370421585785198
46	0x3cc6f00000000000	6.366435156834882e-16
47	0x3ff3fde7d3911766	1.2494886650397006
48	0x400bee73800a5892	3.4914312365681974
49	0xc0033d79a2b9852e	-2.4050171578279764
50	0xbff98626280fc1cc	-1.5952512326149302
51	0x3f5e0cfd9a0de06f	0.0018341518955065324
52	0xbfb85ef52aaf00d6	-0.09519893924789655
53	0xbcab100000000000	-1.8778381627448937e-16
54	0x3f711d1f9c52b458	0.004178164938975014
55	0xbfc766b8fe8efc2d	-0.18282234601608263
56	0x3c80000000000000	2.7755575615628914e-17
57	0x3ca2300000000000	1.2620113287731272e-16
58	0x3fbcbf5b7cafda1c	0.11229488176454833
59	0xbd105df000000000	-1.4536765888251146e-14
60	0xbfa2dcc76f8ba981	-0.036840660444641855
61	0xbf81ba82cf5ff1e0	-0.008656522706581293
62	0xbfe9612493d41df0	-0.7931082618023861
63	0xbfec222ba82c59cc	-0.8791712078698821
64	0x3fb96dd0823d127d	0.09933188609745432
65	0x3cf3400000000000	4.274358644806853e-15
66	0xbfe90c9c036238dc	-0.782789236649275
67	0xbfea81d99e4e1314	-0.8283508388418306
68	0xbfec8a6d918c3648	-0.8918979494789676
69	0x3fba634978af7a47	0.10307749935552933
70	0x3cbe300000000000	4.189357194483989e-16
71	0x3feac68b0c53fdf7	0.8367362252028546
72	0x3f393eb256ee0219	0.0003852067374552639
73	0x3f713b936680694b	0.004207206518936533
74	0x3f5e0cfd9a0de06f	0.0018341518955065324
75	0xbfb70044086c9239	-0.08984780507723479
76	0x3f7866ec0d36bb70	0.005957529141069937
77	0x3c7dc00000000000	2.5804011705155006e-17
78	0xbfe68ebbf2d9ebd9	-0.7049236052692961
79	0xbf99ac459f49b282	-0.025071227881584786
80	0xbcb7600000000000	-3.2439329000766293e-16
81	0x3cd45db000000000	1.1305382628321037e-15
82	0xbf50f4963d101ad8	-0.0010348765538325446
83	0xbcc28c2000000000	-5.147927440232736e-16
84	0xbf7ef8e2462f4290	-0.007561572917396689
85	0x3fcd4d2b0a56371a	0.22891748432851317
86	0xbfde605f013212bf	-0.47463202587850256
87	0xbfc97cb9335d6fa1	-0.19911875732475173
88	0x3fc377b8fce263ad	0.1520911440645966
89	0x3cf62c0000000000	4.9231452248221785e-15
90	0xbfb95d5f122b43ec	-0.09908098405436733
91	0x3fddcc721802790f	0.4656033739537557
92	0x3fc82c4ed7a5e7e7	0.18885217218104275
93	0xbfc5592087aadd14	-0.16678244232546346
94	0xbcc5f00000000000	-6.088879400678593e-16
95	0xbfb3ba0776b0f963	-0.07705732963311145
96	0x3f97e7a756d018a3	0.023344626115453192
97	0xbfb07cf6ed601d5d	-0.0644068078546431
98	0xbfb85ef52aaf00d6	-0.09519893924789655
99	0x3f7866ec0d36bb6e	0.005957529141069935
100	0xbfbf28c0e4b8dcc3	-0.12171559890781496
101	0xbcb5900000000000	-2.992397996059992e-16
102	0x3fa0a711aa1d7f7c	0.03252463533021818
103	0xbfe630367df2c0dd	-0.6933853588034499
104	0x3cdab00000000000	1.4814538484841933e-15
105	0x3c64000000000000	8.673617379884035e-18
106	0x3fabe950ebf04694	0.05451443557843763
107	0xbd27e73c00000000	-4.246071810126706e-14
108	0xbfbb23309cc9b18c	-0.10600570514515634
109	0xbf90cd8d166aa4b9	-0.01640911530799791
110	0xbfd6fe560190d9f7	-0.3592734351435917
111	0xbfc97b5049f127f6	-0.19907573328447342
112	0xbfcaabda6ee0cc7b	-0.20836954511614522
113	0xbcfb150000000000	-6.013418929473602e-15
114	0xbfc1356eca21a00c	-0.13444313878721947
115	0xbfd955719dae832c	-0.39584007643320507
116	0xbfcae29f46874099	-0.21004095977560125
117	0xbfcae33e65180ffd	-0.21005992828588652
118	0xbc84000000000000	-3.469446951953614e-17
119	0x3fc08c47596a0b9e	0.1292809664338081
120	0x3c85900000000000	3.74049749507499e-17
121	0xbca4580000000000	-1.4116312285761268e-16
122	0xbcab100000000000	-1.8778381627448937e-16
123	0x3c7e000000000000	2.6020852139652106e-17
124	0xbcb5880000000000	-2.98806118737005e-16
125	0xbfc3649e9f708203	-0.1515081671250443
126	0x3cc2880000000000	5.143455106271233e-16
127	0xbcd9d00000000000	-1.4328815911568427e-15
128	0xbfe54159e49cfc8e	-0.6642274346449015
129	0x3f54474942fb7fab	0.0012376990743447707
130	0xbc7b000000000000	-2.3418766925686896e-17
131	0x3fb3490d1c7abb38	0.07533342309282609
132	0xbd21130000000000	-3.0329905253978495e-14
133	0xbcd2ab5600000000	-1.036353281295109e-15
134	0xbcc3a00000000000	-5.447031714567174e-16
135	0xbcb4400000000000	-2.8102520310824275e-16
136	0x3d03d10000000000	8.800252193630342e-15
137	0xbfd288ba6df71f5a	-0.2895952295188998
138	0xbcc8c80000000000	-6.87817858224804e-16
139	0xbcd3900000000000	-1.0859368959614812e-15
140	0xbcc1480000000000	-4.796510411075872e-16
141	0x3cc3680000000000	5.386316392907986e-16
142	0xbfd35d3e90ffc0dc	-0.30256618652403033
143	0x3cbfb00000000000	4.397524011601206e-16
144	0xbf1cdd8725cb8343	-0.00011011254668914527
145	0x3f736b1dbc0d4226	0.004740825796787839
146	0x3f711d1f9c52b458	0.004178164938975014
147	0xbfe68ebbf2d9ebda	-0.7049236052692962
148	0x3fa0a711aa1d7f7c	0.03252463533021818
149	0x3cc2800000000000	5.134781488891349e-16
150	0xbfc9ec7b741e2a2f	-0.2025293652516935
151	0xbf5036a8684b5cd1	-0.0009895939448847822
152	0x3c6d800000000000	1.2793585635328952e-17
153	0x3cd67de400000000	1.2485435049117838e-15
154	0xbf5eb22c97de786d	-0.0018735347252696558
155	0x3cd4fe4000000000	1.1653547050960444e-15
156	0xbf6f40de9fc7d16a	-0.0038151119354045597
157	0x3fcfe78844288ab1	0.24925330474896648
158	0xbfd201ae3b0443d2	-0.2813525749525613
159	0xbfb9c23a8a6256bc	-0.10061994436758942
160	0x3f9037fb67047d11	0.01583855453747868
161	0x3cc6a20000000000	6.281867387381013e-16
162	0xbfb329845e82170f	-0.07485225016906959
163	0x3fd26bcd7dea61bb	0.2878297547954635
164	0x3fb9d9280aa9fd59	0.10096979389526463
165	0xbf92ab2fa99e101c	-0.01823114846003203
166	0xbc6bc00000000000	-1.2034644114589099e-17
167	0xbfb625dd8b2f1c4e	-0.08651528022811414
168	0x3f73f2b057089f91	0.004870117977169645
169	0xbfb4f2dce72620fd	-0.08183079379353227
170	0xbfc766b8fe8efc2d	-0.18282234601608263
171	0xbf99ac459f49b283	-0.02507122788158479
172	0xbfe630367df2c0dd	-0.6933853588034499
173	0xbcd9e00000000000	-1.4363510381087963e-15
174	0xbf5036a8684b5cd0	-0.000989593944884782
175	0xbfbd73ebd8823e4a	-0.11505006824358435
176	0x3c60000000000000	6.938893903907228e-18
177	0x3c9a900000000000	9.215718466126788e-17
178	0x3fb20e526ddbf306	0.07053103620632947
179	0xbd26339400000000	-3.9437745603942975e-14
180	0xbfb968270cc1ca78	-0.09924549161386576
181	0xbf755c60f76048fa	-0.005215052389774261
182	0xbfcfba9721d632fa	-0.2478817858904206
183	0xbfc86c9015a2ecd4	-0.1908130746504414
184	0xbf9edb759c4e7f8c	-0.03013404623527509
185	0xbccfd60000000000	-8.836247705756861e-16
186	0xbfb5e76494197117	-0.08556202521998944
187	0xbfcef5aa6ce084fc	-0.2418721229196662
188	0xbfc7f3a904fc1ee0	-0.18712342017555894
189	0xbfa0ee4baac09602	-0.033068050950799247
190	0xbc97a80000000000	-8.207410445715269e-17
191	0x3fb784269f43cbb4	0.09186021221448365
192	0xbc40c00000000000	-1.81603863891322e-18
193	0xbc66800000000000	-9.75781955236954e-18
194	0x3c80000000000000	2.7755575615628914e-17
195	0xbcb7700000000000	-3.2526065174565133e-16
196	0x3cdac00000000000	1.4849232954361469e-15
197	0xbfe54159e49cfc8e	-0.6642274346449015
198	0x3c6dc80000000000	1.2915558379733572e-17
199	0x3c5f000000000000	6.7220534694101275e-18
200	0x3f8e08cdc43bd3c2	0.014665229369237202
201	0x3f46b6728b12de9b	0.0006931361478085986
202	0xbca2200000000000	-1.2576745200831851e-16
203	0x3fb02f2c160cb723	0.06321979082414635
204	0xbd1c6da000000000	-2.524933387371142e-14
205	0xbcc9947800000000	-7.099864045203436e-16
206	0x3c74000000000000	1.734723475976807e-17
207	0x3c9fc00000000000	1.1015494072452725e-16
208	0x3cd7a58000000000	1.3126435702282002e-15
209	0xbfa59d8d7f356066	-0.042217656877881635
210	0xbc9ff00000000000	-1.1080546202801855e-16
211	0x3c91a00000000000	6.114900252818245e-17
212	0x3c96800000000000	7.806255641895632e-17
213	0x3ca3900000000000	1.3574211199518516e-16
214	0xbfa7af470610b871	-0.0462591357139538
215	0x3c8e7c0000000000	5.288196096298048e-17
216	0x3c64740000000000	8.870129023647033e-18
217	0x3c9cb40000000000	9.958396954279358e-17
218	0x3ca2300000000000	1.2620113287731272e-16
219	0x3cd45e3400000000	1.1306500711811412e-15
220	0x3c63aa0000000000	8.527927712956296e-18
221	0x3f54474942fb7fa9	0.0012376990743447702
222	0x3cd6815000000000	1.2492855057735786e-15
223	0x3c9a9c8000000000	9.232659125071874e-17
224	0x3f46b6728b12de9c	0.0006931361478085987
225	0x40078c9bd14f26db	2.9436565735130507
226	0x3c50000000000000	3.469446951953614e-18
227	0xbf60fe744c07a3ba	-0.0020744582582108125
228	0x3cd0d00000000000	9.332812300755222e-16
229	0xbcc9e9e000000000	-7.192461686997276e-16
230	0x3cbdcb0000000000	4.134604984773471e-16
231	0x3cbe2a8000000000	4.186375638509654e-16
232	0xbcffb20000000000	-7.037773142037906e-15
233	0x3fcce1e925502d97	0.22564424821790105
234	0xbce8dc0000000000	-2.7599450502791e-15
235	0xbcb2fee000000000	-2.6361698197627237e-16
236	0xbcacb20000000000	-1.991137289769629e-16
237	0x3cd9700000000000	1.412064909445121e-15
238	0xbfcfee46df260ed3	-0.24945913215571255
239	0xbce3448000000000	-2.1391308863139002e-15
240	0x3f6660f4a6cbc1d6	0.0027317789412040034
241	0x3fb6e9390c900aea	0.08949619824128843
242	0x3fbcbf5b7cafda1c	0.11229488176454833
243	0xbf50f4963d101ad3	-0.0010348765538325435
244	0x3fabe950ebf04696	0.054514435578437645
245	0xbc7a400000000000	-2.2768245622195593e-17
246	0xbf5eb22c97de7871	-0.0018735347252696567
247	0x3fb20e526ddbf306	0.07053103620632947
248	0xbca2180000000000	-1.2555061157382141e-16
249	0xbc68000000000000	-1.0408340855860843e-17
250	0x40070abdec947b4d	2.880245064050007
251	0xbcfda80000000000	-6.58501031480796e-15
252	0xbf90ec2690ba0300	-0.016525843223010206
253	0x3f6d16dbc18f9d20	0.0035509388076097187
254	0x3fa4eb5a7d4701df	0.04085810450806426
255	0x3fb4a9b1908df040	0.08071431903039272
