h2o_energies_noise_scf_matrices/h2o_noise_matrices_dft_b3lyp_def2-SVP_651.npz (npz, 19472 bytes, 4 tensors)

coords f8 [3, 3]
00000000: 0000 0000 0000 0000 0000 0000 0000 0000
00000010: 0000 0000 0000 0000 665b feb5 8c14 e83f
00000020: 16a7 9beb dddf e13f 6512 d8b8 b559 5c3f
00000030: 2b17 dd47 9221 e8bf 95e7 1e6a 1af0 e23f
00000040: a930 9b2e fbe1 8a3f
0.0 0.0 0.0 0.7525085024416114 0.5585774995535953 0.0017303728703847107 -0.7540980723940484 0.5918094704313598
0.01312633739453191

energy f8 []
00000000: beb8 b4fe 81fd 52c0
-75.9610592617855

noise_sigma f8 []
00000000: 7b14 ae47 e17a 943f
0.02

features f8 [7, 24, 24]
00000000: eca1 db72 ad88 34c0 3582 fa33 b3d4 1d40
00000010: 5872 79ed 79ee 0b40 e89c 1dd9 ad1f 36bf
00000020: 1296 daab 46fb 973f 0000 0000 0020 75bc
00000030: 7ef9 70c8 6bc4 183f 6d02 c825 ec09 743f
00000040: 0000 0000 0060 523c 0000 0000 0025 693c
00000050: 12bc 8a6a a0fb 653f 0000 0000 a038 a73c
00000060: a287 7065 a87f 453f fcf6 2a97 e6e4 25bf
00000070: 44ee d850 3e48 f23f 27bb fa3b ddb2 f63f
00000080: e2f5 8099 e086 d3bf 0000 0000 0088 cfbc
00000090: 10e3 b458 6367 0140 d17a 40b3 8c27 f13f
000000a0: 0c51 a896 724e f63f ac4c dc1d 3b5f d2bf
000000b0: 0000 0000 00f2 0c3d 15a4 9467 3f06 00c0
000000c0: 3582 fa33 b3d4 1d40 f8df 80b2 1fdf 0cc0
000000d0: 1a23 c58b 6240 03c0 ed93 a9c3 346f 6dbf
000000e0: 72fb cecc 5af7 b0bf 0000 0000 00b8 9e3c
000000f0: 4416 40f5 1caf 70bf 658c 1012 154c b5bf
00000100: 0000 0000 0080 7ebc 0000 0000 00e6 a03c
00000110: 3a2d 6289 8929 b73f 0000 0000 2082 003d
00000120: 775f 012f 7951 9d3f fe66 702f 63df 7d3f
00000130: 0a37 dac5 cf83 f1bf ec37 52f4 fbf3 f3bf
00000140: c8f1 e616 f69d c63f 0000 0000 00ac c23c
00000150: 596d b47e 5921 f4bf 3e06 7b02 21bc f0bf
00000160: bcf1 1cde 16a6 f3bf 9ea8 56f2 6de6 c53f
00000170: 0000 0000 0046 01bd 7c2f b869 0616 f33f
00000180: 5872 79ed 79ee 0b40 1a23 c58b 6240 03c0
00000190: 54dd 9432 e58a f9bf 6cd7 adb4 10f1 58bf
000001a0: fa40 a2d9 94c0 b8bf 0000 0000 00d0 973c
000001b0: d69f 941a 91ff 6cbf db60 3be4 ff88 c7bf
000001c0: 0000 0000 00c0 9bbc 0000 0000 00f6 a93c
000001d0: f84e e550 07f6 bc3f 0000 0000 10dc 053d
000001e0: 3d31 e141 2c6a a33f 8d33 657e efc1 7e3f
000001f0: b0bf 0a84 dfa5 eabf 0cdb 67ae a39a ecbf
00000200: 19d8 1307 c4e0 ba3f 0000 0000 0080 bc3c
00000210: 641e 4bc9 36fa eabf 4ce9 e1cd e2ad e9bf
00000220: 6842 7706 f041 ecbf 8736 8cba 9004 ba3f
00000230: 0000 0000 0010 f6bc 53fd 96aa f27e e93f
00000240: e89c 1dd9 ad1f 36bf ed93 a9c3 346f 6dbf
00000250: 6cd7 adb4 10f1 58bf ee0c 87db 3dd1 b7bf
00000260: e66a 32b8 1d1f 75bf 0000 0000 0060 7c3c
00000270: 4228 5d50 d39c e6bf a25d 487c ea42 963f
00000280: 0000 0000 0000 753c 0000 0000 d0d7 d7bc
00000290: a0d5 1e44 d8fb 493f 0000 0000 30ce e0bc
000002a0: 8c39 e304 6b50 7bbf 390c adb6 91ae cd3f
000002b0: 48f3 2b01 5eeb ddbf 966e f043 462d c8bf
000002c0: 1090 803c 5570 c53f 0000 0000 001c c7bc
000002d0: a039 25a3 a526 b3bf d0de 3b69 8071 de3f
000002e0: de46 0859 8f53 c93f 797b b088 4acc c3bf
000002f0: 0000 0000 003b e83c ce14 de7a 9803 b8bf
00000300: 1296 daab 46fb 973f 72fb cecc 5af7 b0bf
00000310: fa40 a2d9 94c0 b8bf e56a 32b8 1d1f 75bf
00000320: e4e2 f3ec 31c4 bfbf 0000 0000 00a0 9b3c
00000330: 81f3 ced4 15cc 9cbf 79e9 21a3 293f e6bf
00000340: 0000 0000 00c0 c5bc 0000 0000 00b0 963c
00000350: cbd7 dc0c 633b ac3f 0000 0000 844b 203d
00000360: 5bff 7055 e093 bb3f bb4d 81ce c265 8d3f
00000370: 6e36 3d6d f360 d9bf b3d4 c883 1eec cabf
00000380: b20f ef58 cb1a cbbf 0000 0000 00c8 cd3c
00000390: 4481 7d96 8785 c0bf ce3c c6ff ff59 d7bf
000003a0: 786d 8c6c efb5 c9bf 4342 b0f1 24f2 cabf
000003b0: 0000 0000 60dd e73c db9b 3a28 441d c13f
000003c0: 0000 0000 0020 75bc 0000 0000 00b8 9e3c
000003d0: 0000 0000 00d0 973c 0000 0000 0080 7c3c
000003e0: 0000 0000 00b0 9b3c 1509 2495 7e6e c3bf
000003f0: 0000 0000 0080 993c 0000 0000 0060 bd3c
00000400: 91a2 738d af43 e5bf f168 f0ca 318f 513f
00000410: 0000 0000 009c b93c bf9c edfd cb7a b33f
00000420: 0000 0000 4053 17bd 0000 0000 0050 39bc
00000430: 0000 0000 00d8 ae3c 0000 0000 0088 a73c
00000440: 0000 0000 00f8 d3bc 543e fe01 a475 d3bf
00000450: 0000 0000 0034 a9bc 0000 0000 0000 a5bc
00000460: 0000 0000 0000 60bc 0000 0000 809c f3bc
00000470: c827 cd85 0ec0 d2bf 0000 0000 007a d8bc
00000480: 7ef9 70c8 6bc4 183f 4416 40f5 1caf 70bf
00000490: d69f 941a 91ff 6cbf 4228 5d50 d39c e6bf
000004a0: 80f3 ced4 15cc 9cbf 0000 0000 0040 993c
000004b0: bb47 8e28 dbdd c9bf 43c3 0ebd ddbc 4c3f
000004c0: 0000 0000 0020 9d3c 0000 0000 60ad d9bc
000004d0: 0056 157f d7ab 583f 0000 0000 60f2 d1bc
000004e0: 7db5 60f5 59a9 6bbf c7e8 3407 5b18 d03f
000004f0: 7edc 7cb5 935c d2bf ddb2 0e5f f48e b9bf
00000500: 8101 90c8 7083 933f 0000 0000 00e0 63bc
00000510: ddc3 e74f 3f38 b6bf c9f4 7f97 5702 d23f
00000520: d3c9 70a6 1d7f b93f 6930 7827 775b 91bf
00000530: 0000 0000 006a c53c 5292 04e0 2caf b3bf
00000540: 6d02 c825 ec09 743f 658c 1012 154c b5bf
00000550: db60 3be4 ff88 c7bf a35d 487c ea42 963f
00000560: 79e9 21a3 293f e6bf 0000 0000 0040 bd3c
00000570: 44c3 0ebd ddbc 4c3f 0ca7 0a7c d9ca bdbf
00000580: 0000 0000 0048 a2bc 0000 0000 0048 a73c
00000590: 967d cb1d b730 b23f 0000 0000 f053 1e3d
000005a0: 1e18 415b 3cc8 b93f ab1b d5fe 1f97 723f
000005b0: 75c0 ffa3 9f2e cfbf c34b ac6a 530d c8bf
000005c0: f21f aa55 1137 a1bf 0000 0000 0072 b23c
000005d0: 4573 c0a5 5303 b8bf 00da 52b5 fbd6 cfbf
000005e0: 3ead 4251 7274 c8bf ebe0 aba4 dec4 9fbf
000005f0: 0000 0000 004c a33c 7bba 3be4 08a6 b63f
00000600: 0000 0000 0060 523c 0000 0000 0080 7ebc
00000610: 0000 0000 00c0 9bbc 0000 0000 0000 753c
00000620: 0000 0000 00c0 c5bc 91a2 738d af43 e5bf
00000630: 0000 0000 002d 9d3c 0000 0000 003d a2bc
00000640: 1c96 2065 103f 8d3f 7958 6ef5 0978 433f
00000650: 0000 0000 005c ba3c 1b60 3eca 4554 b03f
00000660: 0000 0000 d873 13bd 0000 0000 0020 6abc
00000670: 0000 0000 00d0 9abc 0000 0000 0050 93bc
00000680: 0000 0000 00c4 adbc f1ae 9292 69ff a7bf
00000690: 0000 0000 a0b9 91bc 0000 0000 0020 b6bc
000006a0: 0000 0000 0050 a4bc 0000 0000 805b c7bc
000006b0: b164 c5b7 c430 a6bf 0000 0000 00ac abbc
000006c0: 0000 0000 0025 693c 0000 0000 00e6 a03c
000006d0: 0000 0000 00f6 a93c 0000 0000 8ed6 d7bc
000006e0: 0000 0000 80a2 963c f268 f0ca 318f 513f
000006f0: 0000 0000 20b1 d9bc 0000 0000 a03d a73c
00000700: 7758 6ef5 0978 433f 29ff d623 7d8a 0740
00000710: 0000 0000 00d0 cfbc 1a33 ccda 2b41 5dbf
00000720: 0000 0000 0010 c33c 0000 0000 808b d33c
00000730: 0000 0000 20fd b2bc 0000 0000 00be adbc
00000740: 0000 0000 0090 b2bc 52d1 e43a b82c d0bf
00000750: 0000 0000 cc61 e33c 0000 0000 28a0 c03c
00000760: 0000 0000 c0bb c13c 0000 0000 8007 f13c
00000770: b6f9 5826 ecbc cd3f 0000 0000 8024 f43c
00000780: 12bc 8a6a a0fb 653f 3a2d 6289 8929 b73f
00000790: f84e e550 07f6 bc3f 9cd5 1e44 d8fb 493f
000007a0: ccd7 dc0c 633b ac3f 0000 0000 009a b93c
000007b0: f955 157f d7ab 583f 957d cb1d b730 b23f
000007c0: 0000 0000 0062 ba3c 0000 0000 00e0 cfbc
000007d0: b245 e644 8507 0740 0000 0000 0000 ec3c
000007e0: 0002 e1e6 10d8 903f 20e1 ba65 84cb 68bf
000007f0: b128 b1bc b175 a33f b768 c53a 0df1 b43f
-20.533896616574495 7.457714855351289 3.4914434960067346 -0.0003375815805299457 0.02341947959816621 -1.8323016715005025e-17 9.447963576378855e-05 0.004892275287148179
3.984442983884229e-18 1.0904702162951863e-17 0.0026834614876274443 1.6112938349029104e-16 0.0006560871360117191 -0.0001670390589278355 1.1426375539875986 1.4186680167146706
-0.30510725966072816 -8.751679936302992e-16 2.1754824571802445 1.0721556665445642 1.3941522488649438 -0.28706243434971657 1.285430095698814e-14 -2.0030506221996895
7.457714855351289 -3.608947176511716 -2.406437961534164 -0.0035930662682397336 -0.06627433300216781 1.0657707355532509e-16 -0.004073250882361604 -0.08319217387229257
-2.6454533008646308e-17 1.172564649543073e-16 0.09047755817498607 7.331158249912484e-15 0.028631108755092307 0.007293116991627489 -1.094680569516131 -1.2470664542956866
0.17669559591548833 5.182486384480711e-16 -1.2581419896512982 -1.0459299179932624 -1.2280491520206018 0.17109464962897375 -7.670947210769441e-15 1.1928772096316314
3.4914434960067346 -2.406437961534164 -1.5964099860992365 -0.0015223181860312919 -0.09668855965924542 8.261620554339544e-17 -0.0035398325022874917 -0.18386839527261753
-9.627715291671279e-17 1.8014019095846656e-16 0.11312909817689476 9.707620991783461e-15 0.037919409791899096 0.007509170076741689 -0.8327481821961467 -0.8938768774376924
0.10499215290823861 3.95516952522712e-16 -0.8430437022697785 -0.8024763127462307 -0.883049023274066 0.10163216165912035 -4.898859096158503e-15 0.7967465717155541
-0.0003375815805299457 -0.0035930662682397336 -0.0015223181860312919 -0.09303652391013248 -0.005156627742645558 2.461138931542095e-17 -0.706643731079801 0.02173963912545463
1.8214596497756474e-17 -1.3235533545888356e-15 0.0007929616915506761 -1.8657764135759924e-15 -0.00666848949749833 0.23188992900586117 -0.46749067415639844 -0.18888166730254302
0.16749062971314332 -6.414140052424244e-16 -0.07480845673601388 0.47567758824105244 0.1978625473716908 -0.1546719710758813 2.6901224303710336e-15 -0.09380486488051362
0.02341947959816621 -0.06627433300216781 -0.09668855965924542 -0.0051566277426455575 -0.12408744845368919 9.584347204771859e-17 -0.028122273553651937 -0.695210283868888
-6.036837696399289e-16 7.871307772244762e-17 0.055140586204671736 2.894570434036625e-14 0.10772516332599251 0.014354249884639061 -0.3965424124515725 -0.21033078608312436
-0.21175519793007208 8.265957363029486e-16 -0.12907500122219961 -0.3648681638523613 -0.200864723207683 -0.21051465798565702 2.6495190590114515e-15 0.13370563473037475
-1.8323016715005025e-17 1.0657707355532509e-16 8.261620554339544e-17 2.47198095326695e-17 9.606031248221569e-17 -0.15180952341331336 8.847089727481716e-17 4.0766001685454967e-16
-0.6645124209145071 0.0010717378861558292 3.5540147214074835e-16 0.07609248113077437 -2.071693511185302e-14 -1.3721933745519665e-18 2.1402150884863858e-16 1.6328084717631697e-16
-1.1084883011491797e-15 -0.3040552157844776 -1.7488181042191187e-16 -1.457167719820518e-16 -6.938893903907228e-18 -4.35458960557078e-15 -0.2929722124723608 -1.3587221625588342e-15
9.447963576378855e-05 -0.004073250882361604 -0.0035398325022874917 -0.706643731079801 -0.028122273553651933 8.760353553682876e-17 -0.20208301048529428 0.0008770067889739347
1.0104764247564901e-16 -1.4253734911123805e-15 0.00150581402370642 -9.962462712426179e-16 -0.0033766514780128585 0.2514865465524391 -0.2869004509297567 -0.09983756371247972
0.019056093446125914 -8.61940727125976e-18 -0.08679576588453082 0.2813929538240925 0.09959588349810326 -0.016950475486780556 5.943596309565535e-16 -0.07689171284852961
0.004892275287148179 -0.08319217387229257 -0.18386839527261753 0.021739639125454634 -0.695210283868888 4.0592529337857286e-16 0.0008770067889739348 -0.11637648847922949
-1.2685165418080402e-16 1.6154612370034016e-16 0.07105583646215616 2.6936569294533363e-14 0.10071160533797793 0.004538655264076856 -0.2436103392387882 -0.18790667256015867
-0.03362325831136549 2.559801329238276e-16 -0.09380076214479256 -0.24874826768582636 -0.19105366676135732 -0.03102443580698459 1.338989683019598e-16 0.08847098896124266
3.984442983884229e-18 -2.6454533008646308e-17 -9.627715291671279e-17 1.8214596497756474e-17 -6.036837696399289e-16 -0.6645124209145071 1.0122382532867791e-16 -1.265534985833705e-16
0.014280441366348255 0.000594143736509136 3.658098129966092e-16 0.06378589809025963 -1.7277303719642756e-14 -1.1329912702473521e-17 -9.302454639925628e-17 -6.700369425960417e-17
-2.065405138584886e-16 -0.046870516912660316 -6.149628603655671e-17 -3.0704605524789486e-16 -1.4094628242311558e-16 -6.482986890377074e-16 -0.043340823586455975 -1.9201220474718284e-16
1.0904702162951863e-17 1.172564649543073e-16 1.8014019095846656e-16 -1.3232806099798197e-15 7.853011860584069e-17 0.0010717378861558294 -1.4261866427417447e-15 1.6126490876185173e-16
0.0005941437365091358 2.9426214981066505 -8.829742492721948e-16 -0.001785557581743541 5.290906601729262e-16 1.0849611140062443e-15 -2.635221142861799e-16 -2.0637788353261577e-16
-2.5760643618255585e-16 -0.2527294707426978 2.1518363805227148e-15 4.614533852687758e-16 4.922006812541069e-16 3.781263496760445e-15 0.23232795593680827 4.472550801937203e-15
0.0026834614876274443 0.09047755817498607 0.11312909817689476 0.0007929616915506757 0.05514058620467174 3.552930519234998e-16 0.0015058140237064184 0.07105583646215614
3.6613507364835485e-16 -8.847089727481716e-16 2.878672159459449 3.1086244689504383e-15 0.016449226466876965 -0.0030267320524580837 0.03800731113786194 0.08180315670816439
