h2o_energies_noise_scf_matrices/h2o_noise_matrices_dft_b3lyp_def2-SVP_671.npz (npz, 19511 bytes, 4 tensors)

coords f8 [3, 3]
0.0 0.0 0.0 0.7695734346936086 0.5839796302542184 -0.015394290018224411 -0.743776813537725 0.5972817958822293
-0.009584560735591486
00000000: 0000 0000 0000 0000 0000 0000 0000 0000
00000010: 0000 0000 0000 0000 6124 bc77 58a0 e83f
00000020: f41a af0c f6af e23f 6726 63a1 0a87 8fbf
00000030: 225d 3508 05cd e7bf 29ee 79b6 ee1c e33f
00000040: da43 3ff7 11a1 83bf

energy f8 []
-75.96076407532274
00000000: b4ab 9a28 7dfd 52c0

noise_sigma f8 []
0.02
00000000: 7b14 ae47 e17a 943f

features f8 [7, 24, 24]
-20.53659096955345 7.458048230423666 3.4915107260881735 0.0002046716516308785 -0.023430201147801345 -1.734723475976807e-17 -5.5495715138839114e-05 0.004920409486993959
-5.068645156369733e-18 2.447925217564928e-18 -0.002820468905276144 4.900051718548237e-16 -0.0007345434267738774 9.2909930155126e-05 1.0484439734121307 1.3856173452637424
-0.27525819549859504 9.360567876370851e-15 1.9458249258487537 1.0874035891770206 1.3995839374691768 -0.284847321973285 9.495876307497042e-15 -2.041184563811444
7.458048230423666 -3.6058921854183357 -2.403333783213454 0.0019266718147372174 0.06262467318997482 7.22078646875346e-17 0.0023126392595368716 -0.08159247601375247
5.767955557622884e-17 -4.305366826939938e-16 -0.08448265151658868 1.8874008259062158e-14 -0.02911442906883861 -0.00393661156856381 -1.0290043812336127 -1.2203862905198015
0.16586515331880242 -5.693362448155881e-15 -1.1712714252577987 -1.0561969616066373 -1.2312245082696718 0.1687725236337988 -5.603156827405087e-15 1.207696486425669
3.4915107260881735 -2.403333783213454 -1.5937527220024235 0.0007823415467155748 0.09460632007911136 8.023096076392733e-17 0.002162084625264437 -0.18490578119019171
1.6002824065886045e-16 -5.460855292266364e-16 -0.10680113657293183 2.519328062139392e-14 -0.038963082432753586 -0.004097233917904331 -0.7920698479472295 -0.878994152039867
0.09768319667945664 -3.4295483120061476e-15 -0.7815315442536309 -0.8090051816286219 -0.8852015118819931 0.09942059449233347 -3.247402347028583e-15 0.8074459622729344
0.0002046716516308785 0.0019266718147372174 0.0007823415467155748 -0.08393166888294167 -0.002805371600774838 1.0158974356189177e-16 -0.7003213873193437 -0.012860514484499362
2.121133130250641e-15 1.418949593240404e-16 0.0005109666773570826 3.1837190219222156e-15 -0.0036028037858871977 0.22544019585386563 -0.46531709658224635 -0.19494725218454956
0.1578277970036312 -3.718379770756286e-15 -0.09666271416763488 0.4603820487416051 0.189637918594323 -0.16511879906887028 7.04124258898986e-15 -0.08591612251732582
-0.023430201147801345 0.06262467318997482 0.09460632007911136 -0.002805371600774838 -0.1182719889777514 -4.9439619065339e-17 -0.01646465829702337 0.6931556468097682
-1.0581813203458523e-15 2.8376281359376865e-16 0.05253401265899067 -6.940205788535936e-14 0.10774132418476648 0.007944565857692518 0.3716215820054832 0.20484313509031998
0.20366227507608023 -5.447248555001671e-15 0.13760099430210446 0.38975256046048223 0.21034291773447858 0.2042097684038095 -8.320601152522755e-15 -0.13525668143097969
-1.734723475976807e-17 7.22078646875346e-17 8.023096076392733e-17 1.0180658399638887e-16 -4.9439619065339e-17 -0.15208458331938407 2.280294009171513e-15 1.016547956922409e-15
0.6640888997538043 -0.0005797342360754635 1.7607443281164592e-16 0.07507436519793188 4.842046902320263e-14 -7.310504198526635e-16 1.3201245652183502e-15 5.759281940243e-16
7.414208136324874e-15 0.2893971597314638 9.627715291671279e-17 -7.615436059538183e-16 -3.183217578417441e-16 1.2091889989296334e-14 0.295686932423935 -1.1752751549742868e-16
-5.5495715138839114e-05 0.0023126392595368716 0.002162084625264437 -0.7003213873193437 -0.016464658297023375 2.280294009171513e-15 -0.19718000281436687 -0.0004115170984935245
2.489328188026718e-16 1.6135300018836618e-16 0.0010101873232768684 1.7539409594841127e-15 -0.0016338158972538852 0.2461973616802561 -0.2802908672873859 -0.1000906831765222
0.016616389828259075 -5.627009275199768e-16 -0.07371904023440133 0.2837647707028331 0.10057911390192534 -0.017732033963453235 5.863365348801608e-16 -0.07947665631045495
0.004920409486993959 -0.08159247601375247 -0.18490578119019171 -0.012860514484499364 0.6931556468097684 1.0182826803983858e-15 -0.0004115170984935252 -0.11907147850200905
1.6002824065886045e-16 -3.5926394238022796e-16 -0.06870992044152516 6.544493679622176e-14 -0.10166833232604086 -0.0023883038386586022 -0.25050610312372945 -0.19395655587689478
-0.031032289882705965 6.753495332412207e-16 -0.08663205870329675 -0.24737671449277696 -0.19208851426495463 -0.032414095576514694 1.3130137236261503e-15 0.08974397001210124
-5.068645156369733e-18 5.767955557622884e-17 1.6002824065886045e-16 2.1202657685126525e-15 -1.0581813203458523e-15 0.6640888997538044 2.488108460582672e-16 1.60136660876109e-16
0.015101742786838552 0.00032948559228889184 -5.410168840702667e-17 -0.06321451341137833 -4.0601528215888916e-14 -6.807434390493361e-17 5.646524914304507e-16 3.131175874138137e-16
-1.0726012092399095e-15 -0.042347362542075474 1.334652874329656e-16 -7.28583859910259e-17 8.890457814381136e-17 -1.6338926739356552e-15 -0.04424599139601873 2.7863995832877464e-17
2.447925217564928e-18 -4.305366826939938e-16 -5.460855292266364e-16 1.4162560284681353e-16 2.838746219428062e-16 -0.0005797342360754636 1.6253185829270735e-16 -3.5914366370171785e-16
0.0003294855922888917 2.946346486498631 -4.527628272299467e-16 0.0009710033839166954 7.979727989493313e-16 6.505213034913027e-19 -1.7204594411450447e-16 -3.504819047830954e-16
4.750106558093492e-15 0.22069343652653614 7.797582024515748e-16 -2.318905159039153e-16 -4.331929780165833e-16 -1.0304257447302234e-14 -0.2319865640932057 -1.5063904984513599e-15
-0.002820468905276144 -0.08448265151658868 -0.10680113657293183 0.0005109666773570831 0.05253401265899066 1.7564075194265172e-16 0.001010187323276868 -0.06870992044152514
-5.377642775528102e-17 -4.562322741819003e-16 2.8876958681749523 -9.91567938868343e-15 0.01564273920591419 -0.0016687935019699673 -0.039441408961604155 -0.07739136672513655
00000000: 9e8f 9906 5e89 34c0 2aa4 6698 0ad5 1d40
00000010: 9274 f12c 9dee 0b40 1c44 b019 a4d3 2a3f
00000020: 7a8d ac2e 16fe 97bf 0000 0000 0000 74bc
00000030: aff7 b140 8218 0dbf 3fe8 455d 6c27 743f
00000040: 0000 0000 0060 57bc 0000 0000 0094 463c
00000050: 6d37 a4b6 f31a 67bf 0000 0000 80a7 c13c
00000060: 4012 6cff cb11 48bf 3c69 2a72 145b 183f
00000070: f2e4 1730 6dc6 f03f 8ed9 ea17 7d2b f63f
00000080: 0fd6 e78c d49d d1bf 0000 0000 0014 053d
00000090: 3e31 4451 1922 ff3f da17 514e 0166 f13f
000000a0: 0cfe 7620 b264 f63f c89e 0e43 f03a d2bf
000000b0: 0000 0000 0062 053d 865c 9592 5854 00c0
000000c0: 2aa4 6698 0ad5 1d40 9430 8a00 ded8 0cc0
000000d0: 9e30 0210 073a 03c0 148f cd1b 0c91 5f3f
000000e0: 9b0c 46ab 2b08 b03f 0000 0000 00d0 943c
000000f0: 45c9 96bf f4f1 623f bc27 1498 3ee3 b4bf
00000100: 0000 0000 00a0 903c 0000 0000 0006 bfbc
00000110: 44d6 57b1 a7a0 b5bf 0000 0000 1040 153d
00000120: 93fd c442 2cd0 9dbf 5cc6 1a1f d61f 70bf
00000130: e26c 4d4c cd76 f0bf 104f 64c6 b386 f3bf
00000140: a66f 86c0 113b c53f 0000 0000 00a4 f9bc
00000150: 7c8b 231b 87bd f2bf dec2 03c9 2ee6 f0bf
00000160: acd4 5078 18b3 f3bf 143b bc8a 569a c53f
00000170: 0000 0000 003c f9bc e413 0b8d b952 f33f
00000180: 9274 f12c 9dee 0b40 9e30 0210 073a 03c0
00000190: 0c95 aeda 0280 f9bf c3c5 c0ad c1a2 493f
000001a0: bd14 bcaa 1e38 b83f 0000 0000 0020 973c
000001b0: cbd8 3658 38b6 613f 6fcf 861d feaa c7bf
000001c0: 0000 0000 0010 a73c 0000 0000 c0ac c3bc
000001d0: 94a1 c1bc 5157 bbbf 0000 0000 785d 1c3d
000001e0: 5f9d 9919 f8f2 a3bf b443 e7da 42c8 70bf
000001f0: e897 a2dd a258 e9bf 0c5e 0c58 b820 ecbf
00000200: 7d64 1b17 c401 b93f 0000 0000 00e4 eebc
00000210: 3993 eb70 4e02 e9bf 8c76 acd5 5ee3 e9bf
00000220: b0e4 fc1e 9253 ecbf 23b9 e4c9 a073 b93f
00000230: 0000 0000 0040 edbc eefb 27ea 98d6 e93f
00000240: 1c44 b019 a4d3 2a3f 148f cd1b 0c91 5f3f
00000250: c3c5 c0ad c1a2 493f 7f70 f3bc 8b7c b5bf
00000260: aa1a e968 4afb 66bf 0000 0000 0048 9d3c
00000270: d23a e765 0869 e6bf 191c f708 9d56 8abf
00000280: 0000 0000 001b e33c 0000 0000 0073 a43c
00000290: c880 9495 4cbe 403f 0000 0000 28ad ec3c
000002a0: 31b5 e58d a083 6dbf 47b6 326e 39db cc3f
000002b0: 77c9 055c c1c7 ddbf 3cf2 4914 08f4 c8bf
000002c0: 9ee1 4385 b333 c43f 0000 0000 00bf f0bc
000002d0: d3b3 173c e3be b8bf d9ae c044 e676 dd3f
000002e0: 2cd9 3829 0e46 c83f e050 fae0 9c22 c5bf
000002f0: 0000 0000 00b6 ff3c 273a 6958 99fe b5bf
00000300: 7a8d ac2e 16fe 97bf 9b0c 46ab 2b08 b03f
00000310: bd14 bcaa 1e38 b83f aa1a e968 4afb 66bf
00000320: 8a3b b1b4 1247 bebf 0000 0000 0080 8cbc
00000330: 40be b383 1cdc 90bf e6bd 42c0 542e e63f
00000340: 0000 0000 0010 d3bc 0000 0000 8072 b43c
00000350: 6a95 98f4 bce5 aa3f 0000 0000 f288 33bd
00000360: 6222 cd77 ef94 bb3f 3252 5194 3d45 803f
00000370: a1e2 4ce3 a5c8 d73f caf2 02c3 4c38 ca3f
00000380: 73bb 70fd 9a11 ca3f 0000 0000 4088 f8bc
00000390: fb59 36cd e89c c13f 3271 2db9 b4f1 d83f
000003a0: e5b1 4e48 84ec ca3f 5eb7 68b2 8b23 ca3f
000003b0: 0000 0000 80bc 02bd d0e0 a747 1750 c1bf
000003c0: 0000 0000 0000 74bc 0000 0000 00d0 943c
000003d0: 0000 0000 0020 973c 0000 0000 0058 9d3c
000003e0: 0000 0000 0080 8cbc ba90 caf3 8177 c3bf
000003f0: 0000 0000 008a e43c 0000 0000 0050 d23c
00000400: e788 425d 3740 e53f 03db caca 29ff 42bf
00000410: 0000 0000 0060 a93c 2907 4bd7 1238 b33f
00000420: 0000 0000 2042 2b3d 0000 0000 c056 cabc
00000430: 0000 0000 00c8 d73c 0000 0000 00c0 c43c
00000440: 0000 0000 00b2 003d f185 26aa 7b85 d23f
00000450: 0000 0000 00c0 9b3c 0000 0000 0070 cbbc
00000460: 0000 0000 00f0 b6bc 0000 0000 803a 0b3d
00000470: 1b62 27e2 88ec d23f 0000 0000 00f0 a0bc
00000480: aff7 b140 8218 0dbf 45c9 96bf f4f1 623f
00000490: cbd8 3658 38b6 613f d23a e765 0869 e6bf
000004a0: 41be b383 1cdc 90bf 0000 0000 008a e43c
000004b0: 80a6 c1bf 313d c9bf 6580 d27a 1cf8 3abf
000004c0: 0000 0000 00f0 b13c 0000 0000 e040 a73c
000004d0: 6a30 0b61 088d 503f 0000 0000 a098 df3c
000004e0: 5c42 2b76 b8c4 5abf 859b 6328 6583 cf3f
000004f0: a179 171b 49f0 d1bf 3ca1 e002 8b9f b9bf
00000500: 9e51 8f0b e303 913f 0000 0000 0046 c4bc
00000510: 0736 e642 40df b2bf 263d 7bb6 3329 d23f
00000520: da92 de84 8dbf b93f 3ebe dba7 5828 92bf
00000530: 0000 0000 0020 c53c 1e1a a607 9558 b4bf
00000540: 3fe8 455d 6c27 743f bc27 1498 3ee3 b4bf
00000550: 6fcf 861d feaa c7bf 1a1c f708 9d56 8abf
00000560: e8bd 42c0 542e e63f 0000 0000 0058 d23c
00000570: 7280 d27a 1cf8 3abf 6070 0dea 777b bebf
00000580: 0000 0000 0010 a73c 0000 0000 40e3 b9bc
00000590: 5205 352d f996 b1bf 0000 0000 ce6b 323d
000005a0: 9613 6192 ef06 babf d08c 28dc a290 63bf
000005b0: 3c59 17c0 4a08 d0bf 0104 2b84 91d3 c8bf
000005c0: f333 aab8 edc6 9fbf 0000 0000 0055 c83c
000005d0: a372 eac2 842d b6bf 7fea 4449 0aaa cfbf
000005e0: 4f44 5a3f 5b96 c8bf e770 dc90 9498 a0bf
000005f0: 0000 0000 35a7 d73c 0216 37f8 75f9 b63f
00000600: 0000 0000 0060 57bc 0000 0000 00a0 903c
00000610: 0000 0000 0010 a73c 0000 0000 0019 e33c
00000620: 0000 0000 0010 d3bc e888 425d 3740 e53f
00000630: 0000 0000 c0ed b13c 0000 0000 0014 a73c
00000640: 977d 0e9b a9ed 8e3f 3503 e8d7 d997 353f
00000650: 0000 0000 0030 8fbc 2b03 bc8b d32e b0bf
00000660: 0000 0000 4cdb 26bd 0000 0000 009f 93bc
00000670: 0000 0000 0058 c43c 0000 0000 0090 b63c
00000680: 0000 0000 8052 d3bc cd50 61b2 8dae a5bf
00000690: 0000 0000 003c a33c 0000 0000 0000 95bc
000006a0: 0000 0000 00a0 993c 0000 0000 006f ddbc
000006b0: 84cc 0c1c 69a7 a6bf 0000 0000 0010 803c
000006c0: 0000 0000 0094 463c 0000 0000 0006 bfbc
000006d0: 0000 0000 c0ac c3bc 0000 0000 1069 a43c
000006e0: 0000 0000 9074 b43c 04db caca 29ff 42bf
000006f0: 0000 0000 5e6c a73c 0000 0000 08e1 b9bc
00000700: 3303 e8d7 d997 353f aa91 511b 1e92 0740
00000710: 0000 0000 0050 c0bc c3f5 9ce3 5dd1 4f3f
00000720: 0000 0000 00c0 cc3c 0000 0000 0000 283c
00000730: 0000 0000 60cb a8bc 0000 0000 4041 b9bc
00000740: 0000 0000 8064 f53c b362 29ba ae3f cc3f
00000750: 0000 0000 0018 cc3c 0000 0000 a0b5 b0bc
00000760: 0000 0000 0037 bfbc 0000 0000 0034 07bd
00000770: 1724 f258 bcb1 cdbf 0000 0000 0023 dbbc
00000780: 6d37 a4b6 f31a 67bf 44d6 57b1 a7a0 b5bf
00000790: 94a1 c1bc 5157 bbbf cd80 9495 4cbe 403f
000007a0: 6895 98f4 bce5 aa3f 0000 0000 0050 a93c
000007b0: 6830 0b61 088d 503f 5105 352d f996 b1bf
000007c0: 0000 0000 0000 8fbc 0000 0000 0070 c0bc
000007d0: 92d8 944a 001a 0740 0000 0000 0054 06bd
000007e0: 40ae 3c75 a604 903f 0079 f160 6d57 5bbf
000007f0: fa4d 3213 aa31 a4bf a6c3 13ad ebcf b3bf
