h2o_energies_noise_scf_matrices/h2o_noise_matrices_dft_b3lyp_def2-SVP_664.npz (npz, 19174 bytes, 4 tensors)

coords f8 [3, 3]
0.0 0.0 0.0 0.7405124264147543 0.5557556242096539 -0.04010264511429559 -0.7800928434745251 0.6132878916731797
0.007250978552683014
00000000: 0000 0000 0000 0000 0000 0000 0000 0000
00000010: 0000 0000 0000 0000 8b74 b71d 47b2 e73f
00000020: 8d8d d104 c0c8 e13f 1c7c 7f7a 5588 a4bf
00000030: ac22 5244 85f6 e8bf 729c b8ed 0da0 e33f
00000040: aede f6bb 33b3 7d3f

energy f8 []
-75.95865693375745
00000000: 9aa4 9ca2 5afd 52c0

noise_sigma f8 []
0.02
00000000: 7b14 ae47 e17a 943f

features f8 [7, 24, 24]
-20.535841877989547 7.457932977943123 3.4914749280366544 -0.0010270703178445013 0.02335739747016207 5.637851296924623e-17 0.0002912615990683496 0.004879055986307318
-7.37257477290143e-18 -4.743384504624082e-20 0.0028149957906986934 -6.007157661927498e-17 -0.0007573995629726945 -0.0004959412971704352 1.1780856098844217 1.4305213064994866
-0.3049861336221477 5.134781488891349e-16 2.263327819711198 0.9686204135053429 1.3556016597888583 -0.25394982484890405 -1.6596099494670113e-14 -1.7512451126001094
7.457932977943123 -3.6061793311991783 -2.403530379537396 -0.010586021574803465 -0.06373175053998961 -2.632442874794805e-16 -0.012297976665888232 -0.08062321343156384
-1.8214596497756474e-17 1.8171228410857054e-16 0.08599154988434526 -1.8563709597296807e-15 -0.02717049392829962 0.021124121211000123 -1.1184544195681658 -1.2550598224251357
0.17471712939138873 -2.914335439641036e-16 -1.2908441474022339 -0.9724120309671138 -1.196915093293534 0.1592691676531199 1.0373646386341306e-14 1.0953606481512004
3.4914749280366544 -2.403530379537396 -1.5936368170273738 -0.004542081845889741 -0.09475675152975653 -2.2811613709095013e-16 -0.011250705129138823 -0.18274903290009734
1.1102230246251565e-16 2.498001805406602e-16 0.10840036967962158 -2.4205897702911372e-15 -0.03659716840927241 0.021934741649703115 -0.8472252779883451 -0.8981822269182174
0.10321050066896832 -1.249000902703301e-16 -0.8659671478470103 -0.7563262902351147 -0.8649072663783004 0.09394516792685502 6.19903434140312e-15 0.7269497322760765
-0.0010270703178445013 -0.010586021574803465 -0.004542081845889741 -0.08347615129789156 -0.015012908069210651 9.584347204771859e-17 -0.6975199816677469 0.0661240732223352
-1.5577816814271728e-15 -4.3790925746689524e-16 0.0029104754055565805 1.9725974326201268e-15 0.01875026751851664 0.22397174675210396 -0.4513732583678539 -0.17943962077884468
0.17888172919490633 -9.8879238130678e-16 -0.06390404297403834 0.4752922007966603 0.20650442132694535 -0.140929566347678 -8.087280845003875e-15 -0.12068765849728645
0.02335739747016207 -0.06373175053998961 -0.09475675152975653 -0.015012908069210651 -0.12119954001072164 -1.6566609195578508e-16 -0.08541473633382639 -0.6888739927646305
1.797173521111972e-15 6.288372600415926e-18 0.052827223520051377 -4.397740852035703e-15 -0.10418035252266968 0.041801386705180445 -0.42478613839751334 -0.2194117328286377
-0.20635275469498232 1.3817072486155269e-15 -0.12621152089332938 -0.32985277174245026 -0.19073280487146133 -0.20228637364400368 -1.033374774639384e-14 0.13880733522049193
5.637851296924623e-17 -2.632442874794805e-16 -2.2811613709095013e-16 9.627715291671279e-17 -1.6479873021779667e-16 -0.15184339384537265 1.321859288694327e-15 -2.1718737919229625e-15
-0.6640310455745186 -0.0031242744422086965 -5.453536927602087e-16 -0.07505843615848738 2.8187088080278144e-15 3.27854266630144e-16 -4.3368086899420177e-16 -2.480654570646834e-16
-1.781561009828181e-15 -0.3095595109892463 -5.39499001028787e-16 -1.0213184464813452e-15 -4.828629900435755e-16 1.4616780008580577e-14 -0.275855606459433 9.215718466126788e-16
0.0002912615990683496 -0.012297976665888232 -0.011250705129138823 -0.6975199816677469 -0.0854147363338264 1.3253287356462806e-15 -0.19922257355214817 0.002314982401104981
-4.0158848468863084e-16 -4.377466271410224e-16 0.005278325536929034 1.840053717033774e-15 0.008855969931802519 0.2468722117697875 -0.2921300978924318 -0.10193365436705012
0.019486663808498013 4.336808689942018e-18 -0.09310828686613819 0.2743912074755471 0.10008563584753598 -0.013521472404997636 -7.746624522408929e-16 -0.0625436898213448
0.004879055986307318 -0.08062321343156384 -0.18274903290009734 0.0661240732223352 -0.6888739927646307 -2.1788126858268697e-15 0.0023149824011049805 -0.11594717403446154
9.71445146547012e-17 1.0690233420707074e-16 0.06842758758634253 -4.709557396842534e-15 -0.09922089122182234 0.012865829857933163 -0.2378249997996877 -0.1856874081326714
-0.03523469792957482 1.0928757898653885e-16 -0.09449479570302126 -0.2539752752060365 -0.1954802430491757 -0.02790161126197654 -1.4610708476414658e-15 0.07791284946462004
-7.37257477290143e-18 -1.8214596497756474e-17 1.1102230246251565e-16 -1.5543122344752192e-15 1.790234627208065e-15 -0.6640310455745186 -4.0093796338513954e-16 9.730714498057402e-17
0.015217247124200292 -0.0017700637389684326 -6.004311631224724e-16 -0.06302542233402207 2.6484890669475902e-15 7.138793679459243e-16 -1.457167719820518e-16 4.683753385137379e-17
-1.4029576111962427e-16 -0.04864947384359934 -1.5178830414797062e-16 6.143089509302868e-16 3.426078865054194e-16 2.0491421059976034e-15 -0.03845108731693914 -4.618701254788249e-17
-4.743384504624082e-20 1.8171228410857054e-16 2.498001805406602e-16 -4.3633716431679126e-16 5.488773498207866e-18 -0.003124274442208698 -4.3792958625762934e-16 1.070717407965216e-16
-0.001770063738968433 2.945780225238597 4.3021142204224816e-16 -0.0052596454039991235 3.0531133177191805e-16 2.9934821982324777e-16 3.496552006265752e-18 4.119968255444917e-17
2.1723074727919567e-15 0.2586047151936643 2.931682674400804e-16 2.4626297095292626e-16 2.5782327661705295e-16 1.1581013925621164e-14 -0.19772486150280463 1.777657882007233e-15
0.0028149957906986934 0.08599154988434526 0.10840036967962158 0.0029104754055565823 0.052827223520051377 -5.451368523257116e-16 0.00527832553692903 0.0684275875863425
-6.006480035569695e-16 4.163336342344337e-16 2.8852086411171323 -1.2490009027033011e-15 -0.016627803595743673 -0.009034974183574528 0.035590150874875284 0.07922773554867749
00000000: d6ca edee 2c89 34c0 381a f061 ecd4 1d40
00000010: 65c5 3568 8aee 0b40 2cdf 405b d8d3 50bf
00000020: 9e1d 0469 00eb 973f 0000 0000 0040 903c
00000030: dd78 e60a 8f16 333f 6d3d 589e 0ffc 733f
00000040: 0000 0000 0000 61bc 0000 0000 0000 ecbb
00000050: 4d70 805b 790f 673f 0000 0000 8050 91bc
00000060: 3a33 2e2d 87d1 48bf 4d73 77d3 4140 40bf
00000070: 0978 e54b 70d9 f23f 0358 3a4f 6ae3 f63f
00000080: c3ff 688f e484 d3bf 0000 0000 0080 c23c
00000090: ea4a ae9d 4b1b 0240 4cca c73c f0fe ee3f
000000a0: b824 b35d 8bb0 f53f 1c43 23c4 b640 d0bf
000000b0: 0000 0000 80af 12bd 5f5b 5e98 1905 fcbf
000000c0: 381a f061 ecd4 1d40 ce17 988c 74d9 0cc0
000000d0: d671 b822 6e3a 03c0 7512 abc3 1fae 85bf
000000e0: ea3c 4958 b950 b0bf 0000 0000 00f8 b2bc
000000f0: a618 b27c ae2f 89bf aeab fc10 b9a3 b4bf
00000100: 0000 0000 0000 75bc 0000 0000 0030 aa3c
00000110: 4c51 7cce 8a03 b63f 0000 0000 80b8 e0bc
00000120: a054 5afb 94d2 9bbf 562d 08c7 8fa1 953f
00000130: 7cca 2176 30e5 f1bf b26e bd9b b914 f4bf
00000140: e8bc 6482 215d c63f 0000 0000 0000 b5bc
00000150: a635 5531 4ca7 f4bf c2b3 e7d5 ff1d efbf
00000160: 628d dc70 9026 f3bf bf67 2a9d ee62 c43f
00000170: 0000 0000 005c 073d 0328 12e3 9886 f13f
00000180: 65c5 3568 8aee 0b40 d671 b822 6e3a 03c0
00000190: 8058 ad51 897f f9bf 55db bdcf b79a 72bf
000001a0: a33f e57c fa41 b8bf 0000 0000 0070 b0bc
000001b0: 7756 b114 9c0a 87bf e73c d7ff 5164 c7bf
000001c0: 0000 0000 0000 a03c 0000 0000 0000 b23c
000001d0: fcf5 a56a 20c0 bb3f 0000 0000 80cd e5bc
000001e0: d057 e332 ddbc a2bf c371 2098 0f76 963f
000001f0: 10be a92f 781c ebbf 4cca 4ea7 e8bd ecbf
00000200: 011d fadc 006c ba3f 0000 0000 0000 a2bc
00000210: ce39 6dbc 00b6 ebbf 3846 3531 d333 e8bf
00000220: a85c e500 52ad ebbf 2ff2 dc5f ca0c b83f
00000230: 0000 0000 00eb fb3c 48c6 be15 2c43 e73f
00000240: 2cdf 405b d8d3 50bf 7512 abc3 1fae 85bf
00000250: 55db bdcf b79a 72bf 3905 d26b b15e b5bf
00000260: 4da2 6669 16bf 8ebf 0000 0000 00a0 9b3c
00000270: 4839 b26c 1552 e6bf 83de f7db 81ed b03f
00000280: 0000 0000 0010 dcbc 0000 0000 008e bfbc
00000290: 387f d895 b5d7 673f 0000 0000 80c4 e13c
000002a0: 2a14 2227 4533 933f b49e c32f 1bab cc3f
000002b0: 26a6 bea9 4ce3 dcbf 2007 6da3 e0f7 c6bf
000002c0: 113d 5fb4 98e5 c63f 0000 0000 00d0 d1bc
000002d0: 34da a7ee 035c b0bf 19cb 9dfa 2f6b de3f
000002e0: b810 0aa4 bc6e ca3f c259 40e3 fa09 c2bf
000002f0: 0000 0000 0036 02bd 4fd3 46ea 62e5 bebf
00000300: 9e1d 0469 00eb 973f ea3c 4958 b950 b0bf
00000310: a33f e57c fa41 b8bf 4da2 6669 16bf 8ebf
00000320: 18e4 a2dc ee06 bfbf 0000 0000 00e0 a7bc
00000330: 9b76 267b bddd b5bf 1fa6 bf78 410b e6bf
00000340: 0000 0000 0030 e03c 0000 0000 0000 5d3c
00000350: 29d6 b67a 2b0c ab3f 0000 0000 40ce f3bc
00000360: 617a f846 90ab babf 9503 a7c9 fd66 a53f
00000370: 6488 0d33 b22f dbbf bdc8 6d04 af15 ccbf
00000380: ee5e 6d5e c469 cabf 0000 0000 00e4 d83c
00000390: 2ec1 4ef9 b227 c0bf e13d c8cc 4e1c d5bf
000003a0: 5640 99bb ee69 c8bf 7f1c 9d17 85e4 c9bf
000003b0: 0000 0000 0045 07bd 18c4 9b52 70c4 c13f
000003c0: 0000 0000 0040 903c 0000 0000 00f8 b2bc
000003d0: 0000 0000 0070 b0bc 0000 0000 00c0 9b3c
000003e0: 0000 0000 00c0 a7bc 9efa 56b5 9a6f c3bf
000003f0: 0000 0000 00d0 d73c 0000 0000 0090 e3bc
00000400: 06ae 0809 be3f e5bf 804c b211 1498 69bf
00000410: 0000 0000 00a6 c3bc 7ff0 9698 0737 b3bf
00000420: 0000 0000 8063 e93c 0000 0000 d89f b73c
00000430: 0000 0000 0040 bfbc 0000 0000 00e0 b1bc
00000440: 0000 0000 000c e0bc 0a55 f7b1 d2cf d3bf
00000450: 0000 0000 0070 c3bc 0000 0000 0066 d2bc
00000460: 0000 0000 a065 c1bc 0000 0000 0075 103d
00000470: 3356 0a46 9ea7 d1bf 0000 0000 009a d03c
00000480: dd78 e60a 8f16 333f a618 b27c ae2f 89bf
00000490: 7756 b114 9c0a 87bf 4839 b26c 1552 e6bf
000004a0: 9c76 267b bddd b5bf 0000 0000 00e0 d73c
000004b0: ee05 0413 2080 c9bf 4c93 83b6 def6 623f
000004c0: 0000 0000 00f0 bcbc 0000 0000 008b bfbc
000004d0: c5a5 f0b8 b99e 753f 0000 0000 e092 e03c
000004e0: 1203 da29 1423 823f 89d4 eb35 8299 cf3f
000004f0: 7904 2870 42b2 d2bf 7e45 deef 5218 babf
00000500: 7205 10df 4ff4 933f 0000 0000 0000 543c
00000510: 539f 13d7 f1d5 b7bf 1ab7 9a23 a08f d13f
00000520: 63b8 c354 369f b93f e693 2f4e 25b1 8bbf
00000530: 0000 0000 00e9 cbbc 8595 5afe dc02 b0bf
00000540: 6d3d 589e 0ffc 733f aeab fc10 b9a3 b4bf
00000550: e73c d7ff 5164 c7bf 83de f7db 81ed b03f
00000560: 21a6 bf78 410b e6bf 0000 0000 00a0 e3bc
00000570: 4b93 83b6 def6 623f 71a8 8ac8 b6ae bdbf
00000580: 0000 0000 0000 9c3c 0000 0000 00d0 9e3c
00000590: 23d8 d36a 7884 b13f 0000 0000 c035 f5bc
000005a0: fab0 e052 8a66 b9bf ff47 ce73 6659 8a3f
000005b0: 6eca 27b2 0c71 cebf e1ba 9ae0 9ac4 c7bf
000005c0: 257c 9546 480a a2bf 0000 0000 0080 9f3c
000005d0: 1bca 2f99 cf30 b8bf 6529 4083 2141 d0bf
000005e0: 0d86 7421 7f05 c9bf 7fea 806f 3d92 9cbf
000005f0: 0000 0000 0052 dabc c682 63b4 18f2 b33f
00000600: 0000 0000 0000 61bc 0000 0000 0000 75bc
00000610: 0000 0000 0000 a03c 0000 0000 0000 dcbc
00000620: 0000 0000 0020 e03c 06ae 0809 be3f e5bf
00000630: 0000 0000 00e4 bcbc 0000 0000 000c 9c3c
00000640: 9864 de55 382a 8f3f 0aa1 b977 2f00 5dbf
00000650: 0000 0000 00a2 c5bc 1fc0 bd1f 6f22 b0bf
00000660: 0000 0000 00db e73c 0000 0000 60b8 c93c
00000670: 0000 0000 0000 a5bc 0000 0000 0000 8b3c
00000680: 0000 0000 0038 a4bc 9671 4076 95e8 a8bf
00000690: 0000 0000 00e0 a5bc 0000 0000 0022 c63c
000006a0: 0000 0000 00b0 b83c 0000 0000 0075 e23c
000006b0: b135 0b65 dcaf a3bf 0000 0000 00a0 8abc
000006c0: 0000 0000 0000 ecbb 0000 0000 0030 aa3c
000006d0: 0000 0000 0000 b23c 0000 0000 0071 bfbc
000006e0: 0000 0000 0050 593c 834c b211 1498 69bf
000006f0: 0000 0000 608e bfbc 0000 0000 80dc 9e3c
00000700: 0ca1 b977 2f00 5dbf 89d3 0439 f590 0740
00000710: 0000 0000 0000 bf3c 65cf fa4f 238b 75bf
00000720: 0000 0000 0000 b63c 0000 0000 0092 b53c
00000730: 0000 0000 0020 503c 0000 0000 00c0 873c
00000740: 0000 0000 0091 e33c 9f48 96ca fa8c d03f
00000750: 0000 0000 0020 b53c 0000 0000 c0be b13c
00000760: 0000 0000 0094 b23c 0000 0000 0014 0a3d
00000770: cf5d e15a 0c4f c9bf 0000 0000 0003 e03c
00000780: 4d70 805b 790f 673f 4c51 7cce 8a03 b63f
00000790: fcf5 a56a 20c0 bb3f 3c7f d895 b5d7 673f
000007a0: 29d6 b67a 2b0c ab3f 0000 0000 00a4 c3bc
000007b0: c1a5 f0b8 b99e 753f 21d8 d36a 7884 b13f
000007c0: 0000 0000 00a4 c5bc 0000 0000 0000 be3c
000007d0: a2e0 9d44 e814 0740 0000 0000 0080 d6bc
000007e0: 4095 9702 e106 91bf 26f8 1bb5 ed80 82bf
000007f0: 8274 224c df38 a23f 0222 1ed5 4448 b43f
