h2o_energies_noise_scf_features/methanol_noise_scf_dft_b3lyp_def2-SVP_191.npz (npz, 17151 bytes, 4 tensors)

coords f8 [3, 3]
000000 00 00 00 00 00 00 00 00 00 00 00 00 00 00 00 00
       0.0 0.0
000010 00 00 00 00 00 00 00 00 0b c9 28 00 30 e3 e7 3f
       0.0 0.746482849417846
000020 a6 ef 6c 26 04 53 e3 3f 8e 28 b2 2b 0b 5d 96 bf
       0.6038838148592631 -0.02183930830191421
000030 5a e8 74 8b 0b fd e7 bf e4 55 bd 27 cd d2 e2 3f
       -0.7496392940295309 0.5882325912631896
000040 45 af 0d 1b 70 8c 50 3f
       0.001010045507622474

energy f8 []
000000 54 43 ca ca 7f fd 52 c0
       -75.96092481376883

noise_sigma f8 []
000000 7b 14 ae 47 e1 7a 94 3f
       0.02

features f8 [5, 24, 24]
000000 16 eb dc 29 22 5c 40 c0 58 7a 40 d6 8d e6 f8 bf
       -32.719792588110224 -1.5562876099790142
000010 90 33 d5 c6 86 82 d5 3f 26 80 3f 7f a2 eb 86 3f
       0.3360917035795916 0.011191625126173287
000020 e7 71 f1 e5 ba e3 d8 bf e9 6d 20 d8 57 34 7b 3f
       -0.388899540475704 0.006641715184766175
000030 80 4e d1 f7 ea 18 4c bf ad 98 dd 64 8d e8 b5 bf
       -0.0008574626259680446 -0.08557971680201844
000040 84 3f fb 98 51 c4 58 3f 5b 18 80 09 77 83 66 3f
       0.0015116497851756791 0.002748234266621669
000050 9e a8 86 f9 b4 da 70 3f c0 f9 29 7c 3a f2 c6 3f
       0.004114825184311636 0.17926722586339672
000060 59 26 36 a3 fc 88 77 3f f1 8f 0d 75 70 c5 b2 bf
       0.005745875230226704 -0.07332518441904746
000070 ff 9f 56 8a 92 c0 ef 3f 0a 00 a4 f9 69 7e d3 3f
       0.992257375900408 0.3045906961342558
000080 05 a5 b2 4f 46 8f f2 bf 19 a8 96 20 a8 92 ef bf
       -1.1599791634747032 -0.9866524349683942
000090 90 bf 7d 3c ed ce a1 3f ea 45 91 99 4c 3e f0 3f
       0.034781850465946396 1.0152097700814644
0000a0 bc 43 7b ed 4d ab d2 3f e4 d5 c1 aa ac 6c f3 3f
       0.29170559112122496 1.2140318556024505
0000b0 cd 17 89 bd 55 f9 ef bf a4 c3 24 9b 2c e3 4a bf
       -0.9991863920083631 -0.0008205383112792519
0000c0 58 7a 40 d6 8d e6 f8 bf bd 33 4f ec 1e e5 19 c0
       -1.5562876099790142 -6.47375077470218
0000d0 03 d0 ac f2 23 26 00 40 01 3f bc d9 5f 41 77 bf
       2.01862325277216 -0.005677580276610917
0000e0 3e 81 7a 98 dd a7 d9 3f 66 47 91 59 6a 67 7c bf
       0.40087070360643284 -0.006934562138740085
0000f0 90 de 73 f0 5a 09 77 bf 89 c2 ab dd 0a 16 d3 3f
       -0.005624156219020585 0.2982203640704389
000100 7b 27 66 11 47 0b 75 bf 6a 33 66 bd 29 25 fc be
       -0.005137708291281014 -2.6841323995041763e-05
000110 b8 48 24 81 23 b8 7a bf 2e 81 75 0b 37 3e d0 bf
       -0.0065232645886387705 -0.2537973033813782
000120 1f 86 c0 f1 49 57 7f bf c6 78 24 92 cf 3a b1 3f
       -0.007651604504674419 0.06730363195353836
000130 78 34 bb c2 a8 05 f1 bf 16 6f 99 5f 7b 61 db bf
       -1.0638816458406648 -0.42782482467531346
000140 fb b9 ce 54 90 83 eb 3f 18 b2 4b f7 05 1f e7 3f
       0.8598100334546069 0.7225370244974014
000150 8c c8 3c 78 06 3e 9a bf 25 24 d3 96 84 41 f1 bf
       -0.025627232636175765 -1.078495587500819
000160 a6 83 c2 cf 98 16 db bf ee 70 9a fd e7 33 ec bf
       -0.4232542065529351 -0.8813362076939748
000170 38 2e 17 3b 09 f7 e6 3f 1e f8 c5 aa c6 f1 47 3f
       0.7176557687866483 0.0007307262472264796
000180 9c 33 d5 c6 86 82 d5 3f fc cf ac f2 23 26 00 40
       0.3360917035795923 2.018623252772157
000190 32 01 58 41 06 bf 13 c0 62 a7 04 16 c5 63 4e 3f
       -4.936547299381617 0.0009274208387399614
0001a0 68 5a f5 2e 0a d0 b2 3f 87 ed 95 11 80 50 55 bf
       0.07348693510480475 -0.0013009310408439183
0001b0 a5 ef c8 9d b3 b9 53 3f 81 c8 03 4d 12 c4 c1 bf
       0.0012039426866427918 -0.13879612694251267
0001c0 61 b3 68 74 5e c3 63 3f de f8 0a 2e 00 03 49 3f
       0.002412495118980493 0.0007632971647451266
0001d0 76 48 97 ba 76 90 64 bf 01 bf fa 44 4f 0f b7 bf
       -0.0025102919505366984 -0.09007735666341078
0001e0 6b 45 7f 26 49 10 65 bf 34 0b 09 4b be 79 8b 3f
       -0.0025712422102307972 0.013415800728699169
0001f0 fd 37 bf 13 18 ca 80 3f 61 b9 55 8a e2 41 a9 3f
       0.00819796381247428 0.049330787073688105
000200 f9 bc 12 27 ba dc c7 bf e0 64 bf 9e 8a d7 c7 bf
       -0.1864235583102312 -0.18626530410146014
000210 8a a6 ec 1d 0a e2 78 3f 84 f5 81 75 3c 23 87 3f
       0.006074943083868365 0.01129767640690705
000220 85 4c 65 16 a3 97 a8 3f 77 da 66 72 82 8a c9 3f
       0.04803189895997043 0.19953947626136756
000230 e2 8e 53 0d a4 62 c8 bf ec b7 a5 1d 92 53 35 3f
       -0.19051027918532443 0.0003254157760669274
000240 5d 82 3f 7f a2 eb 86 3f 38 4b bc d9 5f 41 77 bf
       0.011191625126174271 -0.005677580276613629
000250 f4 da 04 16 c5 63 4e 3f 01 e5 d5 80 01 7e 1a c0
       0.0009274208387413927 -6.6230526094962
000260 39 9d 37 d9 ea e5 6c 3f f8 df ac c6 de 0a 79 bf
       0.003527601898656887 -0.006113882273716335
000270 8d 43 20 7b fd 4b 03 40 84 7f 4f 06 b5 26 f3 3e
       2.412104570314517 1.8264007298429276e-05
000280 fe 78 75 7a 61 70 6c bf 35 0d ed 43 1b 93 cf 3f
       -0.003471556079303827 0.24667683426569345
000290 7d 8c 10 c0 5b aa 6b bf 22 13 bb f6 0a f6 de be
       -0.003377131652557318 -7.381702612445348e-06
0002a0 a6 37 16 f3 65 8b 71 bf 8b bd 68 88 78 1e 73 bf
       -0.0042833311466789255 -0.0046677311243422765
0002b0 d5 73 54 94 a5 3e e6 bf f0 b4 79 0a 80 43 cc 3f
       -0.6951473137920582 0.22080994140143373
0002c0 0d b1 51 ba f5 4d da 3f 72 b5 6c 9e 3e c7 e7 3f
       0.4110082931063211 0.7430718511802026
0002d0 ee 6e a9 ef e2 f5 9b bf 1b 51 38 a5 a7 7e e6 3f
       -0.02730516994266357 0.7029607989266283
0002e0 0c 6e 9c f2 20 bd cd bf 2c 7a c2 b9 c6 48 db 3f
       -0.23233424993746643 0.42631691113084247
0002f0 78 7a a1 c7 e0 a4 e7 bf 30 f1 05 31 a3 19 5c bf
       -0.7388767146147321 -0.0017150968234026058
000300 cd 71 f1 e5 ba e3 d8 bf fc 80 7a 98 dd a7 d9 3f
       -0.3888995404757026 0.4008707036064292
000310 9a 5a f5 2e 0a d0 b2 3f fe b1 37 d9 ea e5 6c 3f
       0.07348693510480545 0.003527601898659193
000320 50 09 ea cf 01 53 1b c0 60 90 a3 6e bd 22 6c bf
       -6.831061600360343 -0.003434534058316216
000330 f2 02 08 08 4d 12 43 bf d9 b1 52 bd 53 93 02 40
       -0.0005820156221148772 2.3219370642529893
000340 55 4c 9e 8e df fe 63 bf c0 b3 66 da 2d a2 61 3f
       -0.002440868983236958 0.002152528340238352
000350 c0 ef 2d ec 71 97 6e bf bc 4d 53 4d cf 9d c1 bf
       -0.0037343239832221264 -0.1376284720960096
000360 b8 97 b5 e4 aa ed 6d bf e2 68 b9 96 16 b4 55 bf
       -0.0036533677827490195 -0.0013246746629165741
000370 5f f9 7e 5e b1 92 da bf 89 f9 45 68 37 86 d0 3f
       -0.4152034209072521 0.258191921071465
000380 4c 8e 75 06 6c 81 e4 3f fd a6 af d3 91 5f 82 bf
       0.6407985807567882 -0.008971347115181322
000390 cf c6 09 4b f6 5a 93 bf f0 93 f2 d7 49 f6 d9 bf
       -0.018901680307357446 -0.40565725411062115
0003a0 83 b1 60 d7 42 a0 d0 3f e5 3c f6 37 56 68 e4 bf
       0.2597815612123428 -0.637736424732705
0003b0 dd 8d 33 a9 61 45 a2 bf b8 f0 30 09 e3 1e 47 3f
       -0.03568558874556136 0.0007055862973923887
0003c0 c1 6d 20 d8 57 34 7b 3f 24 47 91 59 6a 67 7c bf
       0.00664171518476614 -0.006934562138740028
0003d0 16 ee 95 11 80 50 55 bf 14 e0 ac c6 de 0a 79 bf
       -0.0013009310408439493 -0.00611388227371636
0003e0 3c 90 a3 6e bd 22 6c bf c2 a7 88 9e 90 18 1c c0
       -0.0034345340583162003 -7.023989178744104
0003f0 19 db e8 b0 55 5a 6c bf 7e 2b 86 63 de 11 64 bf
       -0.0034610437062626673 -0.002449926713045724
000400 ea fb 8e f6 0b 75 01 40 fd fe 59 00 d9 96 6b bf
       2.182151724089171 -0.0033678282077856934
000410 d0 76 d7 de ed 39 9d 3f 5c 4e 85 45 f3 43 5a 3f
       0.028541294790435157 0.0016031146716003674
000420 00 f9 69 10 53 51 60 bf b1 59 03 b8 1d 96 3c bf
       -0.001991903528789085 -0.00043619370991390254
000430 f3 7b 39 e4 ca 2f 92 3f 12 76 7d dc 73 15 80 bf
       0.01776043909046261 -0.007853417555163698
000440 99 08 2c 2a 5f 20 9a bf f9 0f 35 0c 82 ef 94 bf
       -0.025514113377547252 -0.020444900507996498
000450 2c 27 68 9c 38 22 e1 bf ee 55 f8 ca 6c b2 6c bf
       -0.5354273848363156 -0.0035030484066378353
000460 aa 55 3d d3 82 19 51 bf 05 1b 27 90 53 8f 6c bf
       -0.0010436799611473848 -0.003486312112019776
000470 63 14 66 95 3c 48 62 3f fd ee ce 80 96 6f e1 bf
       0.002231710746118541 -0.5448715701854493
000480 e1 3a d1 f7 ea 18 4c bf 2e dc 73 f0 5a 09 77 bf
       -0.0008574626259675 -0.0056241562190200555
000490 97 fb c8 9d b3 b9 53 3f 8e 43 20 7b fd 4b 03 40
       0.001203942686643455 2.4121045703145176
0004a0 84 04 08 08 4d 12 43 bf 13 db e8 b0 55 5a 6c bf
       -0.0005820156221149207 -0.0034610437062626647
0004b0 a4 79 cb 1a b2 fe 14 c0 8d 77 69 f4 89 97 48 bf
       -5.248726290387285 -0.0007504867179013317
0004c0 3e 19 c5 47 e5 22 53 3f 45 bf c0 a5 55 fd cf 3f
       0.001167987734406475 0.24991865723995424
0004d0 74 1a 8d a6 38 eb 62 bf bc 81 09 29 8c 4b 60 3f
       -0.002309427877125453 0.0019891488557705877
0004e0 07 96 c3 4e 5f 90 71 bf 9b a0 f9 25 2d e2 71 bf
       -0.004288074775308021 -0.00436608921118178
0004f0 69 6b ee 93 ca 0d c3 bf d9 e9 38 7e 02 d1 b6 3f
       -0.14885837767800617 0.08912673551177565
000500 54 4c 3c 5d 71 59 ae bf c0 cf d1 28 35 b3 5d 3f
       -0.059276144629756417 0.0018127459655063877
000510 34 98 55 5f c1 23 e9 be fe 26 8a 39 30 c6 c3 3f
       -1.1987528504686045e-05 0.1544857293086394
000520 6d 4a ed 1f f0 05 b7 bf 18 67 e6 df fd ed ae bf
       -0.0899343564936232 -0.060409482556862126
000530 df 91 1a 28 58 e1 62 3f 80 4a 4e 73 d9 eb ff 3e
       0.0023047181901622994 3.0442511348714122e-05
000540 aa 98 dd 64 8d e8 b5 bf 20 c2 ab dd 0a 16 d3 3f
       -0.0855797168020184 0.29822036407043306
000550 c9 c8 03 4d 12 c4 c1 bf 6e 62 53 06 b5 26 f3 3e
       -0.13879612694251467 1.8264007299292227e-05
000560 cc b1 52 bd 53 93 02 40 42 2b 86 63 de 11 64 bf
       2.3219370642529835 -0.002449926713045698
000570 d8 83 69 f4 89 97 48 bf f3 a1 c3 3a d0 ba 14 c0
       -0.0007504867179016729 -5.182434957685916
000580 57 44 1f 31 24 ff 28 3f 07 bf d1 3f a2 ce 4c bf
       0.00019070927424860953 -0.0008791248543626736
000590 5d 6a 82 d3 5f 39 71 bf b9 23 4f d3 09 d4 c2 bf
       -0.004205107041480885 -0.14709589784459157
0005a0 bf 4c 03 87 51 41 65 bf 06 23 00 be 00 84 b5 bf
       -0.0025946228343883544 -0.08404545439419672
0005b0 bd 23 ab e0 f1 da bd bf e7 ad fe b9 21 62 9c 3f
       -0.11662208304473061 0.027718092896675286
0005c0 e3 fd 39 83 a2 19 94 bf 4d 6a b8 c9 ea 54 bd bf
       -0.019629039058143404 -0.1145769827348115
0005d0 77 0a e3 f2 76 18 55 3f 61 65 d4 81 19 b3 bd bf
       0.0012875711068295584 -0.11601409358663296
0005e0 3a 14 59 dc 98 97 9a 3f f2 11 d3 88 60 34 99 3f
       0.025968922089550463 0.024613865233520778
0005f0 73 3a 97 03 6d 61 bd bf a9 03 5c f0 4c b7 45 3f
       -0.1147678502813763 0.0006627202680818861
000600 2a 3f fb 98 51 c4 58 3f 37 27 66 11 47 0b 75 bf
       0.0015116497851756596 -0.005137708291280955
000610 12 b3 68 74 5e c3 63 3f 1d 79 75 7a 61 70 6c bf
       0.002412495118980459 -0.0034715560793038406
000620 24 4c 9e 8e df fe 63 bf ee fb 8e f6 0b 75 01 40
       -0.002440868983236937 2.182151724089173
000630 2b 19 c5 47 e5 22 53 3f d0 41 1f 31 24 ff 28 3f
       0.0011679877344064709 0.000190709274248592
000640 4f 40 b2 82 58 b0 14 c0 a9 cf 6a 91 76 ea 62 bf
       -5.172212640885916 -0.0023090663701967507
000650 48 a3 f4 4b 87 1d b9 3f b8 a2 94 cb 05 d4 38 bf
       0.09810681919465225 -0.00037884847150108534
000660 80 ab 39 c6 d3 11 5d bf 77 7c 79 88 fa 22 2b bf
       -0.0017742698772973131 -0.00020703609719683092
000670 21 87 a6 0b cf 90 71 3f 77 d9 46 8c ac fc 5d bf
       0.004288491031191361 -0.0018302617109902922
000680 84 22 a1 52 b3 d2 37 3f b7 28 37 19 e3 96 4f 3f
       0.0003635108756765775 0.0009640320662864997
000690 b4 53 ba fa be b0 ad bf a4 b3 87 75 9e 9e 33 bf
       -0.05798909006731581 -0.0002993714201966985
0006a0 76 fa e0 bf ac 90 4d 3f 9a 86 37 cb ea 9b 37 bf
       0.0009022563460872729 -0.00036024553557299224
0006b0 85 bf 72 c5 90 5f 50 3f 4c f0 5c 6f 89 88 ac bf
       0.000999347093777887 -0.055729193538781446
0006c0 d3 17 80 09 77 83 66 3f 4c b7 63 bd 29 25 fc be
       0.00274823426662161 -2.684132399449002e-05
0006d0 b9 07 0b 2e 00 03 49 3f 23 0d ed 43 1b 93 cf 3f
       0.000763297164745539 0.24667683426569295
0006e0 27 b1 66 da 2d a2 61 3f 02 ff 59 00 d9 96 6b bf
       0.0021525283402380638 -0.0033678282077856956
0006f0 79 bf c0 a5 55 fd cf 3f 79 bf d1 3f a2 ce 4c bf
       0.24991865723995568 -0.000879124854362686
000700 ae cf 6a 91 76 ea 62 bf a4 58 0d 38 68 3b 10 c0
       -0.002309066370196753 -4.058014751257506
000710 69 6b 54 5e 8f d7 5a bf 00 aa 8f 9f ed 2f 57 bf
       -0.001638307579304688 -0.0014152355708981768
000720 5c cb c8 9b 48 87 58 bf 0f 83 f3 65 a8 39 51 3f
       -0.001497097880144258 0.0010513443483476969
000730 f1 e3 7d e9 b5 51 dc bf 21 5c 82 e5 a6 c1 d8 3f
       -0.44248721887521386 0.3868195763874969
000740 e7 63 33 6b 78 d6 d4 3f 09 41 2a 87 4e 1c ba 3f
       0.3255902335054643 0.1019944267266092
000750 e5 2b 83 63 06 15 95 bf 12 4a 9e 41 26 7f dc 3f
       -0.020588016341928656 0.44526058586157646
000760 1a d5 26 83 ef f8 d8 bf 39 bd 84 56 89 1c d5 3f
       -0.3901938229349341 0.32986672829698055
000770 a0 7e 9f bf 72 40 b3 bf 13 cd 54 77 f2 ed 57 bf
       -0.07520215204521685 -0.001460539611184701
000780 92 a8 86 f9 b4 da 70 3f af 48 24 81 23 b8 7a bf
       0.004114825184311626 -0.006523264588638763
000790 bc 48 97 ba 76 90 64 bf 83 8c 10 c0 5b aa 6b bf
       -0.0025102919505367288 -0.0033771316525573205
0007a0 bd ef 2d ec 71 97 6e bf bc 76 d7 de ed 39 9d 3f
       -0.003734323983222125 0.028541294790435087
0007b0 62 1a 8d a6 38 eb 62 bf 5d 6a 82 d3 5f 39 71 bf
       -0.0023094278771254454 -0.004205107041480885
0007c0 46 a3 f4 4b 87 1d b9 3f 79 6b 54 5e 8f d7 5a bf
       0.09810681919465222 -0.0016383075793046915
0007d0 fe cf ac a0 0e a7 10 c0 84 a9 0d 0e 5c b2 1d bf
       -4.163141737506519 -0.00011328398569579982
0007e0 80 0b 97 ef 48 61 58 bf c1 79 6d 15 77 d2 54 3f
       -0.0014880382790216362 0.0012708819319510042
0007f0 b9 30 00 c9 6f 38 8d 3f d2 e0 14 0c cc f9 88 bf
       0.014267800637775318 -0.012195200079631627
