methanol_energies_noise_scf_matrices/methanol_noise_matrices_dft_b3lyp_def2-SVP_291.npz (npz, 84069 bytes, 4 tensors)

coords f8 [6, 3]
00000000: 0000 0000 0000 0000 0000 0000 0000 0000
00000010: 0000 0000 0000 0000 dcb4 e0a0 3c3c de3f
00000020: 56d7 899b a7f6 943f 9df8 831e ffb7 ef3f
00000030: 4b06 ec26 ae2c d43f 4ee9 3d7f a6d9 ec3f
00000040: dbf6 7b8a c904 e3bf affa 81c3 fb41 d53f
00000050: 6d62 48a0 788e edbf aab2 bee0 b46d e1bf
00000060: 4fc6 5eb5 65c4 f5bf 1438 775f 707c 913f
00000070: 253a 308f 7ca1 d33f 9f37 226f 4288 fdbf
00000080: 45bd bb39 a588 aebf 3ec8 f021 dd03 e1bf
0.0 0.0 0.0 0.47242656431883545 0.020472163074792014 0.9912105175024127 0.31522706795667393 0.90156864978716
-0.5943343834657883 0.33215231030036824 -0.9236415033838746 -0.5446419133709999 -1.3604485592626536 0.017076259447826272 0.30673135741463603 -1.8457664815100328
-0.05963627176049128 -0.5317216551686739

energy f8 []
00000000: 1e8d 06ef e4bc 5cc0
-114.95147300376672

noise_sigma f8 []
00000000: 7b14 ae47 e17a 943f
0.02

features f8 [7, 48, 48]
00000000: d224 0ff4 7a8d 26c0 f4f5 d1f0 09ff 0ec0
00000010: 4cca 52b4 e26e fdbf fc81 b15c 0165 743f
00000020: 766c 277c 29e6 113f 58a3 551a 190c 423f
00000030: 81c6 7d76 e788 3d3f ae3b 196e b6ce f33e
00000040: 5837 145d 8529 f53e d333 8f33 46a7 06bf
00000050: 2222 1b85 0652 3cbf 1256 27b6 c955 22bf
00000060: 6aa1 fcfd e599 0d3f 6676 ee1e ba18 503f
00000070: 3ead f6a0 b97e e3bf db20 9b99 20d8 f0bf
00000080: 8c10 0a1e d36d b2bf c09b c0b6 abe2 663f
00000090: affd e3e0 c585 efbf 7a29 1b4a 9be1 e1bf
000000a0: de44 33ef 556d f0bf 7201 2bb5 cb0d 983f
000000b0: 10db d935 5803 97bf f31b 25ac 1b1c ecbf
000000c0: 40c8 912a 3505 e2bf b8f7 a494 d476 f0bf
000000d0: b418 fb34 d560 853f 1046 43eb 6836 923f
000000e0: 4035 d648 7e6b ecbf 9f7c a0bd 6efc 1f3f
000000f0: 85ff 96a9 f999 adbf 02f1 bb37 949a e1bf
00000100: 2306 8fb8 aa81 adbf 8faf 3645 e221 a53f
00000110: c04e 3390 63ed 323f a889 048e e8c1 ecbf
00000120: da57 935a 8ab4 ee3f 7892 0226 20c2 703f
00000130: caf9 119f 63e2 60bf 7e61 d7c9 505f b0bf
00000140: e8d4 a331 fc8b 4ebf a2a3 0c42 9108 883f
00000150: 780b 4ed5 0df5 bd3f 969b 007e 3d7f 92bf
00000160: 9f3e ad04 4a9a d7bf abd5 d77e 4e1a 703f
00000170: 50bf 02f0 1fca f93e 8bbf e9ec fe7c 743f
00000180: f4f5 d1f0 09ff 0ec0 f01a 18ed 89e5 ffbf
00000190: e0a8 37cf 4c04 f7bf c345 9188 38fa 9d3f
000001a0: d294 a4ba be67 3d3f cc10 076b 5e75 83bf
000001b0: 9507 fa41 0860 a93f 50cf 3821 2020 563f
000001c0: d023 57b5 2876 733f 5c23 5f0a a499 69bf
000001d0: f0e1 ba3e a094 90bf 983e 46b2 3d76 743f
000001e0: ded4 b035 36ef 5f3f 4e80 574d ecf0 a8bf
000001f0: e404 3c08 ce66 e5bf 6892 660e 1f17 eebf
00000200: 7c21 f4db bcc2 a1bf b872 6d84 ceba 533f
00000210: c3b3 39bb d07b e0bf cc2a 7385 f064 e4bf
00000220: ac78 3b8c d568 edbf b8c6 77c2 e65e 843f
00000230: 7085 6e4e f38b 84bf 4445 8f9a cf97 debf
00000240: d0bf f5a1 f97f e4bf 7021 a335 6675 edbf
00000250: d876 40bf 1137 673f 2059 a75b 47c8 7f3f
00000260: da4c e7db 84d4 debf d9d4 a6d5 d1d0 d53f
00000270: 5064 8670 2aa8 debf c46f f90f 09b0 e5bf
00000280: 017d 92d9 b0ad d2bf 86a6 2d6f 1ebd cb3f
00000290: 4094 55f8 427e 573f 9a4d 1ba9 499b e3bf
000002a0: cef0 99c5 641e e53f 64da 7225 d126 673f
000002b0: 9478 ef63 799c 60bf 661b e68e fa7d b0bf
000002c0: 8084 c4ba fad3 4fbf 9cf3 c7f3 3c2d 793f
000002d0: 46bd a424 660a c03f da20 1d7a 8dff c1bf
000002e0: 6864 0e12 ff40 dcbf 6ecf 2013 eb45 b43f
000002f0: d08d 5016 dac8 3a3f 6e53 ba99 8995 c33f
00000300: 4cca 52b4 e26e fdbf e0a8 37cf 4c04 f7bf
00000310: 3c62 a432 7119 f2bf 90f1 9e86 8564 a33f
00000320: 0058 a957 418f 053f 28e6 7584 ead0 80bf
00000330: db92 2620 22d2 c53f e202 ae84 6de4 6d3f
00000340: 84d9 fc96 5eb9 a43f 17ad 0ffd 58fa 6bbf
00000350: b06a a4d1 bf5d 91bf 8cfc ae47 825c 803f
00000360: 2b63 55ed b52f 5f3f 5b8b 1fc9 d399 b1bf
00000370: 24ad d76a 0858 e1bf 3873 5ffe 357b e7bf
00000380: 783a 79a8 f3e4 97bf 9016 0ae7 3099 4a3f
00000390: a145 4770 0b45 d9bf 94a2 1ba8 1ac8 e0bf
000003a0: d8ed 2020 8bfb e6bf d068 cd77 b1b4 733f
000003b0: 2057 a8f3 cdb0 79bf 7e40 c66b 088b d7bf
000003c0: 105f 38ef c6dc e0bf 78b1 2b14 0401 e7bf
000003d0: 40bd e1bc 4896 43bf 806d e3b2 05fc 723f
000003e0: 2d72 defd 79b4 d7bf 2d52 52c3 4383 ec3f
000003f0: 28fa d348 f29d eabf 3c1f 3e6e aaa0 e9bf
00000400: 9e2e d28e fba3 c8bf 9a1f 0813 719f c53f
00000410: 1c0d 9ad5 843d 503f 0a3d 56fa 99cd d7bf
00000420: 389f e777 008d dd3f f4fa 9018 cb1b 603f
00000430: 0109 ce88 c905 62bf c8d8 3d79 3fd1 b0bf
00000440: a042 ada5 405b 48bf 5872 c986 6f8a 70bf
00000450: 86ad 9661 ec6a b53f d81f 9a2d 4a50 d2bf
00000460: 20c8 0352 66e1 dfbf 68a8 1053 e683 9c3f
00000470: c046 284d e8ba 32bf a6af 10f7 1d4d d13f
00000480: fc81 b15c 0165 743f c345 9188 38fa 9d3f
00000490: 90f1 9e86 8564 a33f 8e22 21c4 7a70 c0bf
000004a0: dabc b333 1d02 623f 0045 4a32 3bf9 7f3f
000004b0: 815c 1ba7 4a53 e0bf d417 47f2 34b7 86bf
000004c0: 55b6 d8cb 14c3 b9bf a441 717d 3f47 563f
000004d0: b84d e6b0 3bd0 883f 80f1 6652 8da0 883f
000004e0: 6b16 9eac 723e 693f 0157 64b9 2625 d13f
000004f0: 6ba5 7c1c 32d1 bebf 02e8 e215 bc04 a7bf
00000500: 9021 8aac 1d4d b83f bb14 0c52 7feb 62bf
00000510: a092 f0e0 5aea 72bf da12 cb06 7e95 c5bf
00000520: a5aa de52 ec8c b4bf 55f6 f6dd 2d8a b5bf
00000530: 7d0b e5e5 bac7 893f 5b8f 3f1e 73ee 73bf
00000540: d0e7 ffc3 de59 c6bf 05b5 ffa8 d4a6 b5bf
00000550: d1d7 2596 ce60 b5bf 33db 9fcb 8009 86bf
00000560: 14a3 7645 f7c5 6cbf 252d 63b1 0d49 debf
00000570: 047f 0688 998e e33f bb49 9530 22df dd3f
00000580: 7d48 1021 88ac d73f 9304 a4b7 82d7 d1bf
00000590: 78e3 ca25 d880 54bf ea46 8bfd 4b73 c33f
000005a0: 5343 7191 5e65 c7bf c0ce cb11 88c3 2f3f
000005b0: bc3c 6a99 17d6 3a3f 8a34 5e36 ad88 953f
000005c0: 80f3 fd91 e09c 013f 2006 d56c 9d8b 743f
000005d0: 401c 0c95 d57f aebf b22c c64f e2b4 c33f
000005e0: f080 629a 7108 cb3f b2ea 1bae d899 b8bf
000005f0: a096 73e8 9cd8 35bf 6462 190b 1e46 cabf
00000600: 766c 277c 29e6 113f d294 a4ba be67 3d3f
00000610: 0058 a957 418f 053f dbbc b333 1d02 623f
00000620: 38fc 6cdf 3de9 bcbf a8ed 2859 59b9 473f
00000630: 5c47 0462 8994 913f d584 a1a8 54cb debf
00000640: aae5 769f 1d8c 89bf 0cab c52c 3070 b4bf
00000650: 944f 12de 67ee 7a3f 00e5 5c9e 1937 013f
00000660: 16f8 771a 5d7e c2bf 6f4e 5be5 4e8a 603f
00000670: bae2 fa50 c614 7e3f 7c83 7a61 c522 723f
00000680: 1e5f c8f9 7d4f 653f 4182 9bbf c1bd bb3f
00000690: 78e7 9f9d 42bc 373f d2e5 08b3 9282 d8bf
000006a0: 8181 77f7 cc54 cbbf ff4f 1769 42da 9c3f
000006b0: 00c3 306c 6b5a abbf f8e3 ed58 8b59 68bf
000006c0: fc38 0f78 8626 d83f d6dd 499e dfdb ca3f
000006d0: 144d 20c8 e8d8 9ebf e8a8 1066 8b73 acbf
000006e0: a89a d2ab a1cf 693f a387 de47 7585 683f
000006f0: dea1 05ad 40f8 6cbf 1cd5 18ce 8188 68bf
00000700: 9331 1da4 354d 73bf 9b02 9077 691c 71bf
00000710: febb 6d25 e82e c03f c00b 9203 726c 7dbf
00000720: dc65 49c4 d6f4 76bf 878c f807 9a9e c83f
00000730: 5a69 e1e6 7697 a8bf c0cc 2873 f7d3 30bf
00000740: f72f 9c62 a173 afbf cf79 d1b8 42ad 663f
00000750: edd9 8264 ec12 56bf 2001 2743 6b25 633f
00000760: 5c3f 889e 412f 663f 5c4c 965a e398 67bf
00000770: d35e 42ea 0b58 a23f 2997 f64b 8f6c 54bf
00000780: 58a3 551a 190c 423f cc10 076b 5e75 83bf
00000790: 28e6 7584 ead0 80bf 0045 4a32 3bf9 7f3f
000007a0: a0ed 2859 59b9 473f 57e2 c922 de2c c1bf
000007b0: cbf9 61ae 3696 bd3f dd09 4d1a dc7c 923f
000007c0: ea6a 73dd b28e debf 6d9c 8926 0ee8 71bf
000007d0: e0f1 7b2c dc07 b6bf 4825 bb14 f1e5 c2bf
000007e0: a67a 8343 d298 64bf 0cc6 e212 9aa0 973f
000007f0: 7576 7334 55a1 ddbf af1c a7fd 6561 d0bf
-11.276328684662449 -3.8745306791377008 -1.8395716709025178 0.004979138680113678 6.827953533365843e-05 0.0005507586071590116 0.000450665006147856 1.888987652015242e-05
2.018183824242041e-05 -4.320796001131663e-05 -0.00043213519266463625 -0.00013988578127903433 5.645974283502687e-05 0.000982457884425436 -0.6092193740673009 -1.0527654648049551
-0.07198829158193315 0.0027936319147729705 -0.9850797073740319 -0.5587898681053922 -1.0266932815323382 0.023490126545540453 -0.022473696028522616 -0.878431163998242
-0.5631357032236863 -1.0290113264486376 0.010438600234362695 0.01778568206720449 -0.8881217405884527 0.00012201715381409066 -0.05781536288441117 -0.5501195038373512
-0.05762990477479615 0.04127413840191629 0.00028880768532000764 -0.8986704610618306 0.9595386284879581 0.004091382579791351 -0.002061075757011842 -0.06395440032736663
-0.0009322148719365349 0.011735091045538774 0.11702047784460301 -0.018063507857870663 -0.36879206139290405 0.00393133795067994 2.459483130284819e-05 0.005002017786509226
-3.8745306791377008 -1.9935397397509256 -1.4385498136930934 0.029274829230706133 0.00044868856879738434 -0.0095012070095283 0.049560792974275326 0.0013504327552142543
0.004751357094797862 -0.0031250194469731162 -0.01619196303247067 0.004995575906277992 0.0019491223709001064 -0.04871309703935421 -0.6687994156674475 -0.9403224259627452
-0.0346888559816447 0.0012042061586818153 -0.5151141793008879 -0.6373217207377251 -0.9190471400177294 0.009946635064781759 -0.010032559233709576 -0.4780158051845158
-0.6406219638138229 -0.9205809638597611 0.002833876287708797 0.007759360067629367 -0.4817211291785505 0.34087034096166985 -0.4790140246273653 -0.6777386962889911
-0.2918512463310919 0.21670895031575216 0.0014339117054416178 -0.6127060225357355 0.6599601611519803 0.002826126564822661 -0.0020277377038687237 -0.06442228306523887
-0.0009713148370204122 0.006146658034137522 0.12531735219224965 -0.14061134779536283 -0.4414670635538358 0.07919186799045771 0.00040870022195546325 0.15300102239839525
-1.8395716709025178 -1.4385498136930934 -1.131211469479367 0.03787629383393487 4.112165602936091e-05 -0.00821097580659387 0.170475259493421 0.0036489619282636812
0.040476756983866685 -0.0034152734810867324 -0.01695918767027632 0.007988946735961976 0.0019034649497681837 -0.06875346813425891 -0.5419962012069033 -0.7337903946132434
-0.023334319265183784 0.000811718824551293 -0.39483915295303446 -0.52442677339157 -0.7182059886467256 0.004810994371690039 -0.006272129534883125 -0.3678608944401346
-0.5269503280896704 -0.7188740152319459 -0.0005977492489942851 0.004634878407354548 -0.3703904132069365 0.8910235228418678 -0.8317805693075728 -0.800862517659858
-0.19250435327227405 0.16892827443393515 0.0009912297449837298 -0.3719239182182298 0.4617310687012721 0.0019663778989803486 -0.0022000251978521184 -0.06569287023544057
-0.0007433000240358485 -0.004038272524294749 0.08366277105840511 -0.28615049794507064 -0.49813230523352736 0.02784690744389487 -0.0002857987539367328 0.27033185126742365
0.004979138680113678 0.029274829230706133 0.03787629383393487 -0.12843260361320968 0.002198273692208025 0.007806044803730261 -0.5101674331480269 -0.011091626781205045
-0.1006329534218023 0.001359760286295233 0.012115923248336866 0.012024978711331569 0.0030815353138134347 0.26789253334696644 -0.12037957377892432 -0.044957997962640675
0.0949266954650112 -0.002309559510083573 -0.004618029589469913 -0.16862464267446492 -0.08027531645954385 -0.08413969677982298 0.012587986126737278 -0.004866075210859434
-0.17461762018484572 -0.08457688451717978 -0.08350840726583832 -0.010760313238262853 -0.003512366248930818 -0.47320883105267547 0.6111571938272111 0.46674399132202965
0.36990550259464056 -0.2787787240377579 -0.0012514220062895525 0.1519560802467404 -0.1827810487907536 0.00024233852391085907 0.0004094894042418575 0.021029192393645015
3.359375318632337e-05 0.00501595968427318 -0.05956904835152743 0.15395764250965766 0.2111951831657346 -0.09609750986775614 -0.0003333457065778176 -0.20526481191588453
6.827953533365843e-05 0.00044868856879738434 4.112165602936091e-05 0.0021982736922080254 -0.11293398575524882 0.0007239996214773352 0.0171681848597197 -0.4811603209291893
-0.012474280766457142 -0.07983685582227568 0.006575017673771461 3.283545429017855e-05 -0.1444813136330942 0.0020190754829430483 0.007344031022221637 0.004427691477446479
0.0026013813460500487 0.10836420944134152 0.0003621733318365165 -0.38296954616415946 -0.21352541049328624 0.028176343597650085 -0.053424221951337 -0.002972385561801346
0.37735139584118804 0.20983500698979068 -0.030124318327648572 -0.05556903477584446 0.0031507642402915544 0.0029933252944411444 -0.0035363448334246724 -0.0029947791342929252
-0.004712304625922664 -0.0041774864012046565 0.12643148257799902 -0.0071834996862233935 -0.0056045903516745675 0.1923401392860777 -0.048030582126289814 -0.00025677481895343066
-0.0614290650247255 0.0027681639826788516 -0.0013472851297088265 0.002337178703982215 0.0027080804468439367 -0.0028805199151036697 0.03582799181566334 -0.0012465857870238106
0.0005507586071590116 -0.0095012070095283 -0.00821097580659387 0.007806044803730261 0.0007239996214773343 -0.13418175409948915 0.1155733276118333 0.018054427247315864
-0.47745963693675597 -0.004371695781265489 -0.08605743490256357 -0.1476422644830484 -0.0025142771447542343 0.0230735849406241 -0.46297197458429845 -0.2559447266653007
