methanol_energies_noise_scf_matrices/methanol_noise_matrices_dft_b3lyp_def2-SVP_178.npz (npz, 84010 bytes, 4 tensors)

coords f8 [6, 3]
0.0 0.0 0.0 0.495486310644617 0.036817131364810296 0.9532144030931791 0.2934126977460815 0.8382408542940378
-0.6100020193384117 0.28332129321360594 -0.9353321936681342 -0.5345149203529838 -1.3904567555600076 -0.004304041620787482 0.3107805458534657 -1.8164592159932018
-0.018359418952084497 -0.55332840596291
00000000: 0000 0000 0000 0000 0000 0000 0000 0000
00000010: 0000 0000 0000 0000 9c65 f536 0cb6 df3f
00000020: 48ee 49ee b1d9 a23f 4e90 eb7d bb80 ee3f
00000030: 423c 430d 46c7 d23f d6a5 eb7b ded2 ea3f
00000040: 92ad 71f4 2285 e3bf 2b39 27a2 ef21 d23f
00000050: 1c6b d6c7 3dee edbf c87b c408 bf1a e1bf
00000060: b71e 3a95 4f3f f6bf 9ccd 0760 1da1 71bf
00000070: 4e1d 2b16 d4e3 d33f 6f56 f389 3710 fdbf
00000080: a41c e4bf cfcc 92bf 50df f1c5 ddb4 e1bf

energy f8 []
-114.95171772015881
00000000: c5c6 70f1 e8bc 5cc0

noise_sigma f8 []
0.02
00000000: 7b14 ae47 e17a 943f

features f8 [7, 48, 48]
-11.270512578210411 -3.87339062977568 -1.8391187697042697 0.004525490029523462 0.0002617024443875933 0.0006147613251967906 0.000303603931554982 1.5947871788725707e-05
-9.470656686007034e-05 -0.00030282115854241357 -0.00015726930495681737 -0.000279772956064464 -0.00032915219310232117 0.00164342938163523 -0.6556932337294233 -1.0751840161666582
-0.07084116218023773 -0.009452658267033003 -1.0874156255915362 -0.6505073673944718 -1.072734993018761 0.017907261358574372 -0.01725030914167386 -1.0782040071614563
-0.5790381219411362 -1.0371960131334412 0.032975071896653135 0.02856095144662396 -0.9214419253122632 0.00011118901126996152 -0.04765708801286152 -0.5115292396495402
-0.04631556618710823 0.03392830668493653 -0.0003906848099544029 -0.7765088057393008 0.968944494995239 -0.009178028795783149 0.001541228092723999 0.04805224071574208
-0.0007170821754650393 0.0021185823772865778 0.095968528524398 -0.02040386876269335 -0.3824853285308789 0.004935062319497575 -3.345234051970093e-05 0.00570632210897503
-3.87339062977568 -1.9973783237973244 -1.4390606923171854 0.008510658565206119 -0.006965795882635556 -0.0027044730010923244 0.03508019609161771 0.004412595832655595
-0.007942923686075729 -0.013466056039391562 -0.0046458244123526275 -0.0017661918070706398 -0.011846398491942278 -0.025150033206735582 -0.6985594967953364 -0.9554851903503634
-0.031414880024250774 -0.004325139225844793 -0.5498983955446004 -0.6975857581671985 -0.9535290514549577 0.005705240191082393 -0.006420920580486794 -0.5477202443690217
-0.6507010740193642 -0.9284821311990807 0.014315713881022603 0.01258699687363346 -0.49358469821317336 0.3039447730480237 -0.4407793932148585 -0.6387986310582252
-0.2739068555983494 0.2063578194051669 -0.0023807068015700697 -0.5391066352645567 0.6809223670541751 -0.006594552887618165 0.0017205734855501517 0.05497657408782623
-0.000827771397959692 -0.003933873464746201 0.11701031991356048 -0.14519982344818566 -0.4494642576120562 0.08636239881003399 -0.0006372143874764483 0.15148295736929746
-1.8391187697042697 -1.4390606923171854 -1.127315700374865 0.02142551434172002 -0.0024548842402678126 -0.0016583190016610455 0.15694296175361117 0.013157575779085886
-0.05111914549764269 -0.013957878185986716 -0.003793691466555901 0.0005724335531080427 -0.010344322756709892 -0.04690894679004163 -0.560665497742098 -0.73972009833349
-0.02040887422887211 -0.0035521438187871204 -0.418424775552523 -0.5626252932387925 -0.739693067323123 0.0015481255642019048 -0.003111431811927634 -0.4161254035645463
-0.5333816068726951 -0.725155177603102 0.008505527824415103 0.00819677990601933 -0.37894494451515415 0.8569538109975633 -0.8016857005767095 -0.7727540225462226
-0.1854878438488022 0.16734565866032453 -0.0014367692524348053 -0.32226973990616137 0.47818913810534086 -0.00490221933113747 0.001777149473154624 0.056678252454603326
-0.000667888854997561 -0.0137652480581319 0.07610508526586598 -0.29063068841281736 -0.5039241231402487 0.03249718870334255 -0.00011889396541493952 0.2713599153947789
0.004525490029523462 0.008510658565206119 0.02142551434172002 -0.10830359333029575 -0.006177002863420086 0.005590208889295248 -0.4888262680163452 -0.058056044139824146
0.10892715381164957 0.0073212444960206804 0.0018864051830723462 0.008361672050016672 -0.0016648307573709437 0.2461933018997119 -0.1300802831408585 -0.05697053653979974
0.09390946822793289 -0.0020403197537400804 -0.0032743286984001224 -0.1670862462491304 -0.08191013853941263 -0.08686821051497169 0.015128314317900182 0.0015603540767436543
-0.17480692713588378 -0.08805182839083173 -0.08513901623629466 -0.012329126110040363 -0.00472834284931717 -0.4145781777017308 0.5640656565235695 0.4384481689530406
0.35650909899423877 -0.26925465359950906 -0.0016713926208046532 0.14148371117341363 -0.1909407537009069 -0.005515025766020828 0.0012290918368294966 -0.02146575571682084
-0.0019530707007179137 0.008242242637502128 -0.06036824228701915 0.15540605159337278 0.20104427597317018 -0.10204974419904571 -0.0008096972830308451 -0.2014606839820502
0.0002617024443875933 -0.006965795882635556 -0.0024548842402678126 -0.006177002863420088 -0.12683456902453558 0.0015114324638486852 -0.025995788355135135 0.4575000576549099
0.16327453963862507 -0.007353983997764948 -0.07881895857930134 -0.048931181809996824 -0.1552168762424924 0.012429257554648552 -0.11349393863095744 -0.061065235390580216
-0.004327838538790436 0.10860232000102095 0.0010367840600222613 -0.3309912187811824 -0.17669900983781406 0.016247937902330763 -0.08104176960718847 0.009180755575306579
0.4218125575612574 0.23172156339034977 -0.0357331609143983 -0.03263041966048891 -0.0005308002767398182 -0.015348757109108137 0.02095472703079813 0.016364987198667386
0.0004042638407288496 -0.027886870527742934 0.1115674360584015 -0.026116216421891297 -0.03035229502724853 0.17980859922353273 -0.04608082573800091 0.011084444466956285
0.057026636921762686 0.011183100173510273 -0.007119647709702018 0.019505144390021895 0.025472422719120744 -0.016236862062689074 0.03602169904336474 -0.017338119928418334
0.0006147613251967906 -0.0027044730010923244 -0.0016583190016610455 0.005590208889295244 0.001511432463848699 -0.15288611309969846 0.1344215740287517 -0.15570348724725508
0.4559133397280736 -0.07623298388979424 0.006795977467166406 -0.15875360322842 0.062159403743697585 0.013735347135302861 -0.45570559092098134 -0.24401763170200655
00000000: 0624 e99f 808a 26c0 b627 fc39 b4fc 0ec0
00000010: fa6e 95cd 076d fdbf c286 cdfa 5189 723f
00000020: 9c1e 9f70 a326 313f 7830 aee4 fd24 443f
00000030: c1b3 fbf4 a0e5 333f bb0e 8567 f9b8 f03e
00000040: 5023 f56d a6d3 18bf 4038 f4f8 7ed8 33bf
00000050: de0a fc0a 159d 24bf 3284 54b2 cf55 32bf
00000060: b9bc 9fe7 4192 35bf 9658 a2dc 0aed 5a3f
00000070: 8571 6260 70fb e4bf 3be2 a927 f433 f1bf
00000080: 3856 c67a a522 b2bf 3cf7 ef50 ea5b 83bf
00000090: 5133 51ed 0d66 f1bf a385 98d3 f4d0 e4bf
000000a0: 58a5 042b ec29 f1bf 6881 95f7 4756 923f
000000b0: 1001 70a6 10aa 91bf 2ecb 52d8 5240 f1bf
000000c0: 6afb 9bf4 7a87 e2bf 0a32 bfd8 5a98 f0bf
000000d0: 4c3d c2ce 1be2 a03f a0a2 9f01 153f 9d3f
000000e0: 6a24 ccc6 737c edbf edc5 16ab c425 1d3f
000000f0: c22b e084 8266 a8bf bdc2 6791 725e e0bf
00000100: 4582 2384 acb6 a7bf 02ad 3d0f 0d5f a13f
00000110: 641f 577b 9a9a 39bf 209a b6fe 28d9 e8bf
00000120: e899 b4e2 9701 ef3f 5636 282c eecb 82bf
00000130: f852 4010 6140 593f ad4c bfa4 4d9a a83f
00000140: 0153 ff3e 527f 47bf 104b c740 fd5a 613f
00000150: da20 75bb 6491 b83f 92c9 3074 c0e4 94bf
00000160: 305b 4fbe a37a d8bf 7463 41b4 c936 743f
00000170: 1899 05ab e589 01bf f873 6a2d 835f 773f
00000180: b627 fc39 b4fc 0ec0 502e 27f9 42f5 ffbf
00000190: 0462 2781 6406 f7bf e6cd a341 096e 813f
000001a0: 6dc0 1a98 2a88 7cbf eba1 f6e2 b027 66bf
000001b0: aeca e60d 08f6 a13f 57e4 aa2c f112 723f
000001c0: 7805 bb2b 6144 80bf 07c1 5c72 1794 8bbf
000001d0: 0ccc 9ffe 7f07 73bf a070 3003 f2ef 5cbf
000001e0: d344 c9b0 ec42 88bf 7e08 7728 eec0 99bf
000001f0: 5c7a 2172 995a e6bf a8bf 8bad 5593 eebf
00000200: 14b4 9f74 9c15 a0bf 2010 69b8 3cb7 71bf
00000210: f094 1f85 c498 e1bf b078 2f5e 9f52 e6bf
00000220: 441e 795b 4f83 eebf d899 95c0 605e 773f
00000230: e057 74be d24c 7abf a681 1d9b ec86 e1bf
00000240: ec53 0c0f 8bd2 e4bf 3074 8d28 20b6 edbf
00000250: 04ca 8097 8e51 8d3f a0b8 6a1f 36c7 893f
00000260: 496c 2846 e496 dfbf 8602 02c7 d473 d33f
00000270: 58f2 a6c5 ba35 dcbf 1cfd a3d3 0971 e4bf
00000280: 9a7c bc9e b087 d1bf 8e3d cfda ee69 ca3f
00000290: beda 543b b480 63bf 6792 f08e 5c40 e1bf
000002a0: 569a 33b4 1dca e53f 32b8 becf e302 7bbf
000002b0: e08c 73b6 9b30 5c3f 16b5 81b7 e325 ac3f
000002c0: ca39 998a d91f 4bbf ac01 0b1e f71c 70bf
000002d0: d8bf 5269 63f4 bd3f b626 8c66 e895 c2bf
000002e0: 748a cabb 05c4 dcbf b442 7e9e d81b b63f
000002f0: 6950 357a 57e1 44bf 26b8 e625 cb63 c33f
00000300: fa6e 95cd 076d fdbf 0462 2781 6406 f7bf
00000310: c009 1630 7c09 f2bf e035 97ed 91f0 953f
00000320: a697 e0f0 431c 64bf 64d8 3878 7e2b 5bbf
00000330: 8ad9 08fc b416 c43f 2197 53ed 5bf2 8a3f
00000340: 3943 39e4 492c aabf 4696 a4b2 f295 8cbf
00000350: 9387 f598 f213 6fbf 00be e2b1 ebc1 423f
00000360: 68c3 837f 672f 85bf bdc0 b410 7304 a8bf
00000370: 2c88 19c5 f8f0 e1bf e828 d17b c9ab e7bf
00000380: f0d9 715d 10e6 94bf 2c40 09b1 6219 6dbf
00000390: f863 b5b5 78c7 dabf e49d 4bc2 0601 e2bf
000003a0: 3862 a7cb 90ab e7bf c039 c62a 4f5d 593f
000003b0: 00e4 073c 257d 69bf c00c d671 cca1 dabf
000003c0: 04cc b94d 7611 e1bf 9892 8aa1 7834 e7bf
000003d0: 9f88 ba9e 586b 813f 50e9 072d 79c9 803f
000003e0: f655 eb4b a240 d8bf e158 0d66 2a6c eb3f
000003f0: e8ba 34c5 68a7 e9bf f807 d6a4 66ba e8bf
00000400: b36d 91cf 10be c7bf 1e6e 8921 956b c53f
00000410: 1aeb de3c 3f8a 57bf fcca 5842 11a0 d4bf
00000420: 5fc0 5d9d a69a de3f 27e7 477b 5914 74bf
00000430: 5ae3 81b7 e71d 5d3f 4eb8 5f91 ee04 ad3f
00000440: 62df 1065 a8e2 45bf a218 d951 f430 8cbf
00000450: 1eb4 4674 9f7b b33f ec9b 7c75 b199 d2bf
00000460: e8b0 917b 2520 e0bf 46b6 62b5 78a3 a03f
00000470: a0d4 c8c5 d62a 1fbf be37 84fa f55d d13f
00000480: c286 cdfa 5189 723f e6cd a341 096e 813f
00000490: e035 97ed 91f0 953f 5b95 64c7 c8b9 bbbf
000004a0: 302d 9294 0e4d 79bf 50a1 b745 c2e5 763f
000004b0: 6a94 a3f8 ed48 dfbf a3d3 d495 85b9 adbf
000004c0: 1b74 4463 a6e2 bb3f 08a7 d29a e1fc 7d3f
000004d0: 9009 5f24 28e8 5e3f b024 f59f ec1f 813f
000004e0: e48a 006a ce46 5bbf 74a6 131a 4383 cf3f
000004f0: 58e2 f880 78a6 c0bf 6b4b 8cfe 3d2b adbf
00000500: 80df d26e 730a b83f fac8 b353 dcb6 60bf
00000510: a0a6 a1d5 c3d2 6abf 752e a005 1563 c5bf
00000520: c7d3 3c16 10f8 b4bf 054e 39bb fe3c b6bf
00000530: 8073 e9f9 97fb 8e3f 06f3 b46e 9990 593f
00000540: 1dd9 94c9 1260 c6bf 0aa8 4a8b 908a b6bf
00000550: 3437 59aa abcb b5bf d172 724b 0340 89bf
00000560: c2f8 6ede 065e 73bf 384f b7e8 7288 dabf
00000570: 9418 726b d30c e23f b83d a9e8 880f dc3f
00000580: 1407 3a8a 0bd1 d63f 645d e0de 773b d1bf
00000590: 88d6 4929 5462 5bbf e408 3464 231c c23f
000005a0: f03a 4f22 bf70 c8bf 1696 d374 ec96 76bf
000005b0: c2b5 8c4f 2f23 543f 1b93 267b 1efb 95bf
000005c0: b8b5 53b2 c5ff 5fbf e613 9714 4fe1 803f
000005d0: e8f3 ad14 96e8 aebf ced5 9872 58e4 c33f
000005e0: 6327 2d9f d1bb c93f cb6a e699 ee1f babf
000005f0: f0e4 d5ac 3b88 4abf 34fc 90b4 76c9 c9bf
00000600: 9c1e 9f70 a326 313f 6dc0 1a98 2a88 7cbf
00000610: a697 e0f0 431c 64bf 322d 9294 0e4d 79bf
00000620: 9f37 fb7a 1d3c c0bf 7062 2640 68c3 583f
00000630: 38b3 46d3 a39e 9abf e3f0 6252 ae47 dd3f
00000640: 8938 021c 2ee6 c43f cf56 400c 361f 7ebf
00000650: 0123 67b1 7a2d b4bf 76d3 4103 820d a9bf
00000660: 29d8 9f87 25de c3bf 92ab afb5 8274 893f
00000670: 5ed5 b652 f00d bdbf 96a4 d949 f143 afbf
00000680: 4898 c84f 11ba 71bf 9592 ac94 5ccd bb3f
00000690: b42f 5f68 96fc 503f 3d6a fbca f52e d5bf
000006a0: 5897 3eba 129e c6bf f2fa aba7 4ca3 903f
000006b0: b9a5 1246 27bf b4bf 288d 9627 5ccd 823f
000006c0: 4b22 f118 fafe da3f c00f 455c 0da9 cd3f
000006d0: c524 05eb 9d4b a2bf 18d6 9732 efb4 a0bf
000006e0: d0ac 26ea ac64 41bf d4fd 8a4e 2b6f 8fbf
000006f0: 3bf0 2ced 2775 953f 585c 45b3 fbc1 903f
00000700: 001d 92f9 6b7e 3a3f 1626 9e33 608e 9cbf
00000710: 2a5e 2bf9 ae8f bc3f 3889 b59d 35be 9abf
00000720: f696 000a ac14 9fbf c731 9ada f703 c73f
00000730: 35e7 08ef e797 a7bf a4d8 d6f3 70b3 863f
00000740: 60e0 2869 9832 ad3f e6dd 1a4c 2ae7 863f
00000750: 37c7 27e1 7d29 7dbf 951d 0915 28f9 933f
00000760: fc31 1d5a 7115 9a3f 2a16 325e 65a0 90bf
00000770: b3da aca6 6f71 a23f 7248 4488 15c1 91bf
00000780: 7830 aee4 fd24 443f eba1 f6e2 b027 66bf
00000790: 64d8 3878 7e2b 5bbf 4ca1 b745 c2e5 763f
000007a0: b062 2640 68c3 583f 2c4c e3ab c591 c3bf
000007b0: 4e48 2ae4 b934 c13f 86d0 cc84 17ee c3bf
000007c0: 3a4d fc24 af2d dd3f a6e3 ae3c 0184 b3bf
000007d0: ea0c 744f 19d6 7b3f 1f7e febe 0952 c4bf
000007e0: 15a3 6f7c 5bd3 af3f 3071 f615 4721 8c3f
000007f0: bd09 67c8 472a ddbf dd5b e741 f83b cfbf
