methanol_energies_noise_scf_matrices/methanol_noise_matrices_dft_b3lyp_def2-SVP_75.npz (npz, 84016 bytes, 4 tensors)

coords f8 [6, 3]
0	0x0000000000000000	0.0
1	0x0000000000000000	0.0
2	0x0000000000000000	0.0
3	0x3fe02ee25e513a6c	0.505723175252411
4	0x3fa38f0adab33c22	0.03820070190123938
5	0x3fef2bc7de5efc3e	0.9740943282303147
6	0x3fd2c8d728c5bbd1	0.2935083292167607
7	0x3fed0843b9bfff28	0.9072588565759121
8	0xbfe167a4ad150bf8	-0.5439017658721914
9	0x3fd3ccc1c5f3cac6	0.30937237101822423
10	0xbfed5309fb00aa2d	-0.916386595000693
11	0xbfe24cd37202697c	-0.5718781687494778
12	0xbff5b1e12e9d15c2	-1.3559276409954326
13	0xbf92b331513b25aa	-0.018261690695714407
14	0x3fd5787effdfc2d8	0.3354794977922615
15	0xbffdc8f092a9cb0d	-1.8615575531991368
16	0xbfa971c590fd3d47	-0.0496961345185079
17	0xbfe1235f00eca7f1	-0.5355677621894285

energy f8 []
0	0xc05cbcba58e44906	-114.94887373250467

noise_sigma f8 []
0	0x3f947ae147ae147b	0.02

features f8 [7, 48, 48]
0	0xc0268bd71155e2df	-11.27312521146217
1	0xc00efd9fd72892c7	-3.8738400277382854
2	0xbffd6dba6fd65bb4	-1.8392891281743973
3	0x3f73eede29b0709c	0.004866473983408916
4	0x3f216d42c814bdcf	0.00013295593456906374
5	0x3f38fbe2c8305508	0.0003812245051347395
6	0x3f3b920152c397ca	0.0004206898909288019
7	0x3f18e46678b6f835	9.49561637559611e-05
8	0x3ee6e0df8e448840	1.0909276575935792e-05
9	0xbf207e196a14c8eb	-0.00012582836374403576
10	0x3f31533c19165687	0.0002643605922342047
11	0xbf1621666c60d33c	-8.442103998691509e-05
12	0xbf281cf2efc62efe	-0.00018396821532139918
13	0xbf51f36076b12f8b	-0.0010956232097383025
14	0xbfe37e54d1dc30c1	-0.6091713045912216
15	0xbff0d7967d102a0c	-1.052633751418969
16	0xbfb18176833f4444	-0.06838169769550101
17	0xbf847a48c021f658	-0.009998863566802615
18	0xbfef86affdacbe9f	-0.9851913408837908
19	0xbfe3844a12a3d8c5	-0.6098986019194618
20	0xbff0d91c1dc5d649	-1.053005329418186
21	0x3f98cc002365fb51	0.024215700302643587
22	0xbf94254bd5876470	-0.01967352381493409
23	0xbfefa56b23774948	-0.9889426891989297
24	0xbfe1f40202804722	-0.561036114582951
25	0xbff071c39859e532	-1.0277744246689733
26	0x3f96460830e0aabc	0.02175152586293437
27	0x3f9aa553424b3c80	0.026021290704019595
28	0xbfec43eabc0342a5	-0.8832906410335296
29	0x3f1fe637d2dcf5a8	0.00012168613167503359
30	0xbfad2dcd9e6d3763	-0.056990075673282424
31	0xbfe181e214dad072	-0.54710487435524
32	0xbfabfb8a8cbd9756	-0.054653482132194384
33	0x3fa639ec02842673	0.04341065912929034
34	0xbf1c9e6d6f89fe54	-0.0001091722769022083
35	0xbfeca3e8a0aed84d	-0.8950083864535913
36	0x3fee9139f75e5b96	0.9552278357904125
37	0xbf697fe2cd204e54	-0.003112738581885025
38	0xbf2246a4854e27e0	-0.00013943441686264848
39	0xbfae5a86321c9cc4	-0.05928439485278994
40	0x3f121fc5feb9a630	6.913801160526238e-05
41	0x3f885ab5cb689b6a	0.0118917658520112
42	0x3fbdf5dff40b4f04	0.11703300197705963
43	0xbf90f747011fcf23	-0.016568288272494357
44	0xbfd6fe78d841e954	-0.3592817413224527
45	0x3f6c5feb312a6e42	0.003463706359367242
46	0x3ef044c66f78a644	1.5514996418419685e-05
47	0x3f721aec0d00a433	0.004420206139948357
48	0xc00efd9fd72892c7	-3.8738400277382854
49	0xbfffef1308daa458	-1.9958677621709935
50	0xbff70a0c4b3b4db8	-1.43995313060155
51	0x3f9a88e9a2ffe0ba	0.02591290528650412
52	0xbf8200d6dc67c829	-0.008790663338889075
53	0xbf76706a6b2ee180	-0.005478301713928935
54	0x3fa85e4d019c42a5	0.047594458052235646
55	0x3f791ccb420b8731	0.006130975700871664
56	0xbf7340aeb0ff4c62	-0.004700357807411045
57	0x3f5773159379efbc	0.0014312468246364526
58	0x3f857efeeeb5af4c	0.010496131572572807
59	0x3f7a8e3611850e88	0.006483279423551765
60	0xbf7852b3877e2c94	-0.005938245092589462
61	0x3fa72019165bd8c3	0.04516676328596383
62	0xbfe563c1af3189b8	-0.6684273168323704
63	0xbfee1b7ec6db79c0	-0.9408563503200682
64	0xbfa087adb3f4e42c	-0.0322851450131981
65	0xbf709a814ac72cd0	-0.004053597495338582
66	0xbfe07ba37270312d	-0.515092586052139
67	0xbfe575ec30346118	-0.6706448499199125
68	0xbfee0eeec985fdbc	-0.9393228469852413
69	0x3f83026775946939	0.009281929279087652
70	0xbf82a11444490500	-0.009096296628856582
71	0xbfe086b93bba86ea	-0.516445748002494
72	0xbfe47441d77672a0	-0.6391915519958111
73	0xbfed70fe46cde7b8	-0.9200431235215012
74	0x3f82f857e10f3a1e	0.009262739711542397
75	0x3f8839bd6c3f7c80	0.01182888018223438
76	0xbfdeaf80eb57f81f	-0.4794618891027102
77	0x3fd5a207557ffb8a	0.33801444387057045
78	0xbfde738bbd3d0bf0	-0.47580235939329807
79	0xbfe5963282883a0c	-0.6745846318679596
80	0xbfd1e7c1a1068cb9	-0.2797702858462788
81	0x3fcd61d85a5679a0	0.2295484963514811
82	0xbf48fd81c433457c	-0.0007626422524486388
83	0xbfe38e30b0dc9cdc	-0.6111072019893089
84	0x3fe5135f5d4bc03f	0.658614809244689
85	0xbf5cbd8e4bf7064c	-0.001754178010614632
86	0xbf27cbca5c1156c0	-0.00018154950342601749
87	0xbfaebbfe713496e9	-0.060028029746076524
88	0x3f319119fc336ac0	0.0002680481376963577
89	0x3f7b5104e4e24780	0.006669062726489261
90	0x3fc034ca2fa61cff	0.12661101652722803
91	0xbfc0f8ada22e27dc	-0.13258905810317756
92	0xbfdba50cadd020e4	-0.4319488236801716
93	0x3fb325829d081cd2	0.0747911103609227
94	0x3f2040f7d7e22380	0.00012400651388968717
95	0x3fc22febf63613d3	0.1420874550059624
96	0xbffd6dba6fd65bb4	-1.8392891281743973
97	0xbff70a0c4b3b4db8	-1.43995313060155
98	0xbff219ce77a4542c	-1.131300418235024
99	0x3fa2214cce428d0e	0.0354103090078529
100	0xbf7ac2ed9726488c	-0.006533554160698906
101	0xbf787390d69e0827	-0.0059695871112826265
102	0x3fc5c143502ab4ec	0.16996041693111097
103	0x3f7e7dc83cceda60	0.007444173982483621
104	0xbfa3e45aa0a0a8d8	-0.03885157786165089
105	0x3f5fe20ec84635f8	0.0019459862097365149
106	0x3f877b2e0f500437	0.011465415804197672
107	0x3f8158542e72c008	0.008469255130279421
108	0xbf74df71288c651c	-0.0050959034204194585
109	0x3fb0cd8b4e6276fd	0.0656363550537797
110	0xbfe15752acc09e6c	-0.5419095396109248
111	0xbfe777b09f76cf00	-0.7333605875523688
112	0xbf95d737fa7c6928	-0.021328806556177998
113	0xbf676c9bbec3b048	-0.0028594056985778195
114	0xbfd94612e47e3c6c	-0.3949019652727148
115	0xbfe1725e0692ccd8	-0.5452108505618538
116	0xbfe76631c16c1668	-0.731224897172706
117	0x3f6fd44e8b229ae2	0.0038854154637023445
118	0xbf785f3fc35ceba0	-0.00595021159625278
119	0xbfd9469fff765566	-0.39493560740932876
120	0xbfe0d50e2a7c6c6c	-0.5260077314191114
121	0xbfe7008106324e38	-0.7188115235353001
122	0x3f727a8ed311a6d0	0.004511411579281435
123	0x3f800c1370058480	0.007835533004881379
124	0xbfd798574a4dc450	-0.3686731553671665
125	0x3fec6e506135c913	0.8884660624155764
126	0xbfea82782164f318	-0.8284264232857792
127	0xbfe9894a3909c4ac	-0.7980090250040539
128	0xbfc79fc8f1365cba	-0.1845637491030397
129	0x3fc6b3612cb8230a	0.17734923060950109
130	0xbf361c55f6956034	-0.0003373823042998076
131	0xbfd7bc6241fbd0be	-0.3708730358478184
132	0x3fdd8e01447b9130	0.4617922943855488
133	0xbf52b56cf5390948	-0.001141888050270783
134	0xbf32f857058031b0	-0.0002894604162982052
135	0xbfaf5850d75a8e57	-0.061220670975015316
136	0x3f40abfa3f623986	0.0005087825691292714
137	0xbf6b14b366315e54	-0.0033057693376965878
138	0x3fb61e7f1f06b53e	0.0864028406856123
139	0xbfd1600aab2a6e74	-0.271486918596316
140	0xbfdf4099be79ca90	-0.48831790543696574
141	0x3f9b1f8b17b58e30	0.026487515756697444
142	0xbf1ff35d36dde200	-0.00012188202319219493
143	0x3fcfcebb3d4f5fb5	0.24849644178061472
144	0x3f73eede29b0709c	0.004866473983408916
145	0x3f9a88e9a2ffe0ba	0.02591290528650412
146	0x3fa2214cce428d0e	0.0354103090078529
147	0xbfc0365fddad8e42	-0.1266593773280978
148	0xbf70706e6d787e2e	-0.0040134728983783185
149	0x3f804eebaf900d88	0.007963029189346896
150	0xbfe03da0bddfb0d7	-0.5075229366753103
151	0xbf96f3e526328dba	-0.022414761024845943
152	0x3fba6e3ef17ee621	0.10324471851245011
153	0x3f7ad1b937b4ab9c	0.00654766417145938
154	0xbf8132f44183b8b0	-0.008397968530030248
155	0x3f8494448a234938	0.010048423257476999
156	0x3f44124f0cedb040	0.0006125341404703624
157	0xbfd1166f2bc74668	-0.2669942786716093
158	0xbfc0898111b42238	-0.12919629444538017
159	0xbfaa845baf6e3498	-0.051791062512259234
160	0x3fb803abd5f5ca06	0.09380601857791512
161	0x3f628c242540531c	0.002264090153412458
162	0xbf73326df60a9ad0	-0.0046867652278368005
163	0xbfc4f53c0db4d82f	-0.16373396558054895
164	0xbfb391e64a99f830	-0.0764450008518629
165	0xbfb64122572a278d	-0.08693136814159015
166	0x3f7eefb95d3d5556	0.007552837447140822
167	0xbf4fd78fa30a9304	-0.0009717418052629105
168	0xbfc630cb0aafe04c	-0.17336404821230855
169	0xbfb550cc5d5c2297	-0.08326413420958044
170	0xbfb58c65d3329280	-0.08417354971113333
171	0xbf84b502b9667d5e	-0.010110875399560623
172	0xbf715eec1ae11c5b	-0.004240915570398486
173	0xbfddfafbedffbca6	-0.4684438537796701
174	0x3fe36c9d516c7419	0.6070086088471981
175	0x3fddae37d9dc1d16	0.46375843310711795
176	0x3fd6acca0d895d70	0.3542962200349029
177	0xbfd2fb9ae77ebcc9	-0.2966067562765145
178	0xbf636e1cabf852bb	-0.002371841430213043
179	0x3fc347a1c289a530	0.1506235313311577
180	0xbfc77067a7037cd5	-0.18311782507860266
181	0xbf6f80cb8c914dd2	-0.0038455939834791475
182	0x3f5275f712cc3fd3	0.0011267578913169887
183	0x3f93abd0e8ecca88	0.0192101137319676
184	0x3f5305424d1772bc	0.0011609218093930193
185	0x3f73f14831cc571e	0.004868776330814643
186	0xbfaf042965c7bb64	-0.060578626322117995
187	0x3fc27b3946447b8f	0.14438548975973872
188	0x3fca496dd9132881	0.20536587809903398
189	0xbfb710510b6d442c	-0.090092721261741
190	0xbf52c9f53a5495ac	-0.001146783333134986
191	0xbfc860028039ca59	-0.19042998562834404
192	0x3f216d42c814bdcf	0.00013295593456906374
193	0xbf8200d6dc67c829	-0.008790663338889075
194	0xbf7ac2ed9726488c	-0.006533554160698906
195	0xbf70706e6d787e2e	-0.0040134728983783185
196	0xbfbfa691c804d4e7	-0.12363539822839052
197	0xbf5eb07c74b55bd0	-0.0018731322660039303
198	0xbf733bda4f23fd68	-0.004695751924600124
199	0x3fde9decc4f5dd91	0.47838896974959605
200	0x3fb97b0adffd0143	0.09953372925247543
201	0xbfb4199b7f6dc839	-0.07851573811584069
202	0xbf924c910d2f392a	-0.017870203427997534
203	0xbfa794610a5c9e1b	-0.04605391742216743
204	0xbfc20b39afcb426d	-0.1409675701493315
205	0xbf8ae96782df31f7	-0.013140495950119109
206	0xbfbec6b47bb54f97	-0.12021949787350504
207	0xbfb1e50bda427934	-0.0699012191639426
208	0xbf816e86c1465eec	-0.008511593602448873
209	0x3fbb021612dc010b	0.10550058327135418
210	0xbf5b31644182876c	-0.0016597250997069891
211	0xbfd5a5932fbdf79d	-0.3382308927756357
212	0xbfc808a79e4fac70	-0.18776412229576378
213	0x3f9714eec23d2e7c	0.022540789227873934
214	0xbfb2b21a933f0446	-0.07303014845730713
215	0x3f7138a62eee4e38	0.004204415467842497
216	0x3fdaaf105e6a14b3	0.41693505497125755
217	0x3fcd7a6b9e5eae2c	0.2302984736719379
218	0xbfa2a3769ff64790	-0.03640337660466664
219	0xbf9fe33f4d2942d2	-0.031140317043823647
220	0x3f6d97e4f04dce3c	0.003612467904923892
221	0xbf7a7a2fd87043f0	-0.006464182754840828
222	0x3f828f8cc6c2be38	0.009062862220473908
223	0x3f77a37fad5e6794	0.005771158923289738
224	0xbf878f3724c7a08c	-0.011503630456857893
225	0xbf9d3faec097a581	-0.028563242440133422
226	0x3fbefc0c11d47597	0.12103343425083889
227	0xbfa241e5f0d0acad	-0.035659013410929453
228	0xbfa1f7c2a403a32b	-0.03509338619352883
229	0x3fc7d9a10c1ef8a2	0.18632901279301445
230	0xbfa706d085d5cba9	-0.0449738658307049
231	0xbf8883460a7730da	-0.011969134516128955
232	0xbfaf2d077ffb5a69	-0.06089042126921102
233	0x3f892ca468e53966	0.012292179537919789
234	0xbf80f6060ca9e110	-0.008281752835714445
235	0x3f92573bbe03821c	0.017910893890873067
236	0x3f984dcda6d96340	0.023734296139397815
237	0xbf90380df8938a68	-0.015838831231017286
238	0x3fa07f08e5e3c5d1	0.03221919828673559
239	0xbf8fdca99fb26e7c	-0.015557599245133995
240	0x3f38fbe2c8305508	0.0003812245051347395
241	0xbf76706a6b2ee180	-0.005478301713928935
242	0xbf787390d69e0827	-0.0059695871112826265
243	0x3f804eebaf900d86	0.007963029189346892
244	0xbf5eb07c74b55bc0	-0.0018731322660039268
245	0xbfc104bce2c57fc8	-0.13295708725763533
246	0x3fbe4c5cc4bc4f81	0.11835269740214295
247	0xbfb74e7523d96921	-0.09104091763712009
248	0x3fddd1fc0891508e	0.46594143711741587
249	0xbf9166f5749ee614	-0.0169943191938043
250	0x3fb518939d3c431c	0.08240625942950114
251	0xbfc26cfbc4b1dd2b	-0.14395091156232218
252	0x3fad9033eee72123	0.05774080554289387
253	0xbf8aadbc82ac1f00	-0.013026688325694646
254	0xbfdc705ae7829f01	-0.4443576107828307
255	0xbfcf455c4f4c5096	-0.24430421707132116
