methanol_energies_noise_scf_matrices/methanol_noise_matrices_dft_b3lyp_def2-SVP_344.npz (npz, 83984 bytes, 4 tensors)

coords f8 [6, 3]
0.0 0.0 0.0 0.4578239000504631 0.021232495665884782 0.9952963593137448 0.2658576195449805 0.9057674012326773
-0.589464850176637 0.30065903668840993 -0.8437176760351378 -0.5453882201513406 -1.3536694397407054 -0.014597631765964476 0.289096466518472 -1.8445577214804316
-0.03625407371661452 -0.49637352734392404
00000000: 0000 0000 0000 0000 0000 0000 0000 0000
00000010: 0000 0000 0000 0000 73cf 829d fc4c dd3f
00000020: 1860 fda9 f8bd 953f a192 22c0 77d9 ef3f
00000030: 75a3 55ad cf03 d13f e878 c2ea 0bfc ec3f
00000040: 67ce b463 e5dc e2bf 9db5 7466 ff3d d33f
00000050: e718 3436 bcff eabf 978e 25ff d173 e1bf
00000060: dd7e 5449 a1a8 f5bf aa5c 45f8 5ce5 8dbf
00000070: f680 4577 8e80 d23f d37b 15f5 4e83 fdbf
00000080: f554 ebd9 e48f a2bf 4cb5 a278 95c4 dfbf

energy f8 []
-114.95106986267831
00000000: 881a 2154 debc 5cc0

noise_sigma f8 []
0.02
00000000: 7b14 ae47 e17a 943f

features f8 [7, 48, 48]
-11.265552151300202 -3.8724342491818593 -1.8387531334332419 0.005012700764499485 -0.00048448250164269207 0.00030618335771675153 0.00044291282481286997 0.00010085893974540511
0.00017468296424098665 -0.00034777738201028453 0.0001263156558157949 -0.00012302980505115723 0.0005497362842396029 -0.0012956519612047817 -0.6137209720366975 -1.054670349609204
-0.07876384282389065 0.015360110746071267 -0.9945027540479571 -0.5808028597755277 -1.0379638474020219 0.03393139744479684 0.038468128915334965 0.9249070469402935
-0.7113538607074359 -1.1005341208461892 0.028318414038201956 0.026948366783352107 -1.212792084444871 0.00012419952453943166 -0.06176358703118171 -0.5636595215195391
-0.0639459693125033 0.04150394575763011 0.00016040373258364646 -0.9342745959347779 0.9599006526517022 0.006786468150556324 -0.0016137810980221012 0.07570922508432609
-0.00070615518299927 0.010529394698542291 -0.12243117449706784 -0.019188031647852134 -0.37541036716251497 0.004197654822455479 8.926734816085938e-07 0.00555943940195685
-3.8724342491818593 -2.006995856182936 -1.4481570026606931 0.02945022563082749 0.00792435936967171 0.01040380349851844 0.05095460352117019 0.011363405727637022
0.014001256226568393 -0.017083477912460353 -0.000741490661680303 -0.01209019955102512 0.01931928095217188 0.039460816182102246 -0.6719614202112933 -0.9450217933323528
-0.038058857500131466 0.0071796704656871945 -0.5175741212584007 -0.6510675906160723 -0.9319691434861856 0.015409547986214682 0.01722302740063933 0.49364347821330157
-0.7345483796924519 -0.9772759084010194 0.011068966995143759 0.010521634979906047 -0.5923651760467793 0.3543446571937116 -0.4919168824876925 -0.6926929963580584
-0.3053302370299712 0.20607250556232865 0.0011798643619981006 -0.6339826533431372 0.6593127291004222 0.004214707954471176 -0.0014708787629052265 0.0725984061990264
-0.00051551232092887 0.004176718816343489 -0.12441467784764848 -0.14904165782752304 -0.4530597608589415 0.08086943459072359 0.00035744800124359443 0.16811196243276422
-1.8387531334332419 -1.4481570026606931 -1.135103203663241 0.04077114595140076 0.003818742404385779 0.00421049246711167 0.17478280377560995 0.021332724101669233
0.05144675915340022 -0.018319429716248926 -0.0028848282487092232 -0.014031482470433135 0.016518607188910645 0.061349944830373176 -0.5441205638334266 -0.7354544203810311
-0.0262745097453006 0.005871255895615093 -0.39635189496715073 -0.5334587590676003 -0.7273486865253709 0.009215089808430992 0.012042041191560965 0.3790114652424208
-0.5848694333816837 -0.7555673796387214 0.005050038645782299 0.0062345065254989784 -0.44629200343514286 0.9027030882875879 -0.8421012259050791 -0.8113132943648322
-0.19937436176880882 0.16075091742548253 0.0002697925386724307 -0.3861240969693175 0.4599006896677377 0.0031585942755521525 -0.0014811091052458173 0.07408887154186224
-0.0003227510914140257 -0.004987446422666943 -0.08087949643649667 -0.303945588549255 -0.5094877564269145 0.02596687697429731 0.00025437729921643296 0.2994378488066246
0.005012700764499485 0.02945022563082749 0.04077114595140076 -0.13254305172494027 0.0013742796862863602 0.016261411445530824 -0.5013598528815912 -0.08440355505928106
-0.11880912794148857 0.009322713284131118 -0.0007550594775179026 -0.00023234555539332347 -0.008634951792847456 -0.2789232189904573 -0.12694042541724143 -0.04625929520563323
0.09453774312432324 0.003511724207064205 -0.004248018855906994 -0.17471721627432363 -0.07976836366769015 -0.08588146476113655 -0.009710869570796149 0.0032220887663746292
-0.15027032063238782 -0.06140732146831243 -0.09100968595731108 -0.014250857362723197 0.005611032235498567 -0.49370281918623615 0.6263569950488291 0.47422139954614045
0.383987086528315 -0.2660725149647255 0.0066339508962284886 0.15025650160208948 -0.179175381621698 0.00990385262743488 -0.002429594251276671 -0.021631652494201237
-0.00341372139375286 0.006977054725556925 0.056772085856554445 0.16631988359604433 0.2206269698686229 -0.10155578413667671 0.0020426545909885668 -0.22731103578708484
-0.00048448250164269207 0.00792435936967171 0.003818742404385779 0.0013742796862863584 -0.12910458516925793 0.0003882304357440067 -0.025673958965613086 -0.3496779065561485
0.3420041919117369 0.07139954850855579 -0.05397595924384687 -0.0933374532341524 -0.11506649764903921 0.021522746006569022 0.27859533566572386 0.15358479477199563
0.013214552358819378 0.08723291243018108 -0.0004017242880842665 -0.4349034499652029 -0.23959796501300412 0.04250268523641544 -0.008681771109305248 -2.5424668282918172e-05
0.18748446897362503 0.09773994567775142 0.0007148685713706145 -0.10655395370088705 -0.012390065580532586 0.010075640209652889 -0.014369591715463995 -0.009220229027512301
0.026093797602507712 0.06806574101022325 0.10401899734394103 0.08277631994328705 0.08515215693759286 0.16001555540987566 -0.040475565738173847 -0.029661687717768757
-0.04870452943273952 -0.03261741699258648 -0.021547809969718945 -0.03953066787733905 -0.050280428628830975 0.036315243869280506 0.0307818265621641 0.03399408209772768
0.00030618335771675153 0.01040380349851844 0.00421049246711167 0.016261411445530824 0.0003882304357440136 -0.1562323669851541 0.165240968920651 -0.33432295574477466
-0.33685036048766726 -0.05252999267003533 -0.07466525406144274 0.11617629590644883 -0.12111775071338766 0.015045995152433128 -0.367005987292049 -0.19930213529406274
00000000: 026f 9a73 f687 26c0 d42b c1ce befa 0ec0
00000010: 7836 d867 886b fdbf ae0f 929d 3288 743f
00000020: dc98 0280 44c0 3fbf 5a83 0a82 e710 343f
00000030: ae0d f918 d806 3d3f f298 0f64 8770 1a3f
00000040: ccf5 b63c 63e5 263f 77d6 657b bcca 36bf
00000050: 5ce2 ad38 738e 203f 68fb 6efa 3120 20bf
00000060: 22ac 5dae 8503 423f d44e 39b3 5b3a 55bf
00000070: d38a f829 9aa3 e3bf 621e 3a04 eedf f0bf
00000080: 6430 0901 de29 b4bf 0edc 892a 1f75 8f3f
00000090: 7f5f 8d70 f7d2 efbf e217 05e1 ef95 e2bf
000000a0: 305a b0fa 7f9b f0bf 687c aac4 745f a13f
000000b0: d864 4237 18b2 a33f 175a cea9 d698 ed3f
000000c0: 98e5 f32b 69c3 e6bf f6a9 92aa c99b f1bf
000000d0: 70b6 ac98 80ff 9c3f 0079 0f48 5a98 9b3f
000000e0: 409d 38ac 9867 f3bf 126c caca 7147 203f
000000f0: e5e0 c314 7a9f afbf 792c 60b1 7f09 e2bf
00000100: 3181 e856 c35e b0bf 8832 5e53 0140 a53f
00000110: 8091 3a92 4106 253f 65c0 60d6 93e5 edbf
00000120: 2c8a d192 81b7 ee3f 3317 31ac 20cc 7b3f
00000130: 8a77 7d42 b070 5abf 8020 be05 ae61 b33f
00000140: 0e6a 5cb5 a823 47bf f8eb 036f 6f90 853f
00000150: 6ecc 7942 a657 bfbf 0aca 9b01 07a6 93bf
00000160: eeb5 6234 b906 d8bf 76e0 ea62 8f31 713f
00000170: 005a e4be 01f4 ad3e b9e1 a5a6 7ec5 763f
00000180: d42b c1ce befa 0ec0 181b ecd7 530e 00c0
00000190: c06a 5ead a62b f7bf eee2 c62f 3328 9e3f
000001a0: b509 ad82 a53a 803f c1bd 3dde 964e 853f
000001b0: 2e7c 68c7 b816 aa3f ed62 c57f b245 873f
000001c0: 20aa c4cc b0ac 8c3f 236b becb 547e 91bf
000001d0: ecd0 3312 134c 48bf d6df 631d bfc2 88bf
000001e0: cdbc 7cff 6ec8 933f 6a81 f345 3534 a43f
000001f0: 2466 7f3c b580 e5bf ccd4 0b58 9e3d eebf
00000200: 5c87 9258 737c a3bf cef7 891d 6e68 7d3f
00000210: d3f1 819a f78f e0bf 3ccf 25b3 8bd5 e4bf
00000220: 04f0 04f4 b0d2 edbf 1cec 2c85 0a8f 8f3f
00000230: c807 b2cd e9a2 913f 12d4 b3d0 da97 df3f
00000240: e07b 839a 6b81 e7bf c408 3820 d845 efbf
00000250: e008 f599 53ab 863f a0f8 1cf1 5d8c 853f
00000260: 5b20 4dd0 a7f4 e2bf 5732 8a36 95ad d63f
00000270: 70a2 a8f2 907b dfbf e0d5 b080 8a2a e6bf
00000280: 8e83 a1d5 878a d3bf 7e5b ff77 9560 ca3f
00000290: 7fc9 4db6 b554 533f eee1 4afd 9549 e4bf
000002a0: 8c54 2a02 1719 e53f dbef 390d 7143 713f
000002b0: 9e3c b70b 5019 58bf b3d5 5d24 cf95 b23f
000002c0: 45c1 8f47 6ee4 40bf e053 886b 9b1b 713f
000002d0: a07e 7fec a3d9 bfbf ce2f 0e0b cc13 c3bf
000002e0: 7c74 015e eefe dcbf d72b d0f8 dbb3 b43f
000002f0: b04f b179 fb6c 373f 7e88 5b5a b184 c53f
00000300: 7836 d867 886b fdbf c06a 5ead a62b f7bf
00000310: 5c18 15fa 6129 f2bf 92a2 f6a4 f4df a43f
00000320: 6a4f a3b7 7b48 6f3f 660a 2477 053f 713f
00000330: 7c49 0f6d 485f c63f cab0 67e1 3ed8 953f
00000340: 1c1c 19c8 3a57 aa3f aaf6 0c1e 54c2 92bf
00000350: 7af5 725f eca1 67bf 2869 99b2 89bc 8cbf
00000360: 657c 9bf6 40ea 903f a4d2 508d 4269 af3f
00000370: 58dc 5787 6f69 e1bf 7886 67b5 d788 e7bf
00000380: 9049 4c80 b4e7 9abf f608 ee40 750c 783f
00000390: c8db a556 d45d d9bf 08b9 7e1a 1812 e1bf
000003a0: e047 adc0 7046 e7bf bcf5 da6a 5cdf 823f
000003b0: 103b c268 7fa9 883f 809d 014e b941 d83f
000003c0: 80bd 191a 40b7 e2bf 9020 2fa4 9b2d e8bf
000003d0: c417 3c6d 59af 743f 20b4 239a 5a89 793f
000003e0: b618 ce55 0c90 dcbf 4230 4696 f1e2 ec3f
000003f0: e0e1 2545 7ef2 eabf 586c 434c 47f6 e9bf
00000400: af9c ba5d 1985 c9bf 247d 926e 7c93 c43f
00000410: fc87 5b21 5eae 313f 6e91 2bd8 41b6 d8bf
00000420: 47f8 614d 036f dd3f 83ae ac63 0de0 693f
00000430: 7240 ceca 3844 58bf 7514 4500 7df7 b23f
00000440: 081a e361 dd26 35bf 281d 6a74 b76d 74bf
00000450: 7c98 1cc8 84b4 b4bf 0c48 a532 d873 d3bf
00000460: c41c 7244 b94d e0bf 3813 899d 0f97 9a3f
00000470: 40aa 542e beab 303f 66c7 f35d fd29 d33f
00000480: ae0f 929d 3288 743f eee2 c62f 3328 9e3f
00000490: 92a2 f6a4 f4df a43f 6b3e 3cb4 2bf7 c0bf
000004a0: 60d8 b893 2584 563f bca4 61d9 d4a6 903f
000004b0: faeb 74d1 230b e0bf b54f a5ac 789b b5bf
000004c0: d897 f966 466a bebf 7097 5265 c917 833f
000004d0: 80c1 98e1 e5bd 48bf 0052 a21f 3974 2ebf
000004e0: 002b 6c9c 33af 81bf 0b2e eac5 e0d9 d1bf
000004f0: 668b da77 953f c0bf f3a1 1660 4caf a7bf
00000500: dde4 f422 a033 b83f 9cb4 e693 9ec4 6c3f
00000510: 944d f1e0 5e66 71bf f222 f93c 225d c6bf
00000520: 394a 3511 b36b b4bf ef4d 7be2 53fc b5bf
00000530: 8340 c7d9 4ae3 83bf e25e 0bbc 3565 6a3f
00000540: 1678 56d0 0e3c c3bf 04fa e1ca c770 afbf
00000550: 414e ce28 694c b7bf 24bb 80b2 8d2f 8dbf
00000560: 301b 2cff 97fb 763f c243 96b5 d398 dfbf
00000570: b560 2bd3 1d0b e43f 254c 87b6 a459 de3f
00000580: 876d ae92 3e93 d83f 72d4 8803 5507 d1bf
00000590: caf8 47a2 332c 7b3f 6438 32e4 9a3b c33f
000005a0: 2c21 280a 38ef c6bf 0428 1d99 7848 843f
000005b0: 3bce 417b 3ae7 63bf 3089 15a0 9b26 96bf
000005c0: 2468 cdb7 17f7 6bbf ba11 e6dd f893 7c3f
000005d0: 0dc2 2818 3b11 ad3f cc19 5c4e f849 c53f
000005e0: 9ec4 192a 813d cc3f 7c2f 9653 8fff b9bf
000005f0: 7c4d 4ad5 c1bb 603f 66da 5c2c 8718 cdbf
00000600: dc98 0280 44c0 3fbf b509 ad82 a53a 803f
00000610: 6a4f a3b7 7b48 6f3f 58d8 b893 2584 563f
00000620: e465 88c1 7f86 c0bf 8069 5b06 6d71 393f
00000630: 20f1 7638 464a 9abf b6b6 3271 1f61 d6bf
00000640: b8c5 d68c 65e3 d53f 181d cba5 3d47 b23f
00000650: 3bf2 71a7 bca2 abbf fef2 219d f6e4 b7bf
00000660: 1194 447c ff74 bdbf 8591 df08 0f0a 963f
00000670: c127 e087 81d4 d13f 2db3 5aa3 aaa8 c33f
00000680: 6e03 b331 3b10 8b3f eabf 056a e554 b63f
00000690: b09f e8ad d053 3abf dc28 a147 75d5 dbbf
000006a0: f4a1 f567 25ab cebf c248 2a76 e9c2 a53f
000006b0: 87f7 e297 bfc7 81bf 00f8 8ce6 e1a8 fabe
000006c0: 68f4 5fb7 7dff c73f dde1 322e 7c05 b93f
000006d0: a0dc 4691 c06c 473f 80a1 67b2 1e47 bbbf
000006e0: 489f b573 f65f 89bf f867 7e89 89a2 843f
000006f0: e85e ccf3 cd6d 8dbf 840f 1431 0ee2 82bf
00000700: b829 531d 55b8 9a3f 22ee 9da3 c16c b13f
00000710: 9743 c12f fda0 ba3f 8826 0a33 d430 b53f
00000720: 1317 3b21 88cc b53f b818 abc4 637b c43f
00000730: 38de 439e 36b9 a4bf d996 c42a a25f 9ebf
00000740: a24f 29d2 ccef a8bf 12bc 86e6 3ab3 a0bf
00000750: 2041 7b0c a110 96bf 5fc5 711b 5d3d a4bf
00000760: 00ec 2d39 5bbe a9bf 0c97 8761 e997 a23f
00000770: 5f22 9569 4585 9f3f 0e0c bc1d ac67 a13f
00000780: 5a83 0a82 e710 343f c1bd 3dde 964e 853f
00000790: 660a 2477 053f 713f bca4 61d9 d4a6 903f
000007a0: 006a 5b06 6d71 393f 7592 6315 6cff c3bf
000007b0: 3c9d bcb6 9d26 c53f 8874 4e1c 8c65 d5bf
000007c0: 8e2e 7cd0 f48e d5bf 4062 2711 36e5 aabf
000007d0: cf67 5718 431d b3bf f715 7dcf babd bd3f
000007e0: d571 47aa 9201 bfbf 107e ec48 6fd0 8e3f
000007f0: 33c1 36ae 067d d7bf 2934 8e7c bb82 c9bf
