try_energies_noise_scf_features/try_noise_scf_dft_b3lyp_def2-SVP_784.npz (npz, 11960 bytes, 4 tensors)

coords f8 [27, 3]
0.0 0.0 0.0 0.019354300283397127 -0.0009034450318950113 0.009308448344959057 0.22432089760102028 -0.1728073491987671
-1.529601691528802 -0.19342967640959663 -1.0484857102452319 -2.254648681406514 0.97472855636517 0.774580817785564 -2.054983245548549 0.7910360592791382
-1.1074301195365093 0.7207211859593795 1.8183796645175097 -1.1159252659754946 0.40067620295190154 0.37178295057127453 -2.1487234089204357 0.4201339546689691
0.6515622523986847 -0.9837436380237728 2.1747928534734102 1.4573185686946422 -0.13813377545951044 2.9784035632072117 0.9870342670022596 -0.29563714286197373
4.307512608592376 1.590281366644704 0.0515945427820153 5.101140582319964 0.02698940428481191 -1.2573477948361498 4.385309221664165 -0.22573612463879753
-1.6925959109691555 3.0500300508314933 -1.2201126047374626 -2.6598382998815375 2.771308810717627 -1.4276175004406961 -3.007759925494819 1.8492421773287593
-1.8640085702004021 -3.1786047640695245 3.9293519863163073 -2.6631900580157035 -3.913643850362199 3.7206018311476114 -1.6301752811511538 -2.7194195419769613
5.233488694536275 -2.1830451752807334 -3.16985409793226 6.070794131966049 -0.6963299301741562 -1.7680883315426215 5.470599639855349 -0.4511170291923904
-1.3921446898695762 6.471783859129412 2.2188328355053 0.4933784570052208 2.6964333664212408 -1.6121408945577056 0.1854816245889027 1.2439687305080736
-1.8757418296661799 -0.8636180763822131 0.06454373721195152 0.4064764884205379 0.9730308373746347 0.313458539446183 0.9829581619169355 0.666242478532103
-3.037098490565926
00000000: 0000 0000 0000 0000 0000 0000 0000 0000
00000010: 0000 0000 0000 0000 ff40 041b 9dd1 933f
00000020: ca00 d06e a59a 4dbf 8fad bec9 4e10 833f
00000030: 51bc 8013 8cb6 cc3f 9698 a81c 8d1e c6bf
00000040: 195c 909f 3f79 f8bf 78a6 20bb 4dc2 c8bf
00000050: c439 bdf3 98c6 f0bf 4ee2 743f 8509 02c0
00000060: 321a 02f1 f930 ef3f 10ef 0fb6 5dc9 e83f
00000070: f1ab 4b0e 9b70 00c0 91f0 91da 2a50 e93f
00000080: 1f3c 20a5 08b8 f1bf 175b 67e0 2510 e73f
00000090: c806 6d46 1518 fd3f 4f51 a273 d4da f1bf
000000a0: 24b0 fdcc ada4 d93f 1e7f 7ab7 4acb d73f
000000b0: 08b4 0be6 9530 01c0 f882 cf86 79e3 da3f
000000c0: cb88 ab14 99d9 e43f afb9 1ef0 d37a efbf
000000d0: 4af1 a9cb f965 0140 2f5a 8646 2d51 f73f
000000e0: 582a 0918 5eae c1bf 661e 523f c5d3 0740
000000f0: 0ecb 19e3 c895 ef3f bccd 040d b8eb d2bf
00000100: 300c d495 e43a 1140 c4d5 d2df ca71 f93f
00000110: 6739 cd93 996a aa3f 5873 9565 9167 1440
00000120: a697 f742 1ca3 9b3f bf4d a8b8 181e f4bf
00000130: 4794 2780 8e8a 1140 a3b9 6cdc ebe4 ccbf
00000140: 2a4b 2f73 df14 fbbf 9c1b c127 7666 0840
00000150: 728e 6ccb 9485 f3bf 951d 754d 5947 05c0
00000160: df30 29f4 a32b 0640 de70 b972 85d7 f6bf
00000170: d5c1 916f e40f 08c0 752c 20f7 7e96 fd3f
00000180: 5697 87a6 fad2 fdbf 0db5 a455 c86d 09c0
00000190: 049c 1d18 506f 0f40 a6ad d196 364e 05c0
000001a0: 30fa cb81 244f 0fc0 d0bb 91e4 cac3 0d40
000001b0: 42ab f4ac 3215 fabf a027 6708 5fc1 05c0
000001c0: 7e13 0ca9 17ef 1440 b32b 8c63 e076 01c0
000001d0: 63af 1d77 dc5b 09c0 eb2b c641 7e48 1840
000001e0: eb5d aab4 5548 e6bf e0a2 86fd 164a fcbf
000001f0: 9ec0 3adf e4e1 1540 1a33 c3f5 19df dcbf
00000200: 66a3 a482 3946 f6bf 4bf7 d64e 1be3 1940
00000210: 294a fe6d 2bc0 0140 fbda 583c 8393 df3f
00000220: b4fa 24a8 4b92 0540 65b6 2a40 54cb f9bf
00000230: 0324 cfa3 dcbd c73f 0576 6cc1 4be7 f33f
00000240: b47c 62dd 0903 febf 1f79 4960 c2a2 ebbf
00000250: c1a8 7c38 f085 b03f 09fc 16f6 b503 da3f
00000260: edc0 1091 1123 ef3f a7b0 e467 b40f d43f
00000270: d59f d8ac 6474 ef3f 2e0b 10bf db51 e53f
00000280: 64b1 1d4b fa4b 08c0

energy f8 []
244.87859805877792
00000000: f818 ad79 1d9c 6e40

noise_sigma f8 []
0.02
00000000: 7b14 ae47 e17a 943f

features f8 [27, 14, 5]
-22.304491206230196 41.61607188189499 9.331482278895647 35460.27571232443 -59.25482194867725 -2.407676642252394 24.19676033157444 1.9586765920078746
600665.6946547579 -25.62509867779194 -1.3538645141878345 24.971889907350118 1.7436707243662386 28734.308626968083 -25.45391905935494 1.1631302677849829
25.78190752481968 1.9024100544936906 32907.46571308479 -23.667572229791766 -1.0326890744588322 26.778427213908635 2.2154963005129162 57434.93315843165
-26.703368138107187 -0.3395623732301932 26.802821319993654 2.114831038512399 54359.28177761539 -26.084968173968598 -0.3332688253890494 25.461726042605324
1.5894925400136515 646.24882132233 -25.000248597987433 -0.4082318440463888 25.604347568165057 1.7142075573245483 413.6051319093927 -25.15547563354905
-0.5372680566798517 26.243621331816207 1.8155203280510657 723.5864406694183 -25.873129224470443 3.280109182556095 27.48276013955127 0.7005784459488409
221.21479826140515 -23.852361734020853 3.3143048045591073 27.766886600663444 0.7150281434910003 101.78027965012141 -24.095067724358668 3.269421976843087
27.79675520248147 0.7206183285630815 33.500826478146045 -24.167024061357044 3.202123690715249 27.563091137653913 0.6768554773766139 62.00219458071247
-24.0225397082503 3.2429313527988675 27.49803428945707 0.6970923429367322 31.660281005099886 -23.906556765189645 3.216755544868914 37.08830217127353
3.8310030743650625 58768.61894562195 -31.95604508922441 0.9583817982881344 20.967362986694816 0.40861180543372155 732986.3965526317 -19.804675285676964
0.919012712915348 19.711914961293665 0.2774923691888624 8743.830990511708 -18.654156063783816 2.329794370614025 22.423026746851633 0.48675283572680045
34797.24696048661 -19.84985595837085 1.6781332380868001 22.835467011605974 0.6056766706109897 69154.08987877997 -20.854495438211735 1.8648990438289441
23.415314893473887 0.5884239763777575 57114.518390944926 -21.25620386145279 0.8480804021682445 19.331354871380547 0.2723185946133116 1029.4662831714581
-18.34711517190564 1.0019878910183633 19.743334130391023 0.3130964735195322 115.61451633907487 -18.58479800261309 0.9451602116540913 20.596925070508867
0.34181805905826357 563.4359575893262 -19.480855829325584 2.4250943868470958 23.60812355350126 0.20065305679550766 175.1435955928985 -21.08270263825631
2.4840300443168735 23.881083941184716 0.21752585603825392 111.80282983616969 -21.288290968848777 2.444275068751264 24.09221317177071 0.2372470437307119
65.80799814329474 -21.529314581154182 2.217202104070916 23.801552542005567 0.1904670309469967 18.01916848085432 -21.48911692246121 2.293869725520987
23.563515382473472 0.18843660946331206 95.14710115385179 -21.175427352220694 -10.883275170531025 29.360432841594708 6.939937086572257 15.043295090793066
-36.773739468839544 0.4375675383456171 20.90364873224678 1.0480635705452674 697.3728010275983 -19.942049408628694 0.6435786567099115 20.267855760833886
0.5459078983062186 278.9843400788938 -19.351323154970874 0.2132565660438608 21.631422860282818 0.7801698992135885 47.52653330799644 -21.028081344632145
0.2690016627332633 21.877072065907708 0.9052010213579026 39.5141646564018 -21.155469892495482 0.3595589197616761 21.37827836096503 1.000704784963627
72.06470071375733 -20.51836704872174 0.7743599033821069 20.205653920920643 0.3257199391692873 28.310734423998824 -19.268434047953907 0.7623374604853753
20.536557735272233 0.44436511933216705 24.53858702282385 -19.552037715120736 0.7556046445205727 20.749797805475733 0.5885775211220651 47.961325436544705
-19.69990440039429 2.173202927161279 22.885533512788626 0.40412132074487495 0.627749837823422 -20.510269925254924 2.235488509989619 23.449513984855578
0.49335790202910973 1.5914036249087726 -20.967346523851425 2.3157756238679785 23.309541325573004 0.4509561061494901 39.33166400695991 -20.768287648630277
2.156428796576915 23.103393345493505 0.414949165782654 2.377378201003482 -20.739489966025246 2.1558083822155023 22.823026396371116 0.3849932600604212
0.09765318146767757 -20.47472138412537 -20.344878271491005 30.87083655247329 9.728580353693724 2.0439199172554248 -46.3514246471174 -0.403191421650979
20.430706570371353 1.8786225069484974 11.735990138550301 -19.894586738547982 1.5194226803321598 20.404734406913022 0.7223082844576545 6.278630670943547
-18.524157584352093 -0.19461485083886937 20.816608971721262 1.648521516039715 6.051241838369037 -20.186963064540244 -0.0921707205458612 20.945989448347436
1.6627930680178888 5.7964364239314525 -20.206763634884346 -0.17223779083852594 20.928798240296345 1.7764136248554092 7.694970263819765 -20.212829218707174
1.3637407472959866 19.730207515016584 0.5056650321490913 4.331537106719692 -18.113634251646037 1.350016764309772 19.78885508175167 0.5448242933224157
4.914249034230338 -18.166426170780664 1.372417216643538 19.86307715756245 0.5765629065429742 2.912871536197062 -18.2023784876474 3.1714405869027216
00000000: a4ad bc22 f34d 36c0 b15c 8471 dbce 4440
00000010: e71e 960b b8a9 2240 11a7 a2d2 8850 e140
00000020: 96ef 6f01 9ea0 4dc0 7889 aef8 eb42 03c0
00000030: 2843 95e2 5e32 3840 39d5 2144 bd56 ff3f
00000040: d6c9 a963 b354 2241 a4e3 8977 06a0 39c0
00000050: 456d 3ad6 6da9 f5bf 9861 e7c6 cdf8 3840
00000060: 7b54 0246 13e6 fb3f a553 8bc0 930f dc40
00000070: e7f5 1a0a 3474 39c0 d2fc d17b 2e9c f23f
00000080: ca98 6f17 2bc8 3940 961c 7a86 4570 fe3f
00000090: 9020 1fe7 6e11 e040 66ac 7e03 e6aa 37c0
000000a0: 8bcb 9bfa e485 f0bf d20d 8201 47c7 3a40
000000b0: 4de5 d81f 56b9 0140 3e12 6fdc 5d0b ec40
000000c0: 0238 2eef 0fb4 3ac0 ee73 fed1 63bb d5bf
000000d0: 80e7 b1b2 85cd 3a40 d0cf 1789 2ceb 0040
000000e0: 5b7d 5204 e98a ea40 5e65 6879 c015 3ac0
000000f0: 97a0 74c4 4654 d5bf 8db3 8cad 3376 3940
00000100: 8083 c9ba 8f6e f93f a38f 0896 fd31 8440
00000110: d339 c84a 1000 39c0 5c5c d774 7820 dabf
00000120: a1af b085 b69a 3940 5c3d 54e7 646d fb3f
00000130: b909 cc9e aed9 7940 056b 4940 cd27 39c0
00000140: 9503 94c7 4c31 e1bf 32c2 b4f7 5d3e 3a40
00000150: 843d 230b 5f0c fd3f 9141 ce07 b19c 8640
00000160: 4b48 9865 85df 39c0 0e1a 13e2 a93d 0a40
00000170: 632f 232b 967b 3b40 b23f 347d 236b e63f
00000180: 217f 9aa0 dfa6 6b40 3efb eb60 34da 37c0
00000190: d074 c43c b283 0a40 1197 25ae 52c4 3b40
000001a0: 1d6e 80b3 82e1 e63f 5fc0 0e1a f071 5940
000001b0: 8f06 bf5b 5618 38c0 f7ea 9ab5 c627 0a40
000001c0: 6693 2126 f8cb 3b40 a773 422b 4e0f e73f
000001d0: d74d 0015 1bc0 4040 712c c116 c22a 38c0
000001e0: 54f3 8a06 f39d 0940 18e4 a4bd 2690 3b40
000001f0: cb6e 6ed1 cca8 e53f ba31 7ae9 4700 4f40
00000200: e2cb 8d29 c505 38c0 ab8d 3bfe 85f1 0940
00000210: 3581 d92c 7f7f 3b40 aa91 e699 944e e63f
00000220: f312 0b2d 08a9 3f40 0375 aa1a 14e8 37c0
00000230: 5982 c354 eabb 0940 8fe4 4c7c 4d8b 4240
00000240: ec2f 9af0 e4a5 0e40 890c 67ce 13b2 ec40
00000250: 62b8 f75e bff4 3fc0 a855 174e 10ab ee3f
00000260: 1237 c719 a5f7 3440 f83a 4621 b226 da3f
00000270: 51f2 08cb 745e 2641 cce1 1333 ffcd 33c0
00000280: 8c8c 5259 8d68 ed3f 164a 140f 40b6 3340
00000290: f390 a35a 6fc2 d13f 89a7 e55d ea13 c140
000002a0: 7c6e 94c5 76a7 32c0 8189 213b 6ba3 0240
000002b0: a00f 1b7b 4b6c 3640 bba3 ab5d f526 df3f
000002c0: adad 19e7 a7fd e040 7783 fb28 90d9 33c0
000002d0: 3d9d fe3c a2d9 fa3f 09bc 832a e1d5 3640
000002e0: 002e 870a b461 e33f 49bb 2470 21e2 f040
000002f0: 5ab3 8936 c0da 34c0 4b64 3961 a0d6 fd3f
00000300: 1703 ad13 526a 3740 1c31 d784 5ed4 e23f
00000310: 609b a896 50e3 eb40 740c 8693 9641 35c0
00000320: cd1d f682 7923 eb3f 22f3 3fac d354 3340
00000330: 1d3d 7df8 aa6d d13f 5af0 5579 dd15 9040
00000340: b747 378a dc58 32c0 1297 6e74 2408 f03f
00000350: b107 4425 4bbe 3340 b698 90ca c509 d43f
00000360: cacb 563c 54e7 5c40 46fd 6752 b595 32c0
00000370: c11c d1a0 c03e ee3f 82ff d714 d098 3440
00000380: 9898 35da 58e0 d53f cb24 55d7 7c9b 8140
00000390: 5a0b 1d5e 197b 33c0 87c5 c9e2 9766 0340
000003a0: 1937 36fc ad9b 3740 baba 63d6 ffae c93f
000003b0: 29eb c855 98e4 6540 919a 0600 2c15 35c0
000003c0: aefa d424 4bdf 0340 4d6b 98b7 8ee1 3740
000003d0: 84fe db22 e3d7 cb3f 85a6 6490 61f3 5b40
000003e0: 0af0 da6f cd49 35c0 f9b7 5516 e08d 0340
000003f0: 0004 4d48 9b17 3840 0fb3 f272 1c5e ce3f
00000400: 7f2b d83d b673 5040 685a 0f29 8187 35c0
00000410: 14db ec74 d4bc 0140 88f0 218c 32cd 3740
00000420: d918 7142 3961 c83f 2062 be39 e804 3240
00000430: 1de4 41c4 367d 35c0 552d e35e d859 0240
00000440: 3984 4a8b 4290 3740 5fcc 81d9 b01e c83f
00000450: d43f f51a 6ac9 5740 9c9c 94ce e82c 35c0
00000460: 6299 a5a4 3cc4 25c0 ba0d a353 455c 3d40
00000470: 6080 1cde 7ec2 1b40 3011 2ec6 2a16 2e40
00000480: 2725 19e5 0963 42c0 ea14 bf46 1b01 dc3f
00000490: 6012 f885 55e7 3440 42ef 794e dec4 f03f
000004a0: 99eb 1a7f fbca 8540 c146 6926 2af1 33c0
000004b0: 3420 5f44 3298 e43f a5d3 f431 9244 3440
000004c0: 414e 3bd7 1378 e13f dbef 61db bf6f 7140
000004d0: 6ded 7450 f059 33c0 1967 68bc fd4b cb3f
000004e0: 8adc b6ed a4a1 3540 7545 4edd 26f7 e83f
000004f0: b90c 8571 65c3 4740 a1d2 c856 3007 35c0
00000500: 4293 00c0 5237 d13f 0b4f 7fcb 87e0 3540
00000510: 3537 e121 68f7 ec3f 9e00 c025 d0c1 4340
00000520: dec7 f7df cc27 35c0 9a22 576a 0303 d73f
00000530: 1921 c5d9 d660 3540 6fe9 4505 e302 f03f
00000540: 6667 760e 2404 5240 7b95 f1b3 b384 34c0
00000550: 0c84 8b6b 8ec7 e83f f9a5 40bc a534 3440
00000560: dcc7 9871 98d8 d43f fcd0 8c4a 8c4f 3c40
00000570: 4d18 0118 b844 33c0 b59c a987 1165 e83f
00000580: fa68 05d9 5b89 3440 66f2 c065 7a70 dc3f
00000590: 1514 d1d6 e089 3840 259a fc57 528d 33c0
000005a0: 777d 9dca e92d e83f 7f21 bdbf f2bf 3440
000005b0: 1d29 8c86 a0d5 e23f df62 3fb6 0cfb 4740
000005c0: 1c05 4eef 2cb3 33c0 54d5 5d37 b862 0140
000005d0: 6cf0 0453 b2e2 3640 cecb 0dac 1fdd d93f
000005e0: 39ab f0d3 8616 e43f 2e1a c10c a182 34c0
000005f0: d9e9 c7cc 47e2 0140 a20c 3859 1373 3740
00000600: 710b 9c05 2d93 df3f 2581 bba5 6376 f93f
00000610: 56d7 9305 a4f7 34c0 8118 cb5e b586 0240
00000620: b718 ae19 3e4f 3740 f6fc f5ff 76dc dc3f
00000630: 9a93 57f7 73aa 4340 acc9 d47f aec4 34c0
00000640: 999a abbd 5d40 0140 c584 7dfc 771a 3740
00000650: ab7e 22f2 868e da3f 2344 bcdc de04 0340
00000660: 70cc e336 4fbd 34c0 4c77 1077 183f 0140
00000670: 9f28 a0db b1d2 3640 a6f4 48c5 baa3 d83f
00000680: 0208 c184 ccff b83f c387 3357 8779 34c0
00000690: a627 41f1 4958 34c0 bf08 f124 efde 3e40
000006a0: cd3e ef7b 0875 2340 650a 82af f259 0040
000006b0: 5430 9b7b fb2c 47c0 6632 8164 e3cd d9bf
000006c0: d3ea 29c9 426e 3440 28f9 4d79 d60e fe3f
000006d0: 0d81 0eb3 d378 2740 b77f f1a2 03e5 33c0
000006e0: 933c 0d28 8e4f f83f e441 91ac 9c67 3440
000006f0: 0604 6c43 261d e73f d575 cd5b 511d 1940
00000700: 1bbe 0231 2f86 32c0 469d d5b1 23e9 c8bf
00000710: bb29 1b49 0dd1 3440 6249 e218 5860 fa3f
00000720: 80ed 8fbd 7834 1840 a2c2 b7cf dc2f 34c0
00000730: aaaa 6416 8098 b7bf 6903 4f5d 2cf2 3440
00000740: f86f 72e7 cc9a fa3f df83 a807 8d2f 1740
00000750: 92d4 2976 ee34 34c0 77b4 644f e30b c6bf
00000760: b8a7 b2b8 c5ed 3440 c5c3 6eb1 306c fc3f
00000770: 8b31 eb48 a6c7 1e40 05fb c5f9 7b36 34c0
00000780: e7bd 5dd1 e1d1 f53f 274a 34e1 eeba 3340
00000790: d3f4 f96e 682e e03f 0e16 9b76 7e53 1140
000007a0: 7186 6222 171d 32c0 0432 bc2d ab99 f53f
000007b0: 2668 1968 f2c9 3340 d25a 3c5b 336f e13f
000007c0: f1ac 19e6 30a8 1340 93b3 d0e7 9a2a 32c0
000007d0: b338 5fc1 6bf5 f53f c6a7 e59f f2dc 3340
000007e0: 790a 760d 3473 e23f 4653 8b97 8f4d 0740
000007f0: 0adc 9913 cf33 32c0 46a2 0f3e 1c5f 0940
