try_energies_noise_scf_features/try_noise_scf_dft_b3lyp_def2-SVP_233.npz (npz, 11980 bytes, 4 tensors)

coords f8 [27, 3]
00000000: 0000 0000 0000 0000 0000 0000 0000 0000
00000010: 0000 0000 0000 0000 3355 739b ad87 9c3f
00000020: 1802 8e4d cb57 7ebf 4ef1 81ec 1ab3 943f
00000030: 6e89 6c96 79b5 c93f cc6d 00fc ffaa c4bf
00000040: c9b2 2a18 7ca9 f8bf 5ff4 7266 25d4 cabf
00000050: 6f14 9154 85be f0bf b82a 363e 4ac6 01c0
00000060: 00bf bf94 e09f ee3f 4cc5 57f4 efd0 ea3f
00000070: dbfc 5c76 ab98 00c0 526b 3b6b f4ab e83f
00000080: 50e7 d621 5a96 f1bf cdaf 34fd d458 e73f
00000090: e09f bc90 5794 fd3f ebb1 47c2 b6de f1bf
000000a0: cb3b d151 6c21 dc3f d18c a962 ad13 d83f
000000b0: 20be 30c6 04b9 00c0 8827 0445 bbea da3f
000000c0: 5767 efc8 e4aa e53f f483 9689 db3e f0bf
000000d0: c59f fb5d 176b 0140 daf9 ebbe 9eb4 f63f
000000e0: b0d5 a8a8 d3cc c3bf 3c54 940d 0417 0840
000000f0: 603b c1f5 acbf f03f d3f0 0799 e27b cebf
00000100: 58a2 1feb 5d3f 1140 bd76 46d5 6f29 f93f
00000110: 74ef dd1e cb4c ac3f 80e5 6c1b 6a55 1440
00000120: b048 e521 8054 ac3f a2dd 9d0a ba14 f4bf
00000130: d980 fa97 b493 1140 094d 2895 d203 cdbf
00000140: 96ba 10cd 3f4a fbbf 54e8 5996 b490 0840
00000150: 38d3 5b2a 758e f3bf 9ada 9919 ac7f 05c0
00000160: 44b7 5951 22a9 0640 a112 bab0 4262 f6bf
00000170: 119f 6008 591c 08c0 8043 eacf 5f61 fd3f
00000180: 573a b054 d431 febf cd05 2663 ebb5 09c0
00000190: 79c4 6c48 0563 0f40 a3e3 8cef 9007 05c0
000001a0: 1b06 be4c 2f51 0fc0 7e05 8567 3c11 0e40
000001b0: 50f8 bd4e cdd0 fabf 662c bbc3 0fe7 05c0
000001c0: 4c01 6b8c fe00 1540 a88f fc87 15a2 01c0
000001d0: 7698 54f1 dc0f 09c0 73cf ce91 0826 1840
000001e0: 06a9 2d9b 57a1 e5bf 6143 4ba8 7e5c fcbf
000001f0: 4b80 b046 dc20 1640 a2a6 f6bd 8891 dabf
00000200: 3cea 09bb ecd2 f6bf 7316 fc9d 211c 1a40
00000210: ab3e 2e49 d1ea 0140 834a 2b23 cc33 e23f
00000220: 513d 24f0 6f42 0540 2e78 3b0c c798 f9bf
00000230: b68c a7ff 9fa2 c63f 9151 598b 0487 f43f
00000240: 918e 8001 ee2a febf 096a 7f05 1ac1 ebbf
00000250: 5840 f165 998a a03f 96f4 7dc7 eff5 d83f
00000260: 1a36 e50a 0567 ef3f 0f88 8049 db9c d73f
00000270: 2a50 76f2 e6c5 ef3f 18a9 7546 486c e43f
00000280: deda 4851 8f1f 08c0
0.0 0.0 0.0 0.027861321080156997 -0.0074079457780276345 0.020214482007291416 0.2008506760112811 -0.16146850399751
-1.5413781112685447 -0.20959918501276584 -1.0465138724696563 -2.2218212948112885 0.957016268277556 0.8380050442048428 -2.07454578849102 0.7709905714394643
-1.0992070505003149 0.7295937486101082 1.8487163213521782 -1.1168735112252033 0.4395399855611088 0.3762010062693664 -2.090341137278088 0.42057687511316333
0.6771110462679911 -1.0153460859803518 2.1772906629957753 1.4190967042810514 -0.15468831763580004 3.0112381993190223 1.0467958068654397 -0.23815567466943452
4.311881707959934 1.5726164179863382 0.055273387449203876 5.083412579080118 0.05533218778386251 -1.2550602354730036 4.394243597664365 -0.22667915614201942
-1.7056272516598816 3.0706569429576493 -1.2222797064434427 -2.687339973457097 2.8325849872116198 -1.3989893821136905 -3.0138416914450166 1.8362730142291355
-1.8871653850689165 -3.213827871892795 3.923349920100517 -2.6286944117423032 -3.9146409984102895 3.758415993449204 -1.6759770465719335 -2.7378230372901724
5.2509710254965505 -2.2041426300001667 -3.132745633501197 6.037142065284445 -0.6759450941874838 -1.772581727407861 5.53209028675344 -0.4151326995002852
-1.4264952951622396 6.527471989165508 2.239656993602542 0.5688229262253376 2.657440067392294 -1.5997992017578428 0.17683792098168788 1.282963318187374
-1.885480886333344 -0.8673219783188993 0.03230742806829373 0.39001078111307075 0.9813256466674745 0.368948766497966 0.9929079757298542 0.638218057266644
-3.0154100752218786

energy f8 []
00000000: c013 6f62 2edb 62c0
-150.84941217131382

noise_sigma f8 []
00000000: 7b14 ae47 e17a 943f
0.02

features f8 [27, 14, 5]
00000000: 0307 7291 f462 31c0 84d1 cd62 143a 4440
00000010: 3a32 9afc 9e3c 2040 17b9 bb74 118c e040
00000020: 198f f3cb fae3 4ac0 4fc0 750b 33cd 04c0
00000030: 1c94 0395 d43f 3840 646f 040f 71f8 ff3f
00000040: 65b4 7759 50c1 2141 6329 fa6d b7d9 39c0
00000050: 1432 e10f 5849 f6bf e99b bc5e 81f3 3840
00000060: a08c d7d4 54eb fb3f 9c2f 3672 6e61 db40
00000070: c5f0 1339 bc78 39c0 159c 37eb 6c5b fa3f
00000080: 9b65 5aa2 4c07 3a40 2d4c 842c 95bc fd3f
00000090: 39a1 ea3f a968 d140 e7c7 422a b173 37c0
000000a0: e8da 402a 6459 e0bf 0276 b4ca 6ac9 3a40
000000b0: 0949 d7b0 dd3e 0140 4e37 f242 f3a0 de40
000000c0: 780a f910 4838 3ac0 8712 5e94 fbd6 ea3f
000000d0: a7c5 be76 19c9 3a40 e31c 1723 1bf1 ff3f
000000e0: 851f 2535 20d7 db40 a521 03c1 d8f2 38c0
000000f0: 7437 abfb 2567 c9bf c3eb d353 8651 3940
00000100: 4a30 3e9b 91d1 f83f ede8 e9b7 2e99 8340
00000110: dc50 f112 c8bd 38c0 4475 603f 085f d9bf
00000120: da98 4615 1c85 3940 0866 5a64 bc1a fb3f
00000130: 377e fa16 c228 6740 1948 2153 c211 39c0
00000140: c239 b1fe 4adb d8bf da1c 843b 2f19 3a40
00000150: 02c7 b29c 9a61 fc3f e781 eae2 b161 8a40
00000160: 2b4c 9992 8f99 39c0 8302 cbc9 b5f8 0940
00000170: da40 7960 924a 3b40 c5fa 78f4 5f62 e63f
00000180: 9f19 8c72 79e4 6440 99fc 6d27 f2b1 37c0
00000190: 4b61 0b60 b738 0a40 2679 3142 6594 3b40
000001a0: cbca cab6 6cf5 e63f 3e04 330b b347 5f40
000001b0: b0e1 54a3 78f1 37c0 851d 339b 1185 0940
000001c0: 60d5 4e91 2794 3b40 abab da26 61c8 e63f
000001d0: 5cb1 f14a f8cb 3f40 dd06 4dd9 6308 38c0
000001e0: d188 6fd5 d10e 0940 4bab e3c8 5257 3b40
000001f0: 1105 3a95 9375 e53f 73ac 8cf8 43c4 4e40
00000200: 15d2 e03f a2df 37c0 3ded e9a2 62a6 0940
00000210: 5440 5353 6757 3b40 01c8 54f6 f183 e63f
00000220: 061e 6036 3a3c 3a40 86af 1c37 8bc8 37c0
00000230: 4e09 282d 9254 01c0 6368 0933 68b8 4240
00000240: 3f0d 841e c17c 1140 c156 9cac c1a9 eb40
00000250: 90a8 f343 e5b5 42c0 073c 33a8 bb4f f03f
00000260: f6bd d13d 590a 3540 7497 73c3 2313 dc3f
00000270: ec89 a16d 4eb2 2541 2497 c73b 37cd 33c0
00000280: 9421 d33f 697a ee3f 2135 b260 26c2 3340
00000290: fe41 44c4 5c0a d33f 36b8 51f9 a712 c140
000002a0: 8a12 2b5d 3ea8 32c0 ecb7 5c1a 5713 0440
000002b0: fe78 f712 9dd6 3640 22a2 4ac8 7d9c e13f
000002c0: d546 d116 d499 d140 1fb4 8a38 c00d 34c0
000002d0: 5150 f18e 475b ff3f 1444 bd76 2516 3740
000002e0: b246 af2b 3ceb e43f e4b6 701a e045 e240
000002f0: dd70 1f0d c4cc 34c0 2387 f67f 6517 0340
00000300: a147 bb61 8bb5 3740 4244 452a d393 e43f
00000310: 1952 3245 7be9 db40 f462 1365 4f00 35c0
00000320: 6aad 805f 0e89 ec3f 3673 193b b058 3340
00000330: 25b9 39b5 dc5d d23f a674 6bb7 c16f 8f40
00000340: a7fa b20e ac4f 32c0 047d 301a 874f f03f
00000350: e197 7775 a0c5 3340 3730 ba96 bd26 d53f
00000360: 7dc5 c0aa 8d40 6240 4f1c a788 5a96 32c0
00000370: a10f a6d6 4b8f f03f 85dc 8de2 a9ad 3440
00000380: 5f67 07bd 7b5d d73f 703f 87eb 328e 9240
00000390: ac6c a92d fa75 33c0 680e 8054 2b8b 0340
000003a0: 585d 42a6 70c1 3740 a241 6def 4e82 cb3f
000003b0: bdae 35cc 7741 5740 64ee c2ec 8834 35c0
000003c0: 5bf3 f970 8727 0440 314b f3df ae10 3840
000003d0: d314 c7e4 1dfc cd3f 9269 ec5f c472 5640
000003e0: 8445 efd3 c16d 35c0 56d9 7c21 f544 0340
000003f0: 51b7 d5be d33b 3840 6a84 faf0 7d27 cf3f
00000400: e20b b9f4 f7ca 3a40 ce21 b59c 0db4 35c0
00000410: 3fa6 035f 60a2 0140 b038 2f4a 01ef 3740
00000420: e55d 8206 249c c93f 2b5c 5259 1b5e 3240
00000430: 5741 481a 19a1 35c0 21ae 8b6e 7ec3 0240
00000440: f346 f53b d3be 3740 5666 d648 8ec9 c93f
00000450: 0ef7 7ade 70fb 5140 abfa dadf 994c 35c0
00000460: 6c46 2fa1 acc5 25c0 16ed e94a 253e 3d40
00000470: d841 2ad7 3fc6 1b40 44a3 bc03 94b9 2840
00000480: 0424 4ed0 1954 42c0 725b 8eac 2a49 db3f
00000490: 5f1a f8f6 f3da 3440 495a 0c74 57ce f03f
000004a0: a711 d8a8 ad74 7e40 a17d a590 5ce7 33c0
000004b0: 3505 53d6 4e7b e43f 467a ae30 9a26 3440
000004c0: 6b0f c023 094d e13f a326 41ef ffc9 6640
000004d0: d5e1 6c95 8b3d 33c0 f29e 7b77 d5c9 ca3f
000004e0: 5caa b96f 2e87 3540 d9a1 e41f e6af e83f
000004f0: 0f96 36e4 a4db 3c40 8020 4b2c dbee 34c0
00000500: 49e9 e129 ec44 d13f fd8f f0dc 58c8 3540
00000510: 01e2 913a 9924 ed3f 2d99 9265 9fc2 2740
00000520: e1c0 5ec7 b20e 35c0 56f6 688a f6c1 d63f
00000530: 2355 89b1 8545 3540 163c cc61 0fce ef3f
00000540: 6274 4c54 5417 5840 f67f d899 456b 34c0
00000550: 44c6 95e8 a8ca e83f 08ce 8f6f 3619 3440
00000560: d680 fc20 e266 d43f a70a 4542 4017 3440
00000570: d926 0964 132a 33c0 fe28 3980 ba64 e83f
00000580: 9af1 d120 1374 3440 4def d33e aeb9 dc3f
00000590: 48ee 38fc 730d 1a40 8e80 52f0 7977 33c0
000005a0: ec2a fb68 c65c e83f 7bf4 9306 8f9e 3440
000005b0: 6fe9 5371 9f78 e23f 41b2 8b44 653b 5140
000005c0: 5bcb 8655 c691 33c0 c4dc add8 4772 0140
000005d0: 41bb 797b 5ac7 3640 7a97 2ded 78ee d93f
000005e0: 3292 a80e 88b1 d43f 7ea4 898e 3465 34c0
000005f0: 7f7a e505 e2cd 0140 846d 4f5a 4653 3740
00000600: d551 b767 9f5d df3f 5703 3099 dd64 f33f
00000610: 8a4f c3da ceda 34c0 95e3 c439 6d78 0240
00000620: 9959 5acc ae2d 3740 8050 d70a 847e dc3f
00000630: b4de 13d3 15ff 3a40 790e 0c1d a4a5 34c0
00000640: 0467 2873 e424 0140 8bc8 53cc 17f5 3640
00000650: 0210 9ffb bf17 da3f 70e9 b0fa 5db5 f93f
00000660: 867d f7bd 4b9c 34c0 10f9 ee2c 1141 0140
00000670: 1070 c504 aeb6 3640 f1dd 6d68 a18c d83f
00000680: 6c23 770d e016 b13f 27b5 569c 725d 34c0
00000690: ce54 8ba9 2a58 34c0 b369 cfe8 9fe9 3e40
000006a0: 9444 414f 0473 2340 c429 0785 7cc4 0040
000006b0: a536 45bf 8432 47c0 f502 1101 e6c6 d8bf
000006c0: 55f1 d3b5 4d6e 3440 0879 d88b a5ec fd3f
000006d0: 628f 555e df41 2f40 9c71 7921 04e2 33c0
000006e0: 18b4 a213 a54d f83f 3943 9f1a 2f74 3440
000006f0: ff9e 39ca ad44 e73f 2618 a197 c4cc 2140
00000700: 8a31 3c12 4292 32c0 c8c9 7214 326a c8bf
00000710: f7eb e4ab 0dd8 3440 052e 123a 961c fa3f
00000720: 4578 c748 1913 1740 1b40 3d5e fd37 34c0
00000730: fb96 e116 7c03 b5bf f0ca d12c 5ffe 3440
00000740: 474b a5ec 1f91 fa3f f908 dd4a 2c98 1c40
00000750: 2e82 83a9 d93e 34c0 c9a2 739c 073b c7bf
00000760: f668 a9e9 39f4 3440 54b6 a1cc 068d fc3f
00000770: 28d9 99fa 99f1 1140 8742 7dc2 473e 34c0
00000780: 0422 d607 f6ad f53f 9b84 55ed 30c2 3340
00000790: e1fc 0c51 ef17 e03f 425e 67a4 5d84 1040
000007a0: 88ee 93cf f126 32c0 ee15 66e9 1e68 f53f
000007b0: eba4 ceff cbd0 3340 cf18 4623 678e e13f
000007c0: 5437 8230 1a8a 1740 282b ab74 1034 32c0
000007d0: 1bec 7112 8ed9 f53f 2aad 5905 64e7 3340
000007e0: df5e 313a 11ae e23f 6b96 f914 f10e f93f
000007f0: eec8 49df 123f 32c0 cf0e 595f 675c 0940
-17.386544313753813 40.45374712991455 8.11840047247198 33888.545499669555 -53.781091207433015 -2.600195016413671 24.249337495206518 1.9981546961416479
581800.1747413991 -25.85045516355002 -1.3929062481212258 24.951192780539632 1.7449539484157768 28037.725720926755 -25.471622054451263 1.6473206699536196
26.02851309496837 1.8585407008111006 17826.64452615494 -23.451922074607776 -0.5109120202312996 26.786785763795713 2.1556962791156633 31363.800961069115
-26.219849644471168 0.8387430093576577 26.785544797492232 1.9963637705530395 28508.503243714124 -24.948619902863033 -0.1984603384830127 25.31845592426158
1.5511642517258388 627.1478117250641 -24.741334136881832 -0.3964253062166174 25.519959764228453 1.6940273208659864 185.2736925976221 -25.069371410012625
-0.3883845793942805 26.098376960519865 1.7738290902165663 844.2118585892575 -25.599846994806438 3.246440483577602 27.291296033480513 0.6995086455206879
167.13982512820527 -23.695101227142548 3.277693510386745 27.579670083120753 0.7174590654525103 125.120302963086 -23.943247040007634 3.1899749875044017
27.578728753801784 0.7119603880758992 31.796757396704706 -24.032773572259305 3.1322361635840044 27.341106944640426 0.6706025995810326 61.53332430714445
-23.87356948126588 3.2062428214682357 27.341420371842403 0.7036065875201986 26.23526325079549 -23.783374256614046 -2.1662944343417285 37.4406799121796
4.3718304412935245 56654.05232064194 -37.42105912587533 1.019466073066498 21.040424216944267 0.43866819464744045 710951.2141230679 -19.80162404654324
0.9524427649094371 19.75839809752245 0.29750746885932233 8741.312296118685 -18.657201598182418 2.509443479494612 22.83833426038563 0.5503529464668342
18023.313892668888 -20.053714307654555 1.9597850402542643 23.086509152610304 0.6537152150360355 37423.00322757455 -20.79986650483703 2.3864240643605554
23.709158046934707 0.6430450273129582 28581.92609842317 -21.00121146891884 0.8917304864202553 19.34643906947459 0.2869788903980342 1005.9695881266568
-18.3112191378556 1.0194159529708609 19.77197965783842 0.3304895374246856 146.01729333544418 -18.58731893615578 1.0349844345773607 20.678373489030964
0.36508077106338094 1187.5497265942067 -19.460848668921855 2.442953739316909 23.75562514419775 0.21491419497261882 93.02293687097968 -21.205214307394627
2.5193013025549766 24.065168377778893 0.23425649328979734 89.7932357605662 -21.428738828578858 2.408670674917782 24.233699729134347 0.243392698922466
26.79284600751624 -21.70333270475549 2.204285375880118 23.933613430527373 0.20007753675302734 18.36760481129401 -21.62928928627056 2.3454559933068286
23.745410678274265 0.20146349483984477 71.9287639809447 -21.29922293754741 -10.886082684536824 29.242756540404194 6.943602907137084 12.362457386757917
-36.657037771372444 0.4263407406919476 20.855285106250786 1.050376370728957 487.29239735032974 -19.903756180193913 0.6400522409459543 20.150790255162313
0.5406537721869261 182.31249201512136 -19.24041112812286 0.20928448042035758 21.528052313641055 0.7714720366394047 28.85798479397459 -20.933031814900914
0.26983169641575394 21.78260594246966 0.910717596430061 11.880122350831323 -21.057415447838938 0.3555885650310747 21.271571250942667 0.9939038190949556
96.36452205148956 -20.419030776363762 0.7747387449910055 20.09848687420711 0.31877949925730087 20.090824262481558 -19.164358379587473 0.7622959617958995
20.45341687322216 0.4488330472520275 6.513137761091976 -19.46670438780034 0.761325078049905 20.619369898912264 0.5772244656975952 68.92805589334695
-19.569432588013438 2.1808010986383994 22.778724400729747 0.40518019830630403 0.32333566123478186 -20.39533320293821 2.225528760972622 23.32529224814563
0.49008927467846536 1.2121253951920232 -20.854718849833752 2.3088020814142944 23.178448459680656 0.44522191103647657 26.99642676577669 -20.64703542274808
2.1430138584809146 22.957394381003308 0.40769958088299074 1.6067790787334069 -20.610530732080882 2.156771040957331 22.71359281368501 0.3835834045234768
0.06675529793495877 -20.365030070465902 -20.34440097476618 30.9125962740306 9.724642254559775 2.095940627366163 -46.39467612151683 -0.3871397982039036
20.430873264545273 1.870275064727652 15.628657291359279 -19.882875530385363 1.5189562575353701 20.453843749887913 0.7271336507519378 8.899937380232654
-18.571320666976625 -0.19074083326775182 20.843958609952065 1.6319792049788486 5.768651139425917 -20.218709840730394 -0.08208442267058651 20.993639756411483
1.660430836102664 7.148606462231549 -20.24550876103074 -0.18148894442790311 20.954008678302635 1.7844303124833418 4.485938945427087 -20.24328246648886
1.3549709611999115 19.75855906808702 0.5029217322370664 4.12926346665296 -18.15212724076858 1.3379201047076736 19.81561278147721 0.5486331643048973
5.88486552996422 -18.203376094617084 1.3656140060909425 19.903869947808893 0.5837484489993264 1.566147882398037 -18.24638171721829 3.170119042306261
