try_energies_noise_scf_features/try_noise_scf_dft_b3lyp_def2-SVP_592.npz (npz, 11973 bytes, 4 tensors)

coords f8 [27, 3]
0.0 0.0 0.0 -0.016452866157601612 0.014203645610482492 -0.016902520416568954 0.1964861345012034 -0.1651643713751728
-1.501882407312754 -0.17579734252081983 -1.0458727789440243 -2.230027489174501 0.932226926054473 0.8068752723165425 -2.0636239121183495 0.7899913194878421
-1.1187894569233587 0.7190479182029661 1.849564113156881 -1.1030760333932175 0.41076010545341207 0.34438445506349386 -2.118524234841078 0.44338138009702405
0.662442920062849 -0.9960638678826867 2.170876143158932 1.4651513723854357 -0.1465290653385506 2.9667912984647513 1.021508473840639 -0.23783039541431927
4.2967117991135675 1.548720258751448 0.038481016774557175 5.126204110633811 0.013084805323766859 -1.2535745794208797 4.355266476078576 -0.21376424303362912
-1.670872868393838 3.0553782182142766 -1.211988403909534 -2.6787064832861294 2.846443814000885 -1.448184998904501 -3.0157165448470997 1.7983171418929653
-1.8864503974903881 -3.157183685452264 3.934491225971194 -2.652520933574423 -3.900732562881762 3.7830873832204426 -1.6371130309987396 -2.7079309335552573
5.23176442702838 -2.20762314579754 -3.145593485327027 6.060784968504138 -0.6831737752788246 -1.7993854574994628 5.522488654330219 -0.45015400658179167
-1.3944353929433442 6.4666641771118005 2.2354271771909637 0.5214764241336355 2.6596984181087473 -1.57236163154262 0.18147892392505396 1.2641582143857764
-1.8532257779802837 -0.8869593818792745 0.006227010908657783 0.37820138396457237 0.9776100203903034 0.3069238821399103 1.0195383664444606 0.6712660961807019
-3.034879373634583
00000000: 0000 0000 0000 0000 0000 0000 0000 0000
00000010: 0000 0000 0000 0000 d119 4a28 05d9 90bf
00000020: c447 0c0b cd16 8d3f 89f4 a2f1 e44e 91bf
00000030: 866a e628 7526 c93f 74a8 c22a 1b24 c5bf
00000040: 5689 ddd8 b507 f8bf 7de1 6cfe 8680 c6bf
00000050: a575 5518 e5bb f0bf db7b f9a6 18d7 01c0
00000060: a758 fb8f cdd4 ed3f e19e 5117 ecd1 e93f
00000070: ca55 ee40 4d82 00c0 985f 2ae0 9b47 e93f
00000080: de86 09c6 8fe6 f1bf 3209 9ec7 7002 e73f
00000090: 23d3 1d8a d097 fd3f ebcd 060e 33a6 f1bf
000000a0: 7121 dbc0 e449 da3f 39e7 ef18 650a d63f
000000b0: 2668 83d5 bcf2 00c0 1703 cb4b 5c60 dc3f
000000c0: ac5f a47e bb32 e53f a611 2955 c1df efbf
000000d0: 1946 b44f f45d 0140 035c c190 4271 f73f
000000e0: 5c71 c5e3 76c1 c2bf 36b5 8713 fdbb 0740
000000f0: fab7 fb44 1958 f03f d04d 26f5 3971 cebf
00000100: d11e c637 d52f 1140 8fd7 dfe4 8ec7 f83f
00000110: b089 20a9 c8b3 a33f 042c 7fa6 3b81 1440
00000120: f455 85d7 34cc 8a3f a85a db37 a40e f4bf
00000130: 987d a0f9 ca6b 1140 e21a 7170 a05c cbbf
00000140: 6967 5830 e5bb fabf e920 a122 6a71 0840
00000150: 54c3 def3 4d64 f3bf 7460 2aaa fd6d 05c0
00000160: 5048 9855 84c5 0640 5da4 8d08 c42b f7bf
00000170: cbfe f0fe 2f20 08c0 7e43 0432 e8c5 fc3f
00000180: 6cf5 ab9c e62e febf 99db 2385 e941 09c0
00000190: d28f 2f89 d679 0f40 a242 2de5 5c38 05c0
000001a0: cc27 2046 b334 0fc0 75bc 6651 c343 0e40
000001b0: 9beb ff6e 9d31 fabf 9892 7bb1 d7a9 05c0
000001c0: 2fda 69a7 53ed 1440 9ebe e852 36a9 01c0
000001d0: 01ec cfea 2c2a 09c0 3141 2f6a 3e3e 1840
000001e0: 43d6 c93f 8fdc e5bf 26bb cd67 48ca fcbf
000001f0: 7284 0b44 0717 1640 93a8 1bc0 52cf dcbf
00000200: a439 917c 9b4f f6bf c6a3 cb36 dddd 1940
00000210: 90ff d4a4 27e2 0140 673f 6953 efaf e03f
00000220: 0200 d8f6 0f47 0540 415f 8fab 6428 f9bf
00000230: bdef 958d b33a c73f 4e1b bcf6 fd39 f43f
00000240: bb78 c812 d0a6 fdbf d4a8 41a4 f861 ecbf
00000250: 35b7 4583 7e81 793f 7881 db93 7334 d83f
00000260: 132f 3acf 9448 ef3f d8be 0911 a4a4 d33f
00000270: ed56 4e76 0750 f03f 814f 4009 037b e53f
00000280: 2486 48d6 6e47 08c0

energy f8 []
21.811839383818324
00000000: c01a b3b4 d4cf 3540

noise_sigma f8 []
0.02
00000000: 7b14 ae47 e17a 943f

features f8 [27, 14, 5]
-19.57702443411851 41.09985698853909 8.676909476857732 29985.969458894746 -56.338426684227144 -2.503710666238874 24.211889874067857 1.960141527676537
527085.8234524853 -25.735529776482466 -1.4512774657117924 25.014629715394168 1.773322360174867 22637.609694608916 -25.57924600101708 0.3315083798595895
26.30836368751867 2.001444955761891 31204.35257128696 -24.97613282977963 0.13399221769489272 26.765409735815027 2.0979124978402894 39748.21845675669
-25.582461269201648 0.6847714638675364 26.965810087350366 2.0250048778705083 41542.00889165652 -25.268536184543482 -0.4034395314702197 25.545747593347247
1.6169369612331062 205.50626410278647 -25.14071864420092 -0.36907672512320605 25.651586325170893 1.7110651133973467 200.36943129365724 -25.165130493595388
-0.39869663386051984 26.247614486793267 1.778494170171057 304.76803014679075 -25.75706403556822 3.152496224552063 27.50373386541859 0.6967881667257771
26.18210523201401 -24.00284355750362 3.1960773707122114 27.74489410503685 0.6986878474656039 30.828014854760124 -24.199472810591843 3.2449011113030095
27.824859647175817 0.720491320307596 171.55324740950448 -24.21971287571926 3.1770284021758513 27.64989864798661 0.6885077675968648 16.686660699653782
-24.128616362012174 3.117288846989727 27.437333618808257 0.6872495070606208 63.154584272466515 -23.976420018288188 0.6243593246695608 37.01937413892464
4.073829674956764 48509.47637917189 -34.35809997677584 1.0583241589287646 20.945233077923596 0.42089837608365976 637220.1920721967 -19.67645973095613
0.9327280473437058 19.727871382227413 0.29889543946371905 7423.361072399359 -18.645695615149393 2.0577920738343884 22.68700597098436 0.5002511275710075
37376.15875606512 -20.379088333363896 2.202811169419264 22.964534896396152 0.6234790069344538 43553.38589320153 -20.449984223507876 2.3807007993970584
23.496833185959776 0.6267164414388745 45026.56719092226 -20.802774165843765 0.8458769809370388 19.30495767548699 0.28812085829485445 513.6522281836185
-18.31502026540238 1.0450535745832117 19.736226997103966 0.33052385368172454 501.8605837690785 -18.52591149567964 1.0120406600717278 20.555191601331927
0.3547169634793746 423.15225260825065 -19.365792459520986 2.232496442572087 23.1936844175483 0.16958969809508567 61.96650135827207 -20.87639312592839
2.342707899848406 23.593598236682553 0.21226188085461867 16.41419384124062 -21.14475939640679 2.4649574326584744 23.74652032086416 0.2547744665354156
107.84171747958332 -21.15417565493801 2.235727270116519 23.43417677683847 0.17982521167181972 18.7104117127047 -21.108536900886342 2.1063744521201113
23.099068227246 0.17292852614438958 35.866030904187994 -20.90622951205334 -10.914122088850462 29.435298298478173 6.9344365831292025 30.029364905885544
-36.88220209576401 0.4307150508371238 20.895217229069125 1.0372560789445884 1425.4823661310916 -19.94587413875989 0.6326412805964842 20.375519225147944
0.552077127303456 540.1794923170602 -19.466839380899685 0.1870897494107009 21.650046567169316 0.7807036569301132 50.86085422547857 -21.072604989293463
0.2535579884883322 21.916772813425634 0.9172874027770322 81.81695555672582 -21.20457112354882 0.35552709385353226 21.45886388077377 0.9871854189798717
83.28653422533922 -20.60974407743029 0.7597663390700797 20.25592892723361 0.3218755101782696 27.452379709393043 -19.335224833074363 0.7467709697286107
20.613609037653674 0.45520183588359087 48.49023183943758 -19.639237149983284 0.7324857069141689 20.82378346487542 0.5848022649236528 47.12012697000385
-19.798896625499438 2.1378793276126156 22.940962777499042 0.404091259013186 0.3291237455100843 -20.601037820379865 2.2278463950921417 23.550930780345947
0.5007068107621551 2.33217156985666 -21.072730979872723 2.296708078268675 23.369362158860227 0.448866344159209 48.12819191646447 -20.84822090851195
2.138700416115739 23.160079218771525 0.4128049532498121 3.7833075351486705 -20.81497632603091 2.119284728148598 22.885858177079726 0.38572129548588313
0.1661297512632071 -20.57371280118819 -20.363250774875617 30.94278754147556 9.727551872216116 2.2944465190087984 -46.44226238024309 -0.40776456058060306
20.473770618392972 1.870144487514335 24.747105812696088 -19.946462935216502 1.510738952894357 20.485640466749093 0.7243581361837785 13.465869522625955
-18.61272244576282 -0.2156856855316972 20.871819200870494 1.6442762164706426 3.8377544403373967 -20.2653667781669 -0.10022626064633383 21.016761656252875
1.661467100142729 6.504351254623656 -20.286254366827833 -0.17855387271285886 20.99001111561156 1.7578115507362906 6.213788492837336 -20.289659212956312
1.346246402416935 19.788023694579557 0.5055312632908443 2.33737997104497 -18.189011660517203 1.3324466496618443 19.851750617762388 0.5500827064316558
5.272448685508792 -18.2442626148847 1.356983953369082 19.919247639524876 0.5730816940191276 2.9611086232213744 -18.275722839146233 3.1501701621406033
00000000: 2b88 91df b793 33c0 b606 221d c88c 4440
00000010: b1e9 02e1 935a 2140 f051 9d0b 7e48 dd40
00000020: b66c ca90 512b 4cc0 8123 3175 9907 04c0
00000030: 9a79 2f6a 3e36 3840 6f6f ce5c bd5c ff3f
00000040: 6c90 9ba5 db15 2041 f439 efad 4bbc 39c0
00000050: 6a76 4ab8 6e38 f7bf f12a e5c5 be03 3940
00000060: 2477 6344 875f fc3f 7689 3c05 671b d640
00000070: 07b5 4677 4994 39c0 5033 76ec 6e37 d53f
00000080: aa2a 31ec f04e 3a40 92ee ad92 f502 0040
00000090: c028 8790 1679 de40 9874 54d7 e3f9 38c0
000000a0: 8a83 7530 a826 c13f 945d 77e4 f1c3 3a40
000000b0: edbf 0059 86c8 0040 3206 99fd 8668 e340
000000c0: 6168 862e 1c95 39c0 9471 51d8 a5e9 e53f
000000d0: 1551 7354 3ff7 3a40 f18d e5c1 3533 0040
000000e0: bf27 d748 c048 e440 2968 92c9 be44 39c0
000000f0: 8400 650a f4d1 d9bf 114c 411d b68b 3940
00000100: 7709 834a f9de f93f 6a93 c650 33b0 6940
00000110: c9c7 1623 0624 39c0 e79c 07fc f39e d7bf
00000120: 3b21 855c cea6 3940 e2e3 f5cf 8560 fb3f
00000130: 0f8c 9361 d20b 6940 8590 f5fd 452a 39c0
00000140: b132 dde2 3e84 d9bf fcca baa9 633f 3a40
00000150: 7c2e 904d b674 fc3f efac fad9 490c 7340
00000160: 48be d9f2 cec1 39c0 77b7 c9f0 4f38 0940
00000170: 4adc ddb3 f480 3b40 da76 8ab2 164c e63f
00000180: 40ee cf72 9e2e 3a40 7b7b fa5a ba00 38c0
00000190: 938e 3503 9191 0940 d01d 4c61 b1be 3b40
000001a0: e746 df9d a65b e63f 03cc 11c8 f8d3 3e40
000001b0: e4ee 6da6 1033 38c0 6367 beb6 8ef5 0940
000001c0: 0569 7800 2ad3 3b40 4cbc 38d0 430e e73f
000001d0: 644d e933 b471 6540 6eb9 5f1a 3f38 38c0
000001e0: a377 eedd 8d6a 0940 2ed1 fec1 5fa6 3b40
000001f0: 29db 1b71 4108 e63f 2376 e0fe c8af 3040
00000200: a292 7c00 ed20 38c0 290d 9022 35f0 0840
00000210: 0939 9618 f56f 3b40 428f a0ad f2fd e53f
00000220: 1d5c dd6a c993 4f40 1eb5 8da9 f6f9 37c0
00000230: b111 0d68 c0fa e33f e588 0eda 7a82 4240
00000240: 8aa7 9d01 9a4b 1040 7888 7f3e afaf e740
00000250: ad79 5438 d62d 41c0 eaa6 3250 e5ee f03f
00000260: 7ec7 84cb faf1 3440 4401 0ebe ffef da3f
00000270: 7749 5762 4872 2341 7d84 0577 2cad 33c0
00000280: a8e6 6c7d e8d8 ed3f 6e5c 66c7 55ba 3340
00000290: e7e4 5a56 1a21 d33f bca2 3d6f 5cff bc40
000002a0: bc3c ce4e 4ca5 32c0 98b1 d8b0 5b76 0040
000002b0: d888 919f dfaf 3640 188c 16a7 0e02 e03f
000002c0: 7799 8714 0540 e240 d417 daee 0b61 34c0
000002d0: a25a 5f76 5b9f 0140 4adf 4bc2 ebf6 3640
000002e0: 4ad5 103f 8af3 e33f 0ab3 3c59 2c44 e540
000002f0: aaae 832a 3273 34c0 79c5 57dc ac0b 0340
00000300: c543 ad75 307f 3740 0d0e 7ba3 0f0e e43f
00000310: b693 6d26 52fc e540 665f 949b 82cd 34c0
00000320: a00a 329a 6c11 eb3f 7ce1 cab4 114e 3340
00000330: 98ff ea77 9270 d23f 5ef1 68c3 370d 8040
00000340: 007b 092b a550 32c0 d571 d618 8ab8 f03f
00000350: 6bfe 5a5f 79bc 3340 ec18 8785 4d27 d53f
00000360: 927a 7cf3 c45d 7f40 d588 c222 a286 32c0
00000370: 68af 138c 5131 f03f 08bc 6a09 218e 3440
00000380: e5bd 5ec7 aeb3 d63f ad52 6ea0 6f72 7a40
00000390: 1bc4 1a93 a45d 33c0 8444 4a18 27dc 0140
000003a0: 611d 4f4d 9531 3740 b648 877f 1db5 c53f
000003b0: b8a8 0651 b6fb 4e40 394d c64c 5be0 34c0
000003c0: 1f70 afa3 ddbd 0240 cc83 d50d f697 3740
000003d0: eaa0 3ab6 652b cb3f 4555 8a9b 086a 3040
000003e0: 1a5b a9f3 0e25 35c0 f466 3a9a 3bb8 0340
000003f0: 37e9 abf4 1bbf 3740 7a07 6890 394e d03f
00000400: 0bd2 fdb2 def5 5a40 53cc 430e 7827 35c0
00000410: 0e68 9ffa c4e2 0140 3434 9135 266f 3740
00000420: 1f39 9035 8304 c73f 15c3 c08a ddb5 3240
00000430: 4eb7 0713 c91b 35c0 e9e2 47d9 dad9 0040
00000440: 2218 0c89 5c19 3740 10f6 2a9e 8522 c63f
00000450: 0868 c519 daee 4140 6bf0 44a8 fee7 34c0
00000460: f053 78cf 07d4 25c0 dcf7 93b5 6f6f 3d40
00000470: 55e7 92f1 dcbc 1b40 b46d 5e75 8407 3e40
00000480: 71e2 8eff eb70 42c0 1c63 4fdc d590 db3f
00000490: eaaa d1f4 2ce5 3440 a64e 8ad4 9998 f03f
000004a0: f216 63f1 ed45 9640 1c1b bcce 24f2 33c0
000004b0: df5d 48ed 983e e43f 9907 2707 2260 3440
000004c0: 456a d4a6 9daa e13f 41fd aa99 6fe1 8040
000004d0: f472 21c9 8277 33c0 c061 9191 8ef2 c73f
000004e0: 89de aa73 69a6 3540 f33c 4c3c 86fb e83f
000004f0: e586 a478 306e 4940 b78a 963d 9612 35c0
00000500: 869a 0c49 4b3a d03f 6786 839f b1ea 3540
00000510: 69b9 7e1c 6b5a ed3f 109b f5ff 4874 5440
00000520: 2159 edc5 5e34 35c0 8d57 3cb6 f4c0 d63f
00000530: 2e3d 711a 7875 3540 5269 33e0 0597 ef3f
00000540: 11c1 a593 56d2 5440 277e 1730 189c 34c0
00000550: 620b 5d7f 0150 e83f 9891 e48e 8441 3440
00000560: bd55 66bd 9b99 d43f 9437 1928 cf73 3b40
00000570: 88dc 6e4b d155 33c0 56c5 923b 8ce5 e73f
00000580: a840 5d7b 159d 3440 66bf 8ce1 0622 dd3f
00000590: d1eb baea bf3e 4840 0391 bd0b a5a3 33c0
000005a0: 437b 7fdd 8570 e73f 20a0 2079 e3d2 3440
000005b0: 8229 4f3d b3b6 e23f 5ec4 0f52 608f 4740
000005c0: a467 3f7d 84cc 33c0 0f20 177a 601a 0140
000005d0: 991c c4ef e2f0 3640 0ce9 8395 a1dc d93f
000005e0: b661 d30a 5d10 d53f ce30 569d dd99 34c0
000005f0: 3c75 7b21 a1d2 0140 13f2 b3cc 098d 3740
00000600: 0e74 234a ca05 e03f 0b90 6991 49a8 0240
00000610: 9af5 5b7f 9e12 35c0 d6fb 247c a85f 0240
00000620: 44af b884 8e5e 3740 aa16 1ce7 39ba dc3f
00000630: ca69 bc97 6810 4840 9dd7 6501 25d9 34c0
00000640: ff44 b9f6 0e1c 0140 9764 a1f3 fa28 3740
00000650: 936c 7577 656b da3f 2b64 b1bd 3644 0e40
00000660: 2651 db49 a2d0 34c0 dc7b 328d 4bf4 0040
00000670: 9c73 fb99 c7e2 3640 41e3 5e5f a8af d83f
00000680: 25b7 485c bd43 c53f 5b66 96d7 de92 34c0
00000690: 6256 b600 fe5c 34c0 bab6 3986 5af1 3e40
000006a0: a39f d2ad 8174 2340 ba82 ccc6 065b 0240
000006b0: 96b2 bd0d 9c38 47c0 0856 0a87 d018 dabf
000006c0: b3cd ff07 4979 3440 32b3 4aa0 1cec fd3f
000006d0: 632e 9853 42bf 3840 8ca1 1965 4bf2 33c0
000006e0: bf97 b79b fc2b f83f 314d 02ef 527c 3440
000006f0: e806 301d f12d e73f 62c3 3773 86ee 2a40
00000700: 9213 d260 db9c 32c0 2c78 c9aa 969b cbbf
00000710: 7dc3 0b8b 2fdf 3440 fb4f f593 f44e fa3f
00000720: 8b9f 9a99 b8b3 0e40 f6ab c113 ef43 34c0
00000730: f426 ad9f 6da8 b9bf d26e ed7d 4a04 3540
00000740: 3de3 a786 5e95 fa3f 7f38 c1a7 7404 1a40
00000750: dcdc 57f7 4749 34c0 b11c f071 dada c6bf
00000760: 663a 545e 71fd 3440 3818 2f01 ff1f fc3f
00000770: 6efd e35e ebda 1840 e9a1 2e1b 274a 34c0
00000780: 73d0 ebaa 398a f53f 3ab1 bceb bbc9 3340
00000790: 5d12 5ee6 4f2d e03f 66b5 2f45 f4b2 0240
000007a0: ea7b 7411 6330 32c0 f465 ff93 b351 f53f
000007b0: 23a3 1754 0cda 3340 1e03 470c 479a e13f
000007c0: d064 c8c9 fc16 1540 b390 a6fe 873e 32c0
000007d0: 04ac 4ece 34b6 f53f 3eaf 34d0 53eb 3340
000007e0: 27f3 b76b af56 e23f 781d c5b7 59b0 0740
000007f0: b2e4 a0c5 9546 32c0 ced4 f969 8c33 0940
