try_energies_noise_scf_features/try_noise_scf_dft_b3lyp_def2-SVP_195.npz (npz, 11970 bytes, 4 tensors)

coords f8 [27, 3]
00000000: 0000 0000 0000 0000 0000 0000 0000 0000
00000010: 0000 0000 0000 0000 7e21 5cd7 16a7 99bf
00000020: 837c 580a 39d5 8e3f 8914 a11c 4db6 813f
00000030: 1919 7999 1af8 ca3f bce6 2f35 07c7 c5bf
00000040: 2caa de31 0c0e f8bf 6ee0 15ef c9db c5bf
00000050: 6c10 b68d 98c1 f0bf 8f8b 02f6 76c9 01c0
00000060: 7912 96e7 bb7b ef3f f90e 97af 3e6f e93f
00000070: 1e15 9936 bacc 00c0 5684 82c4 dfc4 e73f
00000080: 42dd cf4d 5e2e f2bf c307 357a e6de e73f
00000090: b7b1 61e8 d01f fd3f 4f59 7465 07e1 f1bf
000000a0: 85ba 137d 1c6b d83f b3ed 0698 3d28 d83f
000000b0: c943 9310 e3d7 00c0 f955 232d b308 dd3f
000000c0: fb76 efe4 59b2 e53f 2640 d43f e485 efbf
000000d0: 88ba e312 cbd3 0140 1a7b 79d3 06a7 f73f
000000e0: 0f71 4f70 7c01 c2bf a5f6 21ec 760b 0840
000000f0: 65c9 ef53 2d73 f03f 3c2a c313 7cfc cebf
00000100: 6f88 41fc 5e69 1140 09fd bcf5 adf9 f83f
00000110: 85b7 8c59 d106 a03f 4dc6 19c8 8656 1440
00000120: b877 165e cc1e b53f 521b 59a5 0f45 f4bf
00000130: 0851 5bec 9792 1140 7718 5645 aac9 cabf
00000140: 494b 9618 6c6a fbbf 4e1a c543 9ac6 0840
00000150: 8251 c238 8cc2 f2bf 4df7 ad96 9851 05c0
00000160: 32e0 4158 375a 0640 a396 bcbe 0325 f7bf
00000170: a0e2 da19 08c9 07c0 577a 44f1 e1f9 fc3f
00000180: 1149 ca8f f00c febf c055 55f1 823d 09c0
00000190: 507b 0a2b 1840 0f40 f5b5 3afe 0550 05c0
000001a0: ee8b d548 1062 0fc0 cfdb 55fa 114d 0e40
000001b0: 702f 2102 3910 fabf 4d5b 9d92 94af 05c0
000001c0: 3952 b8e8 eff5 1440 36da 8b87 c789 01c0
000001d0: 5080 0bb6 1762 09c0 ff37 3199 2c52 1840
000001e0: aff0 cf5d 378b e5bf 4d09 3383 e053 fcbf
000001f0: 869c 56cb 9bdd 1540 3a74 ceef fc7e debf
00000200: dce4 5927 0825 f7bf 3ee4 1682 de0e 1a40
00000210: 39d8 00c1 1ee4 0140 cbce 7534 435c e13f
00000220: eafd 2b3a f731 0540 a009 48ac 6062 f9bf
00000230: 842e 5ce9 08d2 c73f 90d3 3713 37be f33f
00000240: 1cc7 5d66 0aaf fdbf 8bf8 e3f1 7223 eabf
00000250: 9d39 d4b4 d67e a13f b8c9 0c5d a6a8 d83f
00000260: b529 190f 0271 ef3f 9c76 b91f 01f3 d53f
00000270: 9bc1 6793 bc22 f03f bb90 9c9b d750 e43f
00000280: 9ef8 bb0c 9a15 08c0
0.0 0.0 0.0 -0.02505145730450086 0.015055127742981128 0.008648493229097791 0.21069653028298133 -0.17013635727908205
-1.5034295986212198 -0.17076992200941582 -1.0472646270364079 -2.2233714313055724 0.9838542483490321 0.7948296956533049 -2.099964548632342 0.7427824819643642
-1.1363204040079187 0.7459595095499413 1.8202675893217994 -1.1174386942926338 0.38153755392605887 0.3774560913695623 -2.1054135603849073 0.45365600021372604
0.6780213805575096 -0.9850941893255409 2.2284146762606873 1.4782779942249307 -0.14067035182859697 3.0055979202141594 1.0281193999076887 -0.24208022084197178
4.352901402950109 1.5609569167280049 0.031302015477520796 5.084498526166112 0.08250119492592389 -1.2668606242093188 4.393157666276473 -0.20927933106958438
-1.7134819946702058 3.096973924114798 -1.1724970070982583 -2.6648418208923546 2.7940508742431343 -1.4465367746974287 -2.9731599826739767 1.8110064911376378
-1.8781591049960904 -3.1550349096457637 3.9062960970472105 -2.664073930899344 -3.922882622734952 3.787631946320722 -1.6289606173695255 -2.7107325987121045
5.240172992944786 -2.1922751035265504 -3.172896787858953 6.080248254422258 -0.6732441742201639 -1.7704777836775805 5.466414620553342 -0.47650073450660424
-1.4465409791139825 6.514520676276389 2.2363867834456213 0.5425125145543118 2.6493973297763107 -1.5865179757825913 0.1860972537473239 1.2339392424302993
-1.8552345274624207 -0.8168272709297225 0.034170827459195176 0.38529357039365264 0.982544927109578 0.34295681093304053 1.0084806211490107 0.6348684348381747
-3.010547732817101

energy f8 []
00000000: 80db 8f60 815d 4bc0
-54.730510778658754

noise_sigma f8 []
00000000: 7b14 ae47 e17a 943f
0.02

features f8 [27, 14, 5]
00000000: 89f4 056b d4c8 32c0 edb0 be08 7661 4440
00000010: 08db 2899 8bd8 2040 3e95 4ab7 8dbb dc40
00000020: f28f 1ccb ceaa 4bc0 c8df 0c12 bce4 03c0
00000030: fe76 67e4 da25 3840 9849 b2fb 7562 ff3f
00000040: fb9c 9c67 27f0 1e41 ce7c cbb6 5ea7 39c0
00000050: fa16 62f8 18ab f7bf cd52 aa45 94ef 3840
00000060: c325 e68c d689 fc3f 8816 4203 a5d9 d340
00000070: 3a43 c920 f785 39c0 9d7e 6c81 abec f93f
00000080: 7bc2 0bf8 7a0e 3a40 8ed5 c006 08cc fd3f
00000090: 8aec 9c75 41a4 d740 aef1 beff 4f81 37c0
000000a0: 24d1 92cd e4ef c23f e7d8 17d4 78aa 3a40
000000b0: 0465 e769 cea4 0040 5cbb db95 9b11 de40
000000c0: 243d de23 4c7a 39c0 bb9b c900 81f3 d6bf
000000d0: 94cf 53b1 8a07 3b40 e15c 12ff 55f5 0040
000000e0: a9b2 ed29 335e e240 f4d0 6555 0354 3ac0
000000f0: c179 8edc 2ba2 cbbf 50b9 4497 9b5f 3940
00000100: 0e30 9592 7a2f f93f 43c9 8675 6aca 6140
00000110: af2c 691a 64cd 38c0 866e e5ad dcff d7bf
00000120: 854a 5241 c398 3940 512f 8255 1378 fb3f
00000130: 2f15 cb78 0433 5940 a3ce 5d19 021d 39c0
00000140: e151 7486 e36d e3bf 06b4 45c8 873e 3a40
00000150: fe78 c2cc 2b4c fd3f d7a1 fe32 b771 7a40
00000160: 1943 1386 95ef 39c0 06ce c89b f920 0940
00000170: f70e 2de7 d965 3b40 3c58 3b1b c519 e63f
00000180: 0df3 4ac7 1acc 4140 cf07 479f 53e9 37c0
00000190: 09ee 5db0 e61a 0940 ff54 7d94 989d 3b40
000001a0: 8cd9 2e54 ae80 e63f b35b f305 98a8 4440
000001b0: 1fdc 2005 3920 38c0 c416 726e bc1a 0940
000001c0: 3482 e17a 2cb0 3b40 3c8d c614 4d02 e73f
000001d0: 48ae 76cf f571 3140 6e25 c0b8 cb30 38c0
000001e0: 3918 3036 bbf0 0840 f3ae 2998 6e80 3b40
000001f0: 50ba 7596 75b4 e53f 02c5 5f6b 7920 4140
00000200: 26d5 095b 850b 38c0 4be1 5349 43d5 0840
00000210: 18fd 4b60 a54b 3b40 0058 7b3c 519b e53f
00000220: c6bf 6c5a acfc 5440 e292 2fb2 8fda 37c0
00000230: 9e6c fc4f ecfb e5bf 55e4 93b2 5578 4240
00000240: ccfa bb6e b8ac 1040 32a8 1c64 df92 e640
00000250: 5315 e8dc 79c5 41c0 4625 2441 96fe f03f
00000260: 2466 5c01 b8e8 3440 0c19 13d5 dbeb da3f
00000270: 148c 2ee0 99d8 2141 d3ea 9fe5 f6a2 33c0
00000280: 2bed d5d6 63c3 ed3f 2347 5dfb 6ca8 3340
00000290: fabe ba5e 8be4 d23f 8883 e045 c04c b340
000002a0: 9021 e9c5 8894 32c0 3be8 209c 9681 0440
000002b0: 2e8c 5f1e caab 3640 64bf cf09 1065 e03f
000002c0: 2943 a258 47a0 dc40 d62f b40a 03da 33c0
000002d0: ffc4 8a6b 3e5f 0140 f2ee 7924 b4fe 3640
000002e0: 71a5 fdd6 4361 e43f 2560 6474 0bc1 df40
000002f0: e79e ac47 4781 34c0 9e53 9539 6a19 fe3f
00000300: a615 31eb a68b 3740 64a2 90a8 e7fd e33f
00000310: 4c39 0909 ab00 e240 b37a f5a8 185a 35c0
00000320: 0a04 fc08 855b ec3f 9927 dce9 a53f 3340
00000330: 2a92 e348 e290 d23f c42d c42e 93d5 7c40
00000340: fd7f 02fd a737 32c0 ff17 4c17 dd5e f03f
00000350: 061b 8592 f0b6 3340 1319 c9f9 4427 d53f
00000360: 3c2d 4fe6 44a0 8540 4fc7 1c37 b486 32c0
00000370: 8c0f 7d6a c2a5 ee3f ed94 5ba8 be88 3440
00000380: 5442 e13a 239e d63f f1c9 7758 1064 8a40
00000390: b6ea 914e 5466 33c0 d500 33b0 fe3a 0240
000003a0: 9fda 6498 ee10 3740 c00f ca5d cddc c53f
000003b0: 85f4 5c46 9a30 5540 6db0 00f5 b1b3 34c0
000003c0: bf1b 7f57 c805 0240 0b65 acc1 b56e 3740
000003d0: 3cce a58e 3555 ca3f 301e a583 9597 3740
000003e0: 9edb 2d81 a713 35c0 85ef c9fc 682a 0240
000003f0: 78d9 1bb3 049a 3740 7f7f e011 4568 cc3f
00000400: e7d6 1d0c 6253 4040 10bb 704e 4f38 35c0
00000410: e499 3134 a733 0140 49ea 4deb e54c 3740
00000420: edbc 7984 d06d c53f 2b07 940b 1f3b 2440
00000430: 403d 4334 0311 35c0 d612 a536 cd07 0140
00000440: 2416 10ea 17f4 3640 54d4 c690 c8b9 c63f
00000450: ef2b 121a 72d5 4140 d8ac aa7a 64bc 34c0
00000460: 965a 47fe 05ce 25c0 142c abfc be57 3d40
00000470: 2240 eba4 84c7 1b40 b7ea a07d 7336 2840
00000480: b4b8 98b3 e862 42c0 5b55 41c0 cc35 db3f
00000490: bf9e 9f34 10e2 3440 ea5e b1fd 9ba2 f03f
000004a0: 2837 011d 0489 7d40 990e b121 24f0 33c0
000004b0: 98e6 1ad3 ab6c e43f 8989 4cc2 744a 3440
000004c0: 44bd 53fb 038c e13f ba59 2fd1 4449 6440
000004d0: 9c63 c653 df60 33c0 45ee 270d df18 ca3f
000004e0: 5118 4024 0299 3540 d10f 5fba 32e6 e83f
000004f0: 6e7d de54 6214 3b40 2d4c 3c9b 3701 35c0
00000500: 8865 38b5 6813 d13f d751 7c53 22d5 3540
00000510: 641d bba5 2e0d ed3f aa62 e6b6 20f0 3440
00000520: c583 10f6 9f1c 35c0 02f1 df33 a4ea d63f
00000530: d75d 04b8 8e60 3540 f1c2 0077 6063 ef3f
00000540: f816 f469 910b 6140 d8da 58a5 5687 34c0
00000550: 6713 95cb 5da2 e83f 71c4 f867 0335 3440
00000560: 49ab 05e7 2898 d43f ef9b a4a6 10bf 2e40
00000570: 7510 ce27 c046 33c0 fce9 a364 8c59 e83f
00000580: 839e 0155 1587 3440 8652 f436 b774 dc3f
00000590: e5d7 9cf6 570e 2a40 8f96 6e83 5f8b 33c0
000005a0: 52af 0b8e bfee e73f 7e22 fbea 00c2 3440
000005b0: 821f 63c6 98a5 e23f c221 2acc 32ca 5b40
000005c0: af38 718b f4b7 33c0 5ae4 e1b4 8039 0140
000005d0: 1c8a 56ee a5d7 3640 3a84 1e54 7a99 d93f
000005e0: 8c62 e6d2 85dd ce3f 8f10 12e3 427d 34c0
000005f0: 7973 34a8 edcb 0140 114b fa84 a370 3740
00000600: d02c d8d7 336a df3f 9a87 682a e7b2 0040
00000610: 420c 4468 51f8 34c0 1f05 d98b f872 0240
00000620: 7d45 f23b 0e4c 3740 0700 aaa8 7df7 db3f
00000630: 7d35 6cd5 c564 4240 dad0 252f c0c5 34c0
00000640: 7d18 805e 352f 0140 14a0 00c2 af15 3740
00000650: 67c1 b7a1 1832 da3f c476 2f0e 10fd 0440
00000660: 7e2d ede4 64bb 34c0 e99e 05c5 c605 0140
00000670: 07bd f6a0 cdc7 3640 fdf3 64ba d959 d83f
00000680: 2a0f dafe 59d9 b83f 453f e114 6176 34c0
00000690: 0bd0 0e63 b05a 34c0 6840 addf acef 3e40
000006a0: 3e80 9676 cc73 2340 63ae e47b b76e 0240
000006b0: 2938 8b12 b536 47c0 2e25 9084 8a6c d9bf
000006c0: 8586 b704 7376 3440 c10b 5153 baee fd3f
000006d0: a4df 096b 190c 3b40 c13e 2f5c afec 33c0
000006e0: e995 cf4d 5330 f83f 8be1 1c83 b479 3440
000006f0: d0e6 2d9e 2139 e73f dc3a 127d 4585 2e40
00000700: 7830 c7c7 ca99 32c0 e5c5 5ca7 1095 cabf
00000710: baea 5a63 a8dd 3440 5455 923a 5059 fa3f
00000720: 631d 8f26 89ba 1640 a311 d502 0840 34c0
00000730: a875 1fa4 2e8b b7bf e3d5 e768 bf02 3540
00000740: c448 cf2a 5989 fa3f 6ce4 a73c 4239 2540
00000750: 177b 35ce ff45 34c0 4930 0d69 5144 c6bf
00000760: 2399 a15f d3fb 3440 b658 9c39 eb2d fc3f
00000770: 8e4e b22d bedd 0540 c3d0 a6a8 ec46 34c0
00000780: 4bc1 e111 449e f53f e1e7 5e1f 94c8 3340
00000790: c2f7 43da 273a e03f 5d01 6baf 7e26 0b40
000007a0: f1bb d73e c72d 32c0 4e2d 56a5 795f f53f
000007b0: 4d19 3193 b1d7 3340 f23a 83f9 9e99 e13f
000007c0: 8e40 4952 bbea 1e40 93a9 f57c 533b 32c0
000007d0: 45fe a4ef 35c5 f53f 03ff bd61 e9ea 3340
000007e0: df7b 84de f570 e23f f6b8 84f0 eaee f03f
000007f0: 249d 492b d244 32c0 23f7 050c e343 0940
-18.784491242364798 40.76141461669054 8.422940050351386 29422.21431221556 -55.33443583387988 -2.4866868410281064 24.147871279964413 1.9615382987873087
506889.85118336946 -25.653788971595354 -1.4792718603579815 24.935856203158256 1.7836518768184397 20326.57832386208 -25.523302125107172 1.620280747949358
26.056563856955545 1.86231234205238 24209.022803526874 -23.505126937977984 0.14794597661751496 26.66590619642457 2.080471827863791 30790.431021626442
-25.477724305875327 -0.3586122996989009 27.029460032426485 2.1197929313162693 37617.598868226 -26.32817586646793 -0.2158865763603455 25.373467878607073
1.574091503704952 142.32549549413133 -24.80230870311487 -0.37499157888462553 25.596729357328986 1.7168153133561257 100.79714793999004 -25.11331327953543
-0.6071641565382003 26.244259373681437 1.8310964582847755 423.10722636666964 -25.93587530107752 3.141101090493751 27.397856186390495 0.6906457454558743
35.59456721458091 -23.911432223168784 3.1381353167214496 27.61560943660606 0.703208126468597 41.31713938124394 -24.125870056650566 3.1380547169272592
27.688178710990726 0.7190308957837384 17.445157019114305 -24.190608546171852 3.117544577925426 27.501687536408053 0.6782787264508645 34.253705426943284
-24.04500359525732 3.104132244942013 27.295492189933697 0.6752096349034673 83.94801960582762 -23.853755127539337 -0.6870023309924311 36.94011528226171
4.1686723043664635 46230.98097069598 -35.54278146106903 1.062155012567318 20.90905769830546 0.42064567382875917 584780.9378551268 -19.636579848806672
0.9301013179787437 19.657912931702537 0.29519924403119513 4940.75106623851 -18.580211991707586 2.563275546793219 22.671052835776372 0.5123367492324005
29313.114784780108 -19.851608914366658 2.1715057756160827 22.99493625618829 0.636873168853681 32516.178979009524 -20.504993896144608 1.8812048196170745
23.545515727504288 0.6247442524227833 36869.34485303107 -21.351938781672924 0.8861718345143583 19.2486253893363 0.29009301298200063 461.34843327171643
-18.21740704833063 1.0231600675629122 19.71460834264419 0.33052181618804005 692.0336424050979 -18.52618736698724 0.9577343063215138 20.534159204825233
0.3534019541739657 844.507981239176 -19.399723921417454 2.2788060918393094 23.06614067518478 0.1708008487659054 84.75941618993427 -20.70193415896249
2.2528235278764153 23.432460884655523 0.20572537865847262 23.59212515622329 -21.076774667449733 2.270708060181223 23.60163421087188 0.22193206189058043
32.65142966706281 -21.219960119745394 2.1502212598454538 23.300383287927875 0.1674137732365816 10.115471231288742 -21.066455141464075 2.128809382355352
22.953489903380742 0.1775446612279291 35.667544611809596 -20.735908190411322 -10.902389475069224 29.342757980146487 6.944841935022881 12.10634987439458
-36.77272648770432 0.42515867972300264 20.88305977723098 1.0396995458485727 472.5635042235831 -19.938051324583828 0.638265526117908 20.290844100652553
0.5483417423946908 162.28965052841323 -19.378407703337515 0.20388401167280015 21.597688928268614 0.7781003608765734 27.079625419920767 -21.004754736157498
0.2668096322755322 21.832555024959074 0.9078591572696664 20.93799918293613 -21.111815814048686 0.35807137552161816 21.377177716318183 0.9808809589650008
136.36150071786665 -20.528665861313897 0.7698201156823473 20.20708322356626 0.3217870956493028 15.37317391166104 -19.276369560059226 0.7609312024717947
20.527669251342115 0.4446237599052342 13.028014856954494 -19.544426168917706 0.7478940748528464 20.75782650595874 0.5827144503355017 111.159350434441
-19.71857520593829 2.15307751955383 22.842375656249814 0.3999925443150151 0.24113533780907337 -20.4893018645385 2.2245743886000438 23.43999510870623
0.49085708693082797 2.0873549760007792 -20.96999217664075 2.306138126907754 23.29709219612913 0.436980642996787 36.78728740485801 -20.772463747722988
2.1480510123101895 23.084713101532614 0.4093076304698315 2.6235657795176355 -20.732008273987496 2.1278205292072596 22.780481395949234 0.3804840393311791
0.09706652137725472 -20.462418847076396 -20.354253951183676 30.936231593892813 9.726169305679033 2.304060905376717 -46.42740089223691 -0.39724982209789317
20.46269254189112 1.8707831625513196 27.04726284972243 -19.92455078271337 1.5117981948363826 20.475410646964104 0.7257240380706325 15.260295780635197
-18.600750433092315 -0.20767410442344594 20.865850648590573 1.6468050277665798 5.682163813099893 -20.250122239130757 -0.09196750170618506 21.0107331815724
1.6585323021177354 10.611833472723639 -20.273434532219735 -0.17395990018337873 20.983694054558452 1.761210656206044 2.7332728929557737 -20.277048626638827
1.351139135218619 19.78351017062221 0.5070990813253433 3.3937963203936037 -18.178821494740934 1.3358093698942244 19.842553328978557 0.550002562836964
7.729230199547727 -18.231742677665874 1.3606471406091185 19.91762362373903 0.5762891145749299 1.0583295245410773 -18.268831925842406 3.158147901470231
