try_energies_noise_scf_features/try_noise_scf_dft_b3lyp_def2-SVP_302.npz (npz, 11967 bytes, 4 tensors)

coords f8 [27, 3]
000000 00 00 00 00 00 00 00 00 00 00 00 00 00 00 00 00
       0.0 0.0
000010 00 00 00 00 00 00 00 00 cd 0f a8 cd 5d 2c 70 bf
       0.0 -0.003948561114615457
000020 3f d8 b1 72 82 ee 81 bf f1 38 49 07 5c c3 a1 3f
       -0.00875570213814225 0.034693599595458376
000030 21 99 48 98 c0 d5 cd 3f bf 53 d7 7d db 19 c3 bf
       0.2330857032367897 -0.1492266048868753
000040 23 b6 6a 02 38 40 f7 bf 44 02 a3 6e 7e 92 c3 bf
       -1.4531784147651556 -0.15290813829598637
000050 5e ba 54 07 d5 9d f0 bf b4 28 53 ec 94 3e 02 c0
       -1.0385332380643812 -2.2805574858549225
000060 14 87 4f 10 82 6a ed 3f 91 bc 56 ed 3b 1a ea 3f
       0.9192514723365286 0.8157024035953261
000070 13 28 e7 15 4e df 00 c0 b0 f4 21 87 40 09 e9 3f
       -2.1090356551330927 0.7823794020947812
000080 e0 fc 34 32 b2 15 f2 bf 97 bb 05 bc aa 4d e7 3f
       -1.130296894188909 0.728230826598394
000090 56 5c b5 ea 96 fc fc 3f 08 2d 72 72 76 38 f1 bf
       1.8116673630045361 -1.076284834913908
0000a0 1b 44 28 4f 67 6e d9 3f db 4f aa 40 fa 47 d8 3f
       0.39736349802211784 0.3793931609627614
0000b0 22 96 7c 89 db b1 00 c0 b9 55 f8 2b 7d ad dc 3f
       -2.086844514956071 0.44808892530394534
0000c0 b3 57 b6 03 98 04 e5 3f 43 59 e9 9a d7 cb ee bf
       0.6568107674126992 -0.9623830819717017
0000d0 cd 03 20 80 31 61 01 40 36 ca 68 ec c6 8f f7 3f
       2.172457695939079 1.4726018175830524
0000e0 f7 df da 08 ab 83 c2 bf 2c b2 22 a4 cf aa 07 40
       -0.14464319164630954 2.958403856571996
0000f0 59 8e 5d 19 e2 6f f0 3f e6 3c f5 fe 78 a1 cd bf
       1.027315234264185 -0.23149025391692318
000100 e1 63 06 d8 32 46 11 40 25 1f 4d f8 0b 05 f9 3f
       4.318553328886055 1.5637321185367423
000110 76 f3 0e e3 2e 65 a0 3f 3a 66 24 14 bc 68 14 40
       0.032021966187563075 5.102279963227881
000120 f1 12 44 f6 ae 1b a3 3f a1 cd af f7 db 9e f3 bf
       0.037320582925564845 -1.2262839961302705
000130 ce de 44 8e a9 7a 11 40 98 29 47 db 92 f9 cb bf
       4.369787428811561 -0.21855388361866512
000140 7c cb 18 bb fb 23 fb bf ad 80 79 8b f1 7a 08 40
       -1.6962849911185165 3.060031022687403
000150 2a 04 21 ac c3 f6 f2 bf 93 b1 64 1e ff 87 05 c0
       -1.1852452014720805 -2.691404569099356
000160 56 d5 29 d4 af bd 06 40 35 df 71 8c af 7d f6 bf
       2.8426205230013393 -1.4056849943280671
000170 cc 1e 51 73 5c 10 08 c0 2b 3e 46 90 01 50 fc 3f
       -3.007988835251899 1.7695327411382873
000180 d1 10 8e e8 61 d8 fe bf e9 1e b9 f3 4a 82 09 c0
       -1.9278277477433685 -3.188619522177636
000190 16 8d d0 a2 e6 7c 0f 40 32 39 e3 a5 92 53 05 c0
       3.93598677824924 -2.665807052609261
0001a0 0e a8 ba ab a7 8b 0f c0 b4 e5 9b 58 d6 e7 0d 40
       -3.94319090045338 3.7382018015457223
0001b0 d1 79 9b a1 eb 6e fa bf ba 9f 5c 30 07 25 06 c0
       -1.6520801842485648 -2.7680801180140095
0001c0 1d 4c 76 7b dc ea 14 40 52 b6 2e 76 ca 95 01 c0
       5.2293566981270745 -2.198140071201842
0001d0 78 79 ad 91 84 68 09 c0 f9 9e 33 fc a7 4c 18 40
       -3.17603410540249 6.074859562540717
0001e0 0b c1 31 ff 8e 3b e5 bf 15 dc a3 5f 92 91 fc bf
       -0.6635203346504864 -1.785539983362246
0001f0 ff 1a 19 23 93 d6 15 40 af 46 cc 08 c6 18 dd bf
       5.459545658500018 -0.45463705882239486
000200 d0 79 98 1e 48 16 f7 bf 21 92 68 cb 63 20 1a 40
       -1.4429398722783056 6.531630686051842
000210 ff 90 4a 94 ff de 01 40 eb 79 6c f6 e9 39 e0 3f
       2.233885916257463 0.5070695698703366
000220 02 3b 0f 9a 1b 54 05 40 3f b6 8c 53 f9 e5 f9 bf
       2.6660682712457637 -1.6186459792765076
000230 3c ce 0b 92 40 4f c5 3f be ca a0 06 6c 25 f4 3f
       0.16648108607442846 1.2591362246427447
000240 9f b5 ed 1c 1e 65 fe bf ea 44 54 f7 60 5a eb bf
       -1.8996869211217484 -0.8547825651786785
000250 48 e0 3b 6c 95 70 75 bf 49 69 69 6c eb be d8 3f
       -0.005234321291702378 0.3866528090199109
000260 cc 5b 98 f9 16 f4 ef 3f 99 e7 49 ea 67 f5 d6 3f
       0.9985461115746772 0.3587283885932436
000270 10 b1 fb 65 49 29 f0 3f 33 85 c1 38 3f 65 e5 3f
       1.0100797637670134 0.6686092480196407
000280 8a 82 16 35 9e 46 08 c0
       -3.034481444119881

energy f8 []
000000 78 66 f6 37 ea 87 64 c0
       -164.24734113812497

noise_sigma f8 []
000000 7b 14 ae 47 e1 7a 94 3f
       0.02

features f8 [27, 14, 5]
000000 40 af d7 da f2 8c 31 c0 f3 60 4c 36 29 3c 44 40
       -17.550580670983663 40.47000769357137
000010 9f 4b 2a db 02 2d 20 40 1b 78 b3 23 2b eb df 40
       8.087912415421497 32684.67405401925
000020 ad ee 52 48 02 fd 4a c0 6c dd 40 2a 79 88 03 c0
       -53.97663215684347 -2.4416373539967733
000030 f8 8b 61 73 4a 30 38 40 92 fe 66 30 e7 7c ff 3f
       24.188636027636647 1.9679939165797902
000040 1c 44 57 4a 31 1e 21 41 69 87 26 5f 72 a5 39 c0
       560920.6451970371 -25.646276423365098
000050 1d 69 3a b4 a2 c8 f6 bf 46 a8 2f 2c 50 fc 38 40
       -1.4239832916414976 24.985598336825454
000060 47 c1 f3 c0 cd 4a fc 3f 33 25 f3 85 cd 6a da 40
       1.7682626282877025 27051.21130064614
000070 41 b0 6b e9 83 86 39 c0 08 e7 c4 fd 86 e9 e7 bf
       -25.5254503143226 -0.747256751673576
000080 09 39 6d c9 88 79 3a 40 dc 44 a2 c9 13 b8 00 40
       26.474743451276513 2.0898814919133724
000090 5b 65 bf 40 5a 12 d5 40 1f 3a c1 c4 53 2d 3a c0
       21577.410201882343 -26.17705945699174
0000a0 f8 71 b7 eb be fc dd bf b5 c9 63 cf 46 c8 3a 40
       -0.46855137843320405 26.78233047662953
0000b0 f4 c2 3b ab 36 11 01 40 79 a7 92 75 25 57 d8 40
       2.1334050538647436 24924.585301078365
0000c0 5a ee 5e 60 26 2f 3a c0 3b ed 39 27 e6 e1 0c 40
       -26.184179328133133 3.6103022636940785
0000d0 fc 13 7d ff 19 9e 3a 40 31 e8 bc 03 8a 0e fc 3f
       26.617584198032986 1.7535495897304936
0000e0 28 a6 8e ed 5d d5 d5 40 6f ef 77 ea 68 21 36 c0
       22357.467624342215 -22.130507139473988
0000f0 1f 69 c3 93 77 15 e3 bf 7b ea 54 1b ff 92 39 40
       -0.5963704954149626 25.57420512030738
000100 85 d2 f9 0f e3 06 fa 3f dc d6 44 9e 4f 75 61 40
       1.6266813873345722 139.66596902318167
000110 24 37 73 bf 73 5b 39 c0 4e 66 7d dc ca af da bf
       -25.357234922055014 -0.4169795182438961
000120 04 62 f9 22 9f a1 39 40 7a 6d 9f 70 0a 74 fb 3f
       25.631334482082835 1.715830268795655
000130 0a 5a c1 58 8f e9 5d 40 60 5c e6 fa bd 30 39 c0
       119.64937418825153 -25.19039886592907
000140 5c 21 65 72 8e 86 aa 3f b5 25 c2 b3 a4 ea 39 40
       0.05180783411430198 25.916575655841104
000150 84 e9 fd 38 67 1f fb 3f 7a 2d ff df a3 20 95 40
       1.695166800140755 1352.1600341674334
000160 d6 03 c1 32 66 04 39 c0 19 d9 95 38 c5 9d 09 40
       -25.017184421656417 3.2020363255243294
000170 85 a8 51 f0 6d 80 3b 40 71 43 75 3d bd 76 e7 3f
       27.50167753213511 0.7332445335724583
000180 2e 1d e2 5b 5b cc 40 40 53 18 49 54 da ee 37 c0
       33.59653805294725 -23.933018939824546
000190 4c 57 73 78 81 05 09 40 ee ee 68 6c 59 82 3b 40
       3.1276883516501695 27.50917699395989
0001a0 2c 5d b2 11 64 b0 e5 3f 8c 9b ea 5a c6 63 5a 40
       0.6777820916785564 105.55898163710498
0001b0 bf ba 13 ad e7 0a 38 c0 d6 39 95 4f 39 e2 08 40
       -24.04259759647061 3.1104608743109834
0001c0 bc 58 75 fc cf 91 3b 40 16 48 45 e4 e0 08 e6 3f
       27.56957986702831 0.6885837992106214
0001d0 96 b5 d8 a3 90 f5 4b 40 3d 9c f1 4e 65 1d 38 c0
       55.91847656327734 -24.114827093111888
0001e0 cb e4 b9 d5 a8 9d 08 40 0c 68 53 0e 95 71 3b 40
       3.076982183204199 27.443680663454913
0001f0 de 2c 35 2f bc 6b e5 3f c9 f8 30 1c 1f b4 49 40
       0.6694012567544652 51.40719940558626
000200 e9 56 df 02 31 08 38 c0 6d 9b ea 04 e6 47 09 40
       -24.03199785187363 3.1601066955658355
000210 00 96 25 80 d3 6e 3b 40 45 70 eb 48 75 0a e7 3f
       27.432914742637877 0.7200266288960014
000220 be 01 28 d4 3f 35 25 40 f8 94 64 ea ac e9 37 c0
       10.60400259960522 -23.912794732624178
000230 d6 87 b5 aa 57 30 04 c0 a7 cf 74 b9 86 af 42 40
       -2.5236047112129922 37.371298963581744
000240 ad da 98 b7 1b 8f 11 40 f4 42 a2 69 49 5a ea 40
       4.389754170135956 53970.29414475514
000250 af 9a a6 78 9a d9 42 c0 52 39 ec 02 06 4b f0 3f
       -37.70002658972714 1.0183162798089893
000260 7a e8 e1 25 1b 0c 35 40 ac 2d e4 f9 ea 15 dc 3f
       21.047289245274875 0.43883776095818905
000270 89 9e 6a dd be ce 24 41 16 4d bf ef 3e cf 33 c0
       681823.4324540655 -19.80955408497274
000280 de 83 71 45 91 e0 ee 3f 52 ec 06 10 86 c9 33 40
       0.9649130207363859 19.787201883020607
000290 ea 76 c9 be 88 99 d3 3f 38 f2 dd c8 35 ef c2 40
       0.3062459815172206 9694.42019247367
0002a0 3c cc 5d 74 4e ab 32 c0 1c 32 9b 5f ab 47 f8 3f
       -18.66916587152467 1.517497418844079
0002b0 d6 c3 62 e5 f4 e3 36 40 54 82 cf 96 d7 02 e1 3f
       22.89045556699042 0.5315969415206134
0002c0 e6 45 80 a2 7e 56 d8 40 e6 d1 0d d1 6e 1b 35 c0
       24921.97866827799 -21.107159677385333
0002d0 22 36 d7 11 46 4e fe 3f 98 c9 a3 76 f6 30 37 40
       1.8941097924138224 23.191260733592202
0002e0 e6 45 ef 63 9e f8 e4 3f f6 18 5a 41 7b 9b da 40
       0.6553489639138064 27245.925863766075
0002f0 d6 9b f6 9b 2f f8 34 c0 c9 e1 23 3c b2 d7 0c 40
       -20.969476459223948 3.6053204248857793
000300 93 e3 47 2b fe da 37 40 2f cf a2 57 fc 83 e5 3f
       23.855440812159554 0.6723615371360888
000310 b5 c9 ef da 95 b3 d2 40 e2 dd 64 f2 f7 e9 33 c0
       19150.341487833957 -19.91393961870734
000320 f4 0e ff 47 ab 8d e9 3f 66 f4 cb f2 da 6b 33 40
       0.7985435873201525 19.42130963782656
000330 13 e9 ba ce ec a7 d2 3f 7a c1 47 5e 7e f8 80 40
       0.2914993304108446 543.0617032628936
000340 2c 86 ee be 1d 7a 32 c0 9f f4 63 90 41 40 f0 3f
       -18.47701638530104 1.015687526726914
000350 e1 32 5d bf 0a e5 33 40 18 4e 28 80 e4 8c d5 3f
       19.8946952440773 0.33672440066695364
000360 b8 de d4 78 7f a4 78 40 de a2 56 dd ec b5 32 c0
       394.2811210932955 -18.710645517016808
000370 b2 1c b9 0d 59 89 f3 3f 19 30 13 3d 15 b1 34 40
       1.2210321937616695 20.69173032492117
000380 bd da 68 9d 18 fd d7 3f 34 68 16 bb 36 91 9e 40
       0.3748227631762509 1956.3034480572796
000390 d8 cc fc 7a 85 48 33 c0 44 6e f1 1f bf 2c 03 40
       -19.2832867495716 2.3968489165834246
0003a0 a6 fc 15 5e c6 8a 37 40 cc eb ff ca f7 5f c8 3f
       23.54208934819021 0.19042870914549181
0003b0 e6 40 0b b3 a4 74 53 40 bd ce 4c 82 ce 0c 35 c0
       77.8225524530313 -21.050026077033852
0003c0 73 98 1e 09 38 7c 02 40 b5 aa b1 c6 ad fa 37 40
       2.3106537544691093 23.97921411359376
0003d0 2c 07 8c a1 51 bb cd 3f f9 66 77 96 6d ef 3b 40
       0.23227901828800535 27.93526592650503
0003e0 e0 4b ec 73 6b 8d 35 c0 99 63 28 48 c0 f6 01 40
       -21.552420849980876 2.245483936054779
0003f0 07 6c 8f 21 ac 1a 38 40 ec 8a 27 3c 7b f4 cd 3f
       24.10418901206506 0.23402347981671967
000400 df 69 1c f5 cb 61 2e 40 47 38 4e 9d df bd 35 c0
       15.191009196966602 -21.74169333610214
000410 59 6a d8 a5 17 26 01 40 0d ff 41 7f 0d c1 37 40
       2.143599792162871 23.754112199413658
000420 b0 c0 a7 a8 75 74 c7 3f 1b db d4 10 63 9d 18 40
       0.18324156508561407 6.153698218337719
000430 fd 49 de 14 d6 84 35 c0 64 fa d0 a6 ee e6 01 40
       -21.518891624707965 2.2377598793530513
000440 99 18 84 69 cb 7b 37 40 b0 52 54 fa a0 ee c7 3f
       23.483572573423405 0.1869698736487826
000450 43 ad 90 4e 0f ce 40 40 02 a5 af f3 fe 26 35 c0
       33.60984212936685 -21.152327757245992
000460 33 b7 71 62 25 d4 25 c0 72 72 2b 68 ed 69 3d 40
       -10.914347721463491 29.413778792006674
000470 f3 09 9a d6 7b d7 1b 40 b7 18 84 8a d7 ac 3a 40
       6.960433343078409 26.67516389584554
000480 5c 86 48 4f 88 6c 42 c0 3c 80 45 99 fe 84 db 3f
       -36.847909841930885 0.42999234168928857
000490 93 77 e6 ae 69 f2 34 40 88 5d d8 48 cf 5b f0 3f
       20.946925097719554 1.022414478827928
0004a0 46 62 bb d2 7a 43 8c 40 34 9e 3a 3a 77 01 34 c0
       904.4349722518316 -20.005725516615897
0004b0 f1 00 24 42 85 56 e4 3f 8f c2 65 ad de 67 34 40
       0.6355615894135821 20.405741536468266
0004c0 53 1e 07 5b 2d d0 e1 3f 0d b3 c9 10 a2 0d 72 40
       0.5566622522246213 288.85206679142794
0004d0 49 86 e8 cd e9 7d 33 c0 76 1e 30 cb de 56 c9 3f
       -19.491848820942582 0.19796357079779953
0004e0 a2 92 1d 62 f8 a8 35 40 22 b8 f0 80 bc 2f e8 3f
       21.66004002782814 0.7558271902432845
0004f0 07 23 3b be 48 e2 32 40 85 6f 83 b2 8b 15 35 c0
       18.883922471463872 -21.0841628619087
000500 73 c8 b0 60 60 99 d2 3f ef 15 9e 44 85 ec 35 40
       0.29061135713994374 21.923908508868347
000510 cc de be 01 a3 17 ec 3f a6 13 9b 87 c2 f6 30 40
       0.8778853448956965 16.96390578781179
000520 43 57 14 37 c1 31 35 c0 7f 1c 68 e2 a0 24 d7 3f
       -21.194354479280502 0.36161062345531286
000530 a6 d4 a1 d5 d6 7b 35 40 ad dc 97 e3 60 c3 ef 3f
       21.48374686432785 0.992599911230078
000540 23 c2 2b d5 c9 79 6b 40 ff d4 89 ce 36 a0 34 c0
       219.80588778063347 -20.625836285257716
000550 59 96 75 32 3e 0b e9 3f d9 56 0e ef ff 44 34 40
       0.7826224313291262 20.269530240059655
000560 47 3d db 22 40 cc d3 3f 2e ad 6b c0 8f 92 2c 40
       0.3093414631266182 14.28625298799906
000570 bc f3 34 7d 0d 55 33 c0 50 37 b1 8c be 3c e8 3f
       -19.332237077167278 0.7574150798697961
000580 1c 4f 1d ae 36 a5 34 40 57 d6 4c 50 36 b4 db 3f
       20.645365602641604 0.4328742775136098
000590 e7 87 2b 59 ae 78 20 40 b0 2b 17 4d e8 ab 33 c0
       8.23570517212279 -19.671513384014986
0005a0 eb f6 45 cb 31 e6 e7 3f 1a 39 3c 30 e5 ed 34 40
       0.7468499155217762 20.929278387740034
0005b0 df 70 6d b1 09 95 e3 3f 90 b5 85 cb 87 e6 69 40
       0.6119430985814026 207.20407653918346
0005c0 65 53 1c 7b 5f e0 33 c0 ca b0 42 55 bd 0e 01 40
       -19.87645692292735 2.1321970616319037
0005d0 19 95 02 74 9b db 36 40 d1 22 3f 54 ee fe d7 3f
       22.857840777044746 0.3749347517701099
0005e0 2f 37 a3 89 25 4e c2 3f b4 c0 b1 ec c5 89 34 c0
       0.14300984592994712 -20.538176339527766
0005f0 d9 85 08 2c c5 03 02 40 12 cc 14 52 72 8f 37 40
       2.2518409195042577 23.56033814437621
000600 a2 9b af ea 6d 74 df 3f 26 56 ad 37 72 d4 02 40
       0.4914812843184625 2.35373347757083
000610 29 5c be d0 10 10 35 c0 d3 fc 2e 2c 4d 81 02 40
       -21.062756582712755 2.313135476287792
000620 44 f1 36 28 12 69 37 40 f8 db 5a 19 ba 6e db 3f
       23.4104333051812 0.4286332366568213
000630 b1 ed 28 44 41 3f 41 40 ef 5b 7e 0e 0b e2 34 c0
       34.494179267868624 -20.88298121056499
000640 d6 17 2a 23 36 4e 01 40 a2 98 b2 79 c1 2e 37 40
       2.1631891963215635 23.182639700033754
000650 2e c1 08 5d b3 00 da 3f 86 c1 48 d3 af 90 07 40
       0.4062927635705077 2.945647860200725
000660 16 44 93 4e f9 d0 34 c0 4c 3a 9f 28 13 ef 00 40
       -20.816304121926883 2.116735761031384
000670 8b a3 c1 5a 33 d0 36 40 cb 78 32 97 c4 3b d7 3f
       22.813283607745273 0.3630229450735782
000680 a3 16 8d 57 2c a9 b5 3f 51 57 7f 6c d9 83 34 c0
       0.08461262834051779 -20.515036374177104
000690 1a 4b 2b 72 8a 5d 34 c0 73 83 ba 0f 28 b5 3e 40
       -20.36539376790015 30.707642539058224
0006a0 f7 b1 b7 16 d6 78 23 40 63 99 13 2c cc 8d 03 40
       9.736008367465713 2.444237083767051
0006b0 09 f1 1b 7e 3e 1a 47 c0 0d bf 4a af 4c 06 dd bf
       -46.20503212322553 -0.4535094940028877
0006c0 8b 97 5a d0 ec 67 34 40 e6 49 5c cf d8 7f fe 3f
       20.40595724307745 1.9062126255054124
0006d0 2f ca 1a 32 b1 f1 3c 40 23 e0 9c 3c 07 e8 33 c0
       28.944110042133783 -19.906360424327556
0006e0 2c b7 94 0d 4b ee f7 3f 5e d7 92 f4 48 39 34 40
       1.4956770449166 20.223769460534974
0006f0 bb 4a 20 93 a9 b0 e6 3f c3 d6 df b0 c4 d6 27 40
       0.7090652345235279 11.919469382595144
000700 b8 0a 6d 9d a1 5f 32 c0 8e 7e d6 55 4b f7 ca bf
       -18.37355979835658 -0.2106718224649637
000710 ff d4 88 0a 1b b2 34 40 cf 56 19 2c ce 4c fa 3f
       20.69572511520982 1.6437513086906852
000720 fb eb 00 92 92 f7 14 40 45 b7 d3 2f a3 15 34 c0
       5.241770058923971 -20.08452128332944
000730 91 90 02 65 2c dc c0 bf 4b 19 ff b3 bd cc 34 40
       -0.13171915943269544 20.799769639759045
000740 ea 79 7c fe 98 02 fb 3f eb 83 2f 0a 3d 2b 22 40
       1.688134187781197 9.08445007162114
000750 9d 3a d5 44 61 16 34 c0 d3 03 cb b9 70 39 c6 bf
       -20.087421705301143 -0.17362793991017486
000760 f9 b5 d2 c7 c2 cf 34 40 37 0b 3f d6 9f 18 fc 3f
       20.811565865462374 1.7560118073458406
000770 50 3b f4 0f 42 f6 05 40 9a 53 94 aa 70 1b 34 c0
       2.7452431913765523 -20.107187901699582
000780 6a 9d b4 bc ff e1 f5 3f 8f 0f 25 49 0e 9c 33 40
       1.3676755305585524 19.609592982814828
000790 2c 60 c4 27 b7 cd df 3f e4 28 9f ad 40 a5 09 40
       0.4969308746672165 3.205689770145101
0007a0 f7 3c 0a df 52 fe 31 c0 77 5d 23 c0 a4 ce f5 3f
       -17.993452014922664 1.3629500871082578
0007b0 f3 c8 e1 df 40 b3 33 40 87 ca 35 27 ab 73 e1 3f
       19.700208656905442 0.5453696981260955
0007c0 66 8d 38 65 1e 70 18 40 f0 bb 42 e7 87 10 32 c0
       6.109490949227029 -18.06457372073413
0007d0 e6 f6 9a d9 c8 08 f6 3f c3 4a 67 99 8a bf 33 40
       1.3771446705063055 19.748208606450827
0007e0 47 ad e9 2b f6 fa e1 3f 77 60 3f e0 ee 59 f4 3f
       0.5618849618598823 1.2719563254995856
0007f0 9d f4 1d 33 12 17 32 c0 50 5f 8a 53 44 37 09 40
       -18.09012145501457 3.151985790882385
