try_energies_noise_scf_features/try_noise_scf_dft_b3lyp_def2-SVP_171.npz (npz, 11963 bytes, 4 tensors)

coords f8 [27, 3]
0	0x0000000000000000	0.0
1	0x0000000000000000	0.0
2	0x0000000000000000	0.0
3	0x3f74b49023888184	0.0050550108358326
4	0x3f9d2e0acec96805	0.028495949622403333
5	0x3f79846a9c081cf0	0.00622979778609721
6	0x3fc9d5d327dd261b	0.20183791586377783
7	0xbfc5d17b2d393b1b	-0.17045535762960004
8	0xbff80d800c8f3372	-1.5032959452248318
9	0xbfca98c2ecc2ae87	-0.2077869087273607
10	0xbff120c33028bc0d	-1.0704986458983996
11	0xc001d18539b80798	-2.227304888657226
12	0x3fed726ec437fdc7	0.920218833198242
13	0x3fea5f15dd421d09	0.8241071053934387
14	0xc000a0c4cfa7f981	-2.07850038749092
15	0x3fe814e217c5a2e7	0.752549215726586
16	0xbff264d0a31f5172	-1.1496130344358702
17	0x3fe6452ed15c94e8	0.6959451760382338
18	0x3ffd8fbd00e62ced	1.847592357170295
19	0xbff1cd7b0d86a818	-1.1126661804542035
20	0x3fd96e95aee4b530	0.3973745544379481
21	0x3fd8d2c24cca1e01	0.3878637075326595
22	0xc00106f2c28e042a	-2.1283927154149938
23	0x3fdb7a694df3c838	0.42934639561201804
24	0x3fe5958b7e42c5a3	0.6745049921066094
25	0xbff0118176e8580f	-1.0042738575771215
26	0x4001dea53f5f764a	2.2337136221893035
27	0x3ff72f470b0a7942	1.44904236138207
28	0xbfbec4ec7429dd8c	-0.12019231639884803
29	0x4007e94957e54fa4	2.9889094225745385
30	0x3ff0be027093add2	1.0463890454801583
31	0xbfd05c6ef976f104	-0.2556416927507288
32	0x40112c011743484a	4.292972911340323
33	0x3ff915f7602b5d16	1.5678628689400447
34	0x3faf302f816c63a8	0.060914501713518476
35	0x40145a02f1d6f8cb	5.087901858087387
36	0x3f9ba0b50064adc5	0.026980236195567792
37	0xbff3e7d085a0a5e2	-1.244095346434158
38	0x4011b25652de3c57	4.424157423795882
39	0xbfcbc4aca76009c7	-0.21693952725043017
40	0xbffb34bb5af8e996	-1.7003739884954476
41	0x400899d421eb274b	3.075111641873183
42	0xbff3b5d266949416	-1.231890106873157
43	0xc005378a93ef40cf	-2.6521197850598592
44	0x4006d2d8cda7a35c	2.8529525820526214
45	0xbff6f9d9ae574286	-1.4359986124219701
46	0xc007fbaab04c1c48	-2.9978841565348695
47	0x3ffcc65d164ff3b1	1.798428618581266
48	0xbffe860b389c5f3d	-1.9077255450592496
49	0xc0093f2c6c543403	-3.155846449203183
50	0x400f7a88865738b2	3.9348307128303412
51	0xc0051866a8082799	-2.6369145514954195
52	0xc00f4b8b77178fed	-3.9118871025148025
53	0x400e68da41f62c3e	3.801197543454264
54	0xbff9dbbe6848297a	-1.6161483834754038
55	0xc005cb784d96c723	-2.7243505536688573
56	0x4014f7870b91c06e	5.241726094027497
57	0xc001849fdcb12976	-2.18975803771644
58	0xc0094e5cef2a46c7	-3.1632631954933887
59	0x4018484863dc7014	6.070588646249252
60	0xbfe592303bbc56ba	-0.6740952650750025
61	0xbffc4b03d489fd50	-1.768314199667504
62	0x4015dd59266260a5	5.466160392527091
63	0xbfdb3bef3d7800f6	-0.42553311350640344
64	0xbff69619c70dc06f	-1.411645677140793
65	0x401a01121bd12e16	6.501045641558013
66	0x4001f06a81b453d1	2.2423906453281934
67	0x3fe184dac73bfb96	0.547467602853305
68	0x400538cdbf6e3bf3	2.6527361827388574
69	0xbff9313c0e2dd238	-1.5745201639048343
70	0x3fc8d45d371e2649	0.19398083869264074
71	0x3ff449a93984d611	1.2679836508590407
72	0xbffdfbc1ee63e388	-1.8739642440907307
73	0xbfebfe9b34f5545d	-0.8748298677770766
74	0xbf7e521634d46938	-0.007402502769105639
75	0x3fda851189282c13	0.41437185663443293
76	0x3fefe571c3dd61dd	0.9967583489879491
77	0x3fd4a6e62f33fcb1	0.32268671617198225
78	0x3ff0d925b39eab1c	1.0530144707105995
79	0x3fe51e75e0dbefe9	0.6599683181552766
80	0xc008137df52070a6	-3.009517588665477

energy f8 []
0	0xc040e1b420e8f500	-33.76330958723884

noise_sigma f8 []
0	0x3f947ae147ae147b	0.02

features f8 [27, 14, 5]
0	0xc032ae325301e325	-18.68045538707806
1	0x40446eaa87180d1b	40.86457909273505
2	0x4020fdd2b0bbb7d2	8.49574806491356
3	0x40df7cd4c8632f7f	32243.324730678924
4	0xc04ba6095a81882c	-55.297160447357186
5	0xc0049517ee5d4b7c	-2.5727995512219746
6	0x40383274219cc420	24.197084522984483
7	0x3fffad6357f9199f	1.9798310696074635
8	0x4120961656d62f44	543499.169602849
9	0xc039c7ac04a8a8f3	-25.779968539406536
10	0xbff7687683027c1a	-1.4630036466185232
11	0x4038f4d84dd821bd	24.95642553831725
12	0x3ffc559907979dec	1.7708978935787583
13	0x40d607670adf392d	22557.610038572155
14	0xc03988b2edcb8c2d	-25.533980238146047
15	0xbfe9f2b80222c5e6	-0.8108787576404068
16	0x403a75c88f5ca711	26.460091552849068
17	0x4000e1b0b3d9883b	2.1102003145943207
18	0x40dd3c1d1243167a	29936.45423962779
19	0xc03a3743443023e3	-26.215870153191542
20	0x4008903103e23f27	3.070405989019395
21	0x403a38182d8bf021	26.21911892572837
22	0x3ffd3176da625c6c	1.8245762377389623
23	0x40db869fd4494050	28186.497331917577
24	0xc0363c86563c95ac	-22.23642481783979
25	0xbfe085762932de7f	-0.5162916950857407
26	0x403b0ded6b40951a	27.05440397574157
27	0x40011a21335df59b	2.1377586377190716
28	0x40e364a1cee10c54	39717.0565037957
29	0xc03a807709544fb1	-26.501816351970493
30	0xbfe2625695d8b368	-0.5745041777314386
31	0x403990574e6f2cce	25.56383218969568
32	0x3ffa2d6d5eafb73f	1.6360906313597778
33	0x40772b816d6c5f72	370.71909849484575
34	0xc03951fe982874a4	-25.32029105174719
35	0xbf9e0110c3c216ba	-0.029300939510469283
36	0x40396888400d1b5e	25.408329013061454
37	0x3ffa3e79633eca97	1.6402524830597593
38	0x40778461bdb81701	376.27386257085897
39	0xc0389e14b9241567	-24.617503711041902
40	0xbfe35f69b70a2ed9	-0.6053970885272647
41	0x403a40136c4cb6c2	26.25029637215517
42	0x3ffd27f93432d889	1.822259143734785
43	0x407a3ac611047e54	419.67335607295286
44	0xc039f1cef063718d	-25.94456388881513
45	0x400a1f89cac2a60a	3.2653995361949955
46	0x403b714340db10b2	27.44243245456955
47	0x3fe62e27c9f26721	0.6931342071795578
48	0x406d2188108e3cdd	233.04785945683298
49	0xc037d499685af219	-23.830465814784564
50	0x4009f58dbc995ee1	3.2448992475800513
51	0x403ba1e13f7799f9	27.632343260478567
52	0x3fe5f853ac0493c9	0.6865633353924007
53	0x406477975c758bdc	163.73722670515315
54	0xc0380b4e39345bfc	-24.04416234520248
55	0x4009cbde22cbdbc6	3.2245447843992876
56	0x403bbbc5fbde66d7	27.733489743993086
57	0x3fe734efbaea46e5	0.7252119684873973
58	0x40577452c56d1ae7	93.81755195288461
59	0xc03825767899426b	-24.146338975350243
60	0x40095225cd22df6e	3.1651111627833677
61	0x403b9786f468cbe5	27.591902995667528
62	0x3fe688b49748aab8	0.7041876749766152
63	0x40352252dd7f6d1a	21.13407692299834
64	0xc038131f68674d6c	-24.074697995395965
65	0x4009d211472cd047	3.227572017722227
66	0x403b5e3b6fef35fd	27.368094440365883
67	0x3fe5dab4e4e03041	0.6829475851277566
68	0x40640ec44d3a2aa2	160.4614626060548
69	0xc037cc8e73761b58	-23.79904863007991
70	0xbfb81da824f75850	-0.09420252706999688
71	0x40428868a492c819	37.06569344679901
72	0x4010b10d3b3440a3	4.172902035774459
73	0x40e9787f38d6388e	52163.97568808599
74	0xc0418966a4f1ff35	-35.073444955980825
75	0x3ff0b7ee1b0cd866	1.0449048096320666
76	0x4034e9db649275c3	20.913503919369543
77	0x3fdab855047cefc8	0.4175007385090308
78	0x41234cfc598eb171	632446.1749167872
79	0xc033a8ebd8d8bab4	-19.659848740494184
80	0x3feeca16ac8b3b48	0.9621690149304891
81	0x4033a4ee146d622c	19.644257809357597
82	0x3fd2672da93b2ee8	0.287547507538632
83	0x40b28acb043a368a	4746.793033254924
84	0xc03289cf03b692d8	-18.538315040658603
85	0x3ff8600a4e5b1ece	1.5234473286417827
86	0x4036bc70df2cd69c	22.73609728665052
87	0x3fe029b0976d170c	0.5050890882054957
88	0x40df6d7accc58860	32181.918748267344
89	0xc034f5c977e96e6f	-20.96010541390427
90	0x400bba91089fa366	3.466096942302488
91	0x4036dd56dcd01510	22.864606667329156
92	0x3fe46d0b7cffd770	0.638311142100731
93	0x40de4b70137d52a4	31021.751189547256
94	0xc03314508dc81d8a	-19.079354153972908
95	0x3ffd1ed738e99c78	1.8200294707437745
96	0x403785db162222a4	23.52287424405462
97	0x3fe39e1518dde929	0.6130471692734193
98	0x40e3abb830c7c9e7	40285.75595464167
99	0xc03565754e3015ae	-21.396321188678193
100	0x3fe964132f7ab65b	0.7934661795931776
101	0x40334791a953b414	19.279566367087753
102	0x3fd1d6b3266250e6	0.2787292361110886
103	0x408568038a1cc3d2	685.0017282721767
104	0xc03258c3a98b19d7	-18.346735569439115
105	0x3ff20eb04798f974	1.1285860821513696
106	0x40339db91df2de78	19.61610591105861
107	0x3fd4c9e75a4a5619	0.32482322518748813
108	0x4092402278a60148	1168.0336633623392
109	0xc032533a4ac4b9f6	-18.325108216313275
110	0x3fee603e084471c0	0.9492483293029679
111	0x40348c9a663430ba	20.549230945340902
112	0x3fd6591add2e9554	0.34918853378106474
113	0x40883eeae08089e7	775.8646860162816
114	0xc0336ce64037b0a3	-19.425388349147976
115	0x40037e9cde292808	2.4368226391134193
116	0x40371d0bb1172c89	23.113459652097422
117	0x3fc740ea1208dd19	0.18166852837178096
118	0x406a6b4c3100b263	211.3530507100687
119	0xc03495f72b3ffead	-20.58580274879812
120	0x40037391c5a80895	2.4314303819565546
121	0x40376fb33eded24d	23.436328820609834
122	0x3fcb424db5666a89	0.2129609237425323
123	0x405948dec0aab5f7	101.13859574004151
124	0xc034e5feb8746ade	-20.898417976782063
125	0x40032a94a7ccee3b	2.395791350308881
126	0x4037a7ee22d49b07	23.65597741785589
127	0x3fcd667c870610d3	0.22969013779596156
128	0x4059923d29df7ad7	102.28498312782482
129	0xc03525351153f738	-21.14534099864906
130	0x4001693146ccdd91	2.17636351883602
131	0x403768e068efcf99	23.40967422346839
132	0x3fc5922aabd3fde7	0.1685231532101021
133	0x4035bb5c2400b4b7	21.73187470452532
134	0xc0352628156a5fab	-21.149049128027098
135	0x40026cfd89c65218	2.3032179607055348
136	0x4037020ffe6c08d8	23.008056546569463
137	0x3fc703a915684c4a	0.17979920907291308
138	0x4061d16eeb3b5cc8	142.5447899016783
139	0xc0349d6ca41dd630	-20.614938981327384
140	0xc025cf78221117c8	-10.905213417612586
141	0x403d55782c2deec1	29.333864937986394
142	0x401bcb14af5b5d69	6.948321094466658
143	0x402330135d9e5ab0	9.593897748546937
144	0xc04261e8d3a58773	-36.76491780836559
145	0x3fdae848598dc35f	0.42042740579113586
146	0x4034e10d73811e83	20.879111498854865
147	0x3ff09aa54f01d69d	1.0377553068368919
148	0x407ab2a7ba70964e	427.1659492872176
149	0xc033f09727a2d932	-19.939806439645686
150	0x3fe450a2f9344eb9	0.6348433367988583
151	0x40344aec84e49cb6	20.292671495259775
152	0x3fe19d86fc15538a	0.5504794047834463
153	0x406491a6f905626d	164.55163241435676
154	0xc03361f1512aa4dc	-19.382588456069115
155	0x3fc983a230671028	0.19932963717849472
156	0x4035988b46db4acb	21.595875195062757
157	0x3fe8868372154e69	0.7664201000392953
158	0x4043fd509cb24cfc	39.97902258592691
159	0xc0350369f4b22760	-21.013335507864554
160	0x3fd198fad2c9bd42	0.2749621447064393
161	0x4035da0e286e9e2a	21.851778532987886
162	0x3fecee2cdfe76a87	0.9040741322636031
163	0x40492daea237dd5d	50.356891896512685
164	0xc0351ff189a3d9a6	-21.12477932214974
165	0x3fd759c18c66d5d4	0.36485327445128957
166	0x4035602737f828e7	21.3755984288081
167	0x3fef9db24e024080	0.9880000613793669
168	0x4059da45d537d539	103.41051226093704
169	0xc0348449688e84c7	-20.51674512366733
170	0x3fe8d78fae614731	0.7763136297091703
171	0x40343226ab232dc2	20.19590253456932
172	0x3fd43c6a2049dbbc	0.3161874118154022
173	0x403a99688fdaae2a	26.599251738442184
174	0xc03342f1596f8fcc	-19.26149519895243
175	0x3fe83eaf99c97ed1	0.7576520923284652
176	0x403492fffc5858ce	20.574218532151285
177	0x3fdcd452440c2a33	0.45045906682267683
178	0x403b2fa67340a9fe	27.186133578574292
179	0xc0339761db01f489	-19.591336906411502
180	0x3fe7f5ff37e73c22	0.7487789241657803
181	0x4034bc45fed9e9d4	20.735443046762
182	0x3fe2c5a868c52f15	0.5866281553548754
183	0x405413b81ef6cb27	80.30811285115179
184	0xc033b17f63779b81	-19.693350044919047
185	0x4001402a0ce87ca2	2.156330204815803
186	0x4036d887ce0764c2	22.845822216801714
187	0x3fd9600fe64205b1	0.39648816572306617
188	0x3fd40ca370c3fa9a	0.31327138912448904
189	0xc0347dc26c9dd11d	-20.49124792912436
190	0x4001e7b3e8c520c6	2.2381361184271524
191	0x403772c071c963c5	23.44824896971456
192	0x3fdf914b450cb7a3	0.49324304335720565
193	0x3ff89dcca19727e2	1.5385252296568912
194	0xc034f6a75e26a63b	-20.963491329608797
195	0x40027100b51c845a	2.305177130635042
196	0x403746a07d96ad62	23.275886391912884
197	0x3fdbeef2fa346c9d	0.4364592975050046
198	0x4042fc06e2abf1f8	37.96896012683641
199	0xc034c0a280feb3fc	-20.752479612525335
200	0x40012a3dc3a73d49	2.145625618497125
201	0x40370f2fd9a3accb	23.059323885402403
202	0x3fd9e7481ec9f3fd	0.4047413159058236
203	0x40076ce0910b617b	2.928162701759161
204	0xc034b61990f13138	-20.71132760895236
205	0x40011d80c89536f1	2.1394057913338362
206	0x4036cab87061a43c	22.791876815641658
207	0x3fd822e3555ec3a2	0.377129395837125
208	0x3fb6960a40390a5f	0.08822692935886199
209	0xc03476c290a43fd1	-20.46390632638924
210	0xc0345bc106132eb8	-20.358414058383204
211	0x403ed55564169bfa	30.833334212798924
212	0x4023765fcd18d641	9.731199654847957
213	0x40003838877adffb	2.027451570927949
214	0xc04729bf3b71ca91	-46.32614844375815
215	0xbfda9504b0797d7a	-0.4153453563103181
216	0x40346c6d8515fc30	20.423546140544374
217	0x3ffe1f1d94c3a684	1.8825965701202287
218	0x402624ca76f2e751	11.071857182647053
219	0xc033e5c8ab31c4fe	-19.89759321179462
220	0x3ff8346213a460c6	1.5127888457555385
221	0x40345fb616fb985c	20.37387221949062
222	0x3fe6fd7bd07486d9	0.7184428283109937
223	0x40193c66d0e61a9f	6.308985961956437
224	0xc032807a067f803a	-18.501861959579607
225	0xbfc9e39839d48237	-0.20225813697563108
226	0x4034ca990b5053f8	20.791397769080476
227	0x3ffa374a16a998cc	1.6384983906987598
228	0x401262212826b5b8	4.5958296083094226
229	0xc0342ca5eb0eb038	-20.174406710706734
230	0xbfb9e620295a4bc9	-0.10116768846118797
231	0x4034ec69bf7e4408	20.92348858673725
232	0x3ffaa79ab78d7952	1.6659190340065675
233	0x401e39a10d1409be	7.5562784236412295
234	0xc034311309eb3289	-20.191696758195153
235	0xbfc791e521293b5b	-0.18413986319725492
236	0x4034e68db9e75d55	20.90060006998586
237	0x3ffc601180e70129	1.7734541926620955
238	0x4013aaa1f97f6367	4.916633509063877
239	0xc03432b0f82277c4	-20.198012836852072
240	0x3ff5bfb1ad263c4b	1.3593003047606256
241	0x4033b4d73006242f	19.70640850210128
242	0x3fdfff106a33b7b6	0.49994287844935614
243	0x4007e5b6b89487e4	2.9871649189308176
244	0xc03218ddf45f58fd	-18.097136758115983
245	0x3ff58d6ae1f366e0	1.3470257593348194
246	0x4033c74efed9733e	19.77854912575571
247	0x3fe16d374bebf77b	0.5445820315214712
248	0x4018d9affad794b6	6.212585372360243
249	0xc03228c3738a8cfc	-18.15923235066019
250	0x3ff5f04ff94c9491	1.371170018982671
251	0x4033d88b5d347bd7	19.845876527131477
252	0x3fe24ade2dc60f45	0.5716391462342264
253	0x3ffe2500d839c5cd	1.8840340086284073
254	0xc032305ae4e89a4f	-18.188886935031686
255	0x400950aeb3a43700	3.164395717095317
