try_energies_noise_scf_features/try_noise_scf_dft_b3lyp_def2-SVP_774.npz (npz, 11970 bytes, 4 tensors)

coords f8 [27, 3]
00000000: 0000 0000 0000 0000 0000 0000 0000 0000
00000010: 0000 0000 0000 0000 4d3e 88ee c242 883f
00000020: 686d c98c 03a8 8f3f 9398 30cc 342b 973f
00000030: c28f 7d37 736d c83f 642e 6ce8 5b25 c6bf
00000040: 40d2 7b2d 9803 f8bf 1bca f693 001d c8bf
00000050: 4b90 d7cd 0fd9 f0bf f223 66e2 b10c 02c0
00000060: 3865 c77b 2d42 ed3f 4db1 2ec9 a753 e93f
00000070: 4310 63dc f6ae 00c0 d9c2 9d25 eeaa e83f
00000080: 28b5 8254 d562 f1bf 015d f17e b321 e73f
00000090: cad7 e02b 2d04 fd3f cbfa 524d 4779 f1bf
000000a0: 751d 9c01 1b7b da3f ffc5 e0c0 7f51 d83f
000000b0: 0f5c 01e9 eb29 01c0 a78b 8b4d 61ef db3f
000000c0: d6ec 7cce 5397 e53f e2bf e30e 93f0 ecbf
000000d0: 465f f011 5669 0140 d130 1143 d685 f73f
000000e0: 0741 a82a db89 c3bf f9a0 da0b 1a8a 0740
000000f0: fd49 c43e 6d67 f03f 48d6 1dc1 1c9e d0bf
00000100: ea98 726e 745a 1140 92d5 0a20 5285 f93f
00000110: fe29 900f 46f6 81bf 70f6 549b 9448 1440
00000120: 7d81 5873 4191 a03f 4be7 6b6c 9c01 f4bf
00000130: db9a 1a29 d8b1 1140 ff3a 8eba 2376 cabf
00000140: 9fb9 d610 aa4b fbbf 47b0 3d03 aa5f 0840
00000150: 5118 d1ee 2cd6 f2bf 25b8 fe41 9c48 05c0
00000160: 04b4 de7f afcc 0640 d84b a59e fc0c f7bf
00000170: 87fd 1f2f 0610 08c0 5cc3 dfb0 9472 fd3f
00000180: c21c 952d 67fe fdbf 5aec c35d 7848 09c0
00000190: 6bea e2da 0c5a 0f40 446d a3cc 6129 05c0
000001a0: 593e e2f3 bb96 0fc0 8974 457f 8a28 0e40
000001b0: 586a 9922 ad66 f9bf 855c 3ed3 cfcd 05c0
000001c0: a140 2000 51f3 1440 6b84 6069 c16d 01c0
000001d0: 212e dcb4 4a46 09c0 8182 4422 5422 1840
000001e0: 7ed7 3db3 087d e6bf d851 e2cc 1488 fcbf
000001f0: e8c7 40e0 97f3 1540 cdbe 4826 2405 debf
00000200: 9448 d42f 0ac1 f6bf 2bcd b319 c80e 1a40
00000210: 98d6 2ef4 12dc 0140 4b72 6b81 e476 e13f
00000220: 5cbe 8102 4248 0540 bdcb fbf1 9187 f9bf
00000230: 92da 254c 1cfe c93f 1e04 c862 2764 f43f
00000240: bb72 8070 3df3 fdbf e1fb 234c 1d4b ebbf
00000250: 4274 edba e55e 9f3f 5ad7 dfb5 07d5 db3f
00000260: 24e9 d80d f919 ef3f f37a 3b24 0bef d43f
00000270: 6726 d852 1b04 f03f 8b4b 1d22 0cdd e53f
00000280: 4fc0 9768 8a2f 08c0
0.0 0.0 0.0 0.011846087364602154 0.015457179769490195 0.02262575622821623 0.19084015092368928 -0.17301510666617326
-1.500877549810994 -0.18838507866674167 -1.0529935875611212 -2.2561986625119 0.9143283288532649 0.7914618424743282 -2.085431787274531 0.7708655104343861
-1.0866292287058261 0.7228639106132563 1.8135196413036163 -1.0921090145563308 0.4137637630196516 0.37997430644745117 -2.1454694942035597 0.43648560116542473
0.6747225792854816 -0.904366997796384 2.1764336968880427 1.4701750392733184 -0.15264453490136295 2.942432491883775 1.025250668699868 -0.25965041026151825
4.338334775680986 1.595049023785894 -0.00877051100726067 5.0708793898207745 0.032358212785996245 -1.250393317719914 4.423676149605593 -0.2067303334155994
-1.705972734238095 3.046710992164694 -1.1772889450817454 -2.6604542880877653 2.8499441137159938 -1.4406706044289788 -3.0078242952001264 1.8404738339561026
-1.8746101170125233 -3.16038583044205 3.91896983151428 -2.645206068742171 -3.948600678769975 3.7697954123564767 -1.5875674582990964 -2.725494051304454
5.237613679855856 -2.1785915596561174 -3.1593221788114225 6.033524070197587 -0.7027629376232054 -1.7832229617389341 5.4878840484179605 -0.4690637945050014
-1.4221288555459397 6.514435197447976 2.232458026580229 0.5457632568100704 2.6602821536869623 -1.5955981686099527 0.2030673381629709 1.2744516237874062
-1.871884765109981 -0.8529192435379366 0.03063544228949789 0.4348773265950193 0.9719205160575126 0.32709005869212077 1.001002620325744 0.6832333246514833
-3.0232132121382516

energy f8 []
00000000: 6034 4413 b2f2 43c0
-39.89605942564299

noise_sigma f8 []
00000000: 7b14 ae47 e17a 943f
0.02

features f8 [27, 14, 5]
00000000: 9901 6434 cc74 32c0 be01 1cb0 1f77 4440
00000010: 46c4 94ce e2f2 2040 b4be 35b3 4c7d e140
00000020: a46a 7b70 2993 4bc0 797f fa8b c3e6 04c0
00000030: b3f6 9482 313f 3840 b951 26ce 22c2 ff3f
00000040: 53d8 2525 d49b 2241 9e0f a3dd f8dd 39c0
00000050: 06ec d4cf 3d2e f7bf 935c d054 2e08 3940
00000060: 626e c04c 1651 fc3f e0b6 8b68 89ae db40
00000070: 34a8 677f 8998 39c0 a4c3 d6c5 a2cc d3bf
00000080: 5d3f a890 3866 3a40 4a24 39c7 fe7d 0040
00000090: 63d6 7388 e421 dc40 c308 4c2f 8bad 39c0
000000a0: b570 af7d 9432 d73f db54 fef7 81aa 3a40
000000b0: 6e43 42b7 d7a2 0040 d963 1c91 d817 e140
000000c0: 8273 932a 8a43 39c0 f99b 929a a42f fc3f
000000d0: c51a 8e5d 6ab2 3a40 005b 72a9 3fe4 fe3f
000000e0: f732 514d b282 e040 2f5f 9916 4ef8 37c0
000000f0: 04eb edd7 4564 e0bf 1bb7 4ab2 3297 3940
00000100: 9e16 fd5b dcff f93f 78f5 9f01 4143 8140
00000110: f03d 2afe 554a 39c0 8091 d394 9cc1 d5bf
00000120: 7c1a 49d0 b596 3940 33c6 cd83 7b20 fb3f
00000130: 8310 58ca 6b25 6440 b8fa 7d66 b814 39c0
00000140: 4eee b71b 1f2c d4bf cc2c 6bc4 8c26 3a40
00000150: 2b90 fa64 854e fc3f 0076 9c7b 21cf 8a40
00000160: ee37 b215 c994 39c0 0f8d ad0b c866 0a40
00000170: 9d7f 8ed5 a992 3b40 1bea 130b a411 e73f
00000180: f760 5a5d af21 6b40 7f7e ec43 8ae9 37c0
00000190: db4d ae4a 89f1 0940 c964 9c50 91ae 3b40
000001a0: bbb7 45fe 7828 e63f 7115 4dd4 9c5d 6340
000001b0: 2f84 4d43 be17 38c0 36f7 fd3a bf78 0940
000001c0: 80d6 bf9f a5bf 3b40 d49a a148 039a e63f
000001d0: 4b1d 712f 4da4 5940 0891 3dab 2536 38c0
000001e0: 76a9 6387 8016 0940 553a 2181 5495 3b40
000001f0: a65d 4844 b0d1 e53f ded1 fb9d 25e1 4840
00000200: 92a3 23af 3d1b 38c0 d3d9 b662 44fc 0940
00000210: e897 4131 4a88 3b40 50bf 3122 b7b7 e63f
00000220: a991 2bc7 dc63 5840 a2f5 61c8 e2ed 37c0
00000230: 0062 ec67 ab35 76bf 98c9 d343 c2a3 4240
00000240: 9d45 3a3a 1bba 1040 2f59 5fc2 7d1d ed40
00000250: e464 8b3d d298 41c0 41e5 966f bd4d f03f
00000260: f7cc 5fbb aefb 3440 8c41 0a2c 7fc9 da3f
00000270: b50c 37f6 0299 2641 0048 0ee6 3fc1 33c0
00000280: 1028 7a46 f70d ef3f bd61 2952 2dbb 3340
00000290: 0303 fdef 415c d23f a5af ea71 c983 c040
000002a0: eb98 1514 059e 32c0 02c4 32a1 a4c3 fb3f
000002b0: e4da 134a f6d0 3640 7686 067a 2e82 e03f
000002c0: d490 97ad d3d2 de40 5e95 1846 b3d2 34c0
000002d0: 6004 3101 d54a 0240 f640 84e3 5f00 3740
000002e0: ea25 98b5 6d65 e43f ff5c 7032 9dca e340
000002f0: 86bf 878c 6f65 34c0 9510 3391 29be 0640
00000300: c409 7537 ec99 3740 9c71 7ec7 76d5 e33f
00000310: 8daa 354b 052a df40 c8ab 302a d172 34c0
00000320: b217 fb19 643b ea3f 17fe 9b34 f662 3340
00000330: fc1d 08ac 5111 d23f 272a d669 6f98 8c40
00000340: 3a15 7470 f86c 32c0 1487 6a95 c577 f03f
00000350: 84ca 7cf6 d2b9 3340 b4f8 e201 dc89 d43f
00000360: 1ac6 01f6 45b8 8240 665c 22e5 4289 32c0
00000370: e538 9e07 750c f13f 80c6 e1df 519d 3440
00000380: f3e7 0e36 36f1 d63f 02ff 723b 6ce5 9540
00000390: c8c4 fb22 a85e 33c0 5554 16b5 8914 0440
000003a0: a097 35f3 4c62 3740 312a 99ae 0d96 c83f
000003b0: 8de2 9500 5b6a 6d40 1834 e4ae 25c7 34c0
000003c0: 4dd0 1b99 4b7d 0340 6ae6 c09d 2fb3 3740
000003d0: 2084 5042 7e35 cc3f d691 6e8b 1325 5740
000003e0: fa1b 5bac 5027 35c0 d0b0 a0ee a5c8 0240
000003f0: 960d 85e0 85fa 3740 cac4 ba75 2e83 cd3f
00000400: 5ecc 2a00 d680 5340 c53c 3bf4 ed83 35c0
00000410: f272 39e6 0d71 0140 8a53 d16d 62b5 3740
00000420: 9462 a1f9 0360 c73f de24 c7c3 cf77 2e40
00000430: cb83 10ad e06f 35c0 fbaf c922 4fc7 0240
00000440: 720e 09d1 1c49 3740 abbc 1c89 fd68 c73f
00000450: 0411 c2c5 54a7 5f40 f0bb 26ef c9d8 34c0
00000460: 6726 4f2b 37c7 25c0 9aa3 eb24 bb67 3d40
00000470: 000b 61e5 b7c9 1b40 a6b1 7797 82ec 3040
00000480: b38a f3de 0f69 42c0 7cd4 3547 ab7e db3f
00000490: 37b4 009b e7ef 3440 6ffb b2ad d8a5 f03f
000004a0: fc84 b4ca e771 8340 ed44 7628 befc 33c0
000004b0: 69ea e10e 9fa0 e43f 6bd4 77a8 6b54 3440
000004c0: 5f0b 97d8 2996 e13f 3c0c 96f7 73bf 6940
000004d0: e968 9e08 0e69 33c0 15be 49e8 50ab ca3f
000004e0: 0e79 221b d0a6 3540 41ea f6b1 189e e83f
000004f0: 5f52 7c25 108c 4240 f009 8a16 010f 35c0
00000500: d859 8ce5 49cc d13f b52e 8b6b 55ea 3540
00000510: afea 1a0a 0fe0 ec3f 667d a746 5ed2 3640
00000520: ad91 cc07 a42f 35c0 348e 88eb 172d d73f
00000530: 06c2 1294 876d 3540 dee1 03b3 50db ef3f
00000540: 308c 754e a921 6440 f58f 98f1 6591 34c0
00000550: 8bc5 2534 2e0a e93f 7f19 800c d93c 3440
00000560: 5284 a5ae 3630 d43f 92c0 3b39 2481 3940
00000570: 4ea0 812d 274c 33c0 0f91 e983 2d65 e83f
00000580: 8308 9169 4498 3440 bdb5 ff50 635f dc3f
00000590: 6cfb 60b5 2327 2740 9abc cf36 5c9c 33c0
000005a0: c6c8 89b9 ec1a e83f 3863 6a8a c8cb 3440
000005b0: f8e1 04ce b905 e33f 79fd c534 591f 6040
000005c0: 4601 663d dabe 33c0 5399 3296 0349 0140
000005d0: 02fc cf70 25e4 3640 3691 5c00 1843 d93f
000005e0: 87ad 6049 742b d23f bfef 08ce 7e88 34c0
000005f0: e355 f2c8 13f6 0140 d4f2 020b 8588 3740
00000600: c214 9358 9ed3 df3f a9ff 0150 aefc f83f
00000610: f381 3355 1b0a 35c0 28fb 35bc 799c 0240
00000620: 7ac2 f61f 9762 3740 cd3e f2dc 7f25 dc3f
00000630: 188f 9830 6f86 4240 961e b6e8 bcd6 34c0
00000640: 661c c3dd f146 0140 874a 23c6 d726 3740
00000650: c29c 4f0a 353f da3f 5f99 d92f 5071 0440
00000660: c247 5620 7bc9 34c0 feed a71c b125 0140
00000670: 7ff7 21f5 ecd6 3640 659a 62c3 e92d d83f
00000680: e9d4 cc2c 4802 b73f 8034 06fe da81 34c0
00000690: 6c7c 23e1 8258 34c0 f868 67d6 b6d8 3e40
000006a0: 8378 7228 d775 2340 1d7e 1622 729d 0140
000006b0: a623 b7f6 e129 47c0 c9b3 313a ab09 dabf
000006c0: 0d1e 0f06 796b 3440 4f95 b926 601a fe3f
000006d0: 7bb0 faec 3463 3340 4518 c2b1 cce2 33c0
000006e0: 0d32 f698 894d f83f 3447 4122 4b61 3440
000006f0: 142e fe2e ac11 e73f 344a a556 08a7 2340
00000700: 6feb f5d7 2b80 32c0 34e2 6da0 a765 c9bf
00000710: cbbd b7be e8ca 3440 39c9 91dd 6251 fa3f
00000720: ed95 d1ba 8373 1740 410b 0cf7 282b 34c0
00000730: ba1a 8c79 79af b8bf ae29 82fe b6ec 3440
00000740: 9aeb d744 d6c4 fa3f c128 6aa4 a630 2240
00000750: 62f6 d4c5 3f2f 34c0 0a18 e434 c613 c5bf
00000760: b96a 0621 30ea 3440 a8ca 42f9 5044 fc3f
00000770: d0a5 4666 8d35 0c40 8e1c a625 3532 34c0
00000780: 3044 f866 76dc f53f e00d f16f bcb4 3340
00000790: f716 c05b 3b16 e03f 10ac a82f b6c3 0c40
000007a0: 4189 121c 9c16 32c0 ff5c afdb 62ad f53f
000007b0: b04d 5494 0dc7 3340 0334 75d3 a592 e13f
000007c0: a762 14f2 e66d 1940 0d83 4bcf ec25 32c0
000007d0: ce2c 155d 3afb f53f b262 0465 a6d6 3340
000007e0: 846c f4a0 6452 e23f c1a5 4fdb 5f36 f43f
000007f0: 323e af2c a92d 32c0 5bee 965d 8655 0940
-18.456240915694796 40.93065453879852 8.474386649761197 35818.39687621352 -55.14970212961387 -2.612677663404551 24.24684921395119 1.9848964741441775
609770.0725543596 -25.867078640279594 -1.448789417116815 25.031956959600006 1.7697966573822659 28346.147005966748 -25.595848048025985 -0.30936497993666934
26.399300614429524 2.061521107131317 28807.57082839905 -25.67790504080109 0.3624621608157768 26.66604566535248 2.0795130078408226 35006.767713732734
-25.263827000616864 1.7616315877910422 26.696935507958887 1.9307247752200851 33813.5719381328 -23.969941532558718 -0.5122403352137046 25.590617316475896
1.6249660104089467 552.406741380385 -25.290374646485304 -0.3399421170600121 25.58871175560715 1.695430292948356 161.16940800857637 -25.080938726193125
-0.3151929636657983 26.150585437932747 1.7691701836092857 857.8913490508567 -25.581193309793825 3.3001862442339482 27.572903964318915 0.7209034172404388
217.0526568188868 -23.912266011464904 3.242937644428577 27.68190482919889 0.6924405065781153 154.92539420180722 -24.092746931481255 3.1839584931139155
27.74862097199957 0.706300393922755 102.56721101805049 -24.211512281924144 3.1359873368539253 27.58332068501689 0.6818467458387445 49.758960483511814
-24.106409975243487 3.2481773101855906 27.53238208629037 0.7099261920793456 97.56035022024902 -23.929241680065054 -0.005422277025694644 37.27936599579988
4.181744489485394 59627.92997710627 -35.19391602808335 1.0189794882738428 20.983134947670774 0.41854838658130045 740481.4808887454 -19.75488126610435
0.9704548241145421 19.731160292723633 0.28688095508918837 8455.573788963093 -18.61726499106673 1.7352644249733662 22.81625807747595 0.5158913024244629
31563.30747021812 -20.823048001291106 2.2865390866359547 23.001463146008028 0.6373814150585393 40532.912407094605 -20.396233351842532 2.8428527206143124
23.60126062972428 0.6198076149335523 31912.08271543174 -20.448504101641248 0.8197498805463879 19.386569297870746 0.28230706977817 915.0544010860075
-18.425665882435375 1.0292411648337678 19.725875287500926 0.3209142702506924 599.0341606272298 -18.536176987542056 1.0655412957744883 20.614530556317277
0.3584723976051684 1401.3556955307145 -19.369753061739885 2.510028280967655 23.383986664375357 0.19207926774318332 235.32360867762 -20.77791874953627
2.4361793481457767 23.69994531592821 0.22038248289121132 92.57931791112728 -21.153574726336934 2.3479727404393103 23.978605301364574 0.23056584118379525
78.01306156329653 -21.515349640333415 2.18020229208775 23.70853315697199 0.18261766137108693 15.234006994304249 -21.4370220341987 2.347318908481609
23.285595955573122 0.18289155192312498 126.61454910232356 -20.846831271130156 -10.889092782413355 29.405199344185895 6.946990570114167 16.923867670747903
-36.82079684154214 0.4296062655842616 20.937127769157282 1.0404898438570986 622.2381795981487 -19.98727658164437 0.6446070948289392 20.32976773191005
0.5495805006288313 205.98290614420137 -19.41037038676669 0.20835315077009456 21.65161294547675 0.7692988849515318 37.094242749885545 -21.058610352230914
0.2780937902147378 21.915365907173243 0.9023509213796695 22.821751037493776 -21.186096656268706 0.3621272850161603 21.42785001237828 0.9955218788518854
161.05191729506032 -20.56796178793589 0.78249273476665 20.23768690230781 0.31544272475554636 25.504458977783152 -19.2974728051634 0.7623508049405546
20.594793889912136 0.4433220187191543 11.57644430931915 -19.610782075612043 0.7532867072862011 20.796028758023766 0.5944489501771946 128.97963942213008
-19.74551757564884 2.1606513723556104 22.89119629934067 0.39472007785140606 0.28390223661218567 -20.53318488805939 2.245154924293034 23.533280075282917
0.4972911705957125 1.561689674883363 -21.039479565692044 2.3264040664647787 23.38511848234564 0.43978878571304564 37.050268244258575 -20.838820023024333
2.159641010777295 23.151729949584958 0.4101078606312961 2.5553287256508805 -20.78703500849202 2.143404220461661 22.839553185265228 0.3778023155267987
0.08987856954339048 -20.50724780704013 -20.345747061885433 30.84653987908038 9.730157150243263 2.2018778479685026 -46.327208365844214 -0.40684014018080156
20.419815424624222 1.8814393532459979 19.387526332095586 -19.885935888182093 1.5189300513330892 20.38005270093636 0.7209072988347907 9.826235492398247
-18.500669000185948 -0.19841475804766306 20.79261390672563 1.6448696761186297 5.862807196657269 -20.168593826713963 -0.09642752854788741 20.92466726949504
1.6730559052655054 9.095021379431616 -20.18456684541014 -0.1646659620529934 20.914796890322325 1.766678785014543 3.5261486044225663 -20.196123459868026
1.3663238546616974 19.706000324584124 0.5027138511656791 3.5955623362874647 -18.088319544339587 1.3548306065984546 19.77755095537367 0.5491513376269953
6.357326300138687 -18.148144679961707 1.3738349567454864 19.838476480074583 0.572557749142462 1.2632750098076573 -18.17836264875786 3.166760188263465
