try_energies_noise_scf_features/try_noise_scf_dft_b3lyp_def2-SVP_813.npz (npz, 11959 bytes, 4 tensors)

coords f8 [27, 3]
000000 00 00 00 00 00 00 00 00 00 00 00 00 00 00 00 00
       0.0 0.0
000010 00 00 00 00 00 00 00 00 1b db 8d 12 dd 5c 52 3f
       0.0 0.0011207732115658456
000020 c7 b7 b5 81 ee ce 99 3f bf d4 5d 2b a9 c0 7f bf
       0.025203444163189006 -0.007752095048876472
000030 07 19 8d 7e 10 37 c7 3f a5 50 0b 47 8b 24 c6 bf
       0.18136793307548535 -0.17299023598628085
000040 c2 29 f8 48 57 ef f7 bf 44 9f d9 49 04 2a c4 bf
       -1.4959328508726775 -0.15753224950753453
000050 b2 a3 13 94 d6 7a f0 bf 17 ff da 57 22 cb 01 c0
       -1.0299897941824665 -2.224186598177663
000060 e7 d0 b5 6f e1 11 ee 3f fb a7 08 0e 6b b2 e9 3f
       0.939682691749593 0.8030295633409418
000070 f8 fd 1b 97 9a b0 00 c0 24 4f f0 02 de de e7 3f
       -2.0862323575417996 0.7459554726978905
000080 df d8 36 f0 62 db f1 bf 67 46 0a e8 7b e0 e6 3f
       -1.1160611518258106 0.7149028331788941
000090 66 ba d7 23 80 fd fc 3f e4 b9 53 f0 a7 c5 f1 bf
       1.8118897819619177 -1.110755862023887
0000a0 27 ab d9 55 33 9e dc 3f 7e 49 48 41 12 5b d6 3f
       0.44715579398932664 0.34930855155212004
0000b0 b5 86 d5 18 59 d0 00 c0 c8 96 0d a9 dc 2a db 3f
       -2.101732439056685 0.4244910860928539
0000c0 ec a1 b8 dc 3f 44 e6 3f c6 66 59 36 43 6d ef bf
       0.6958312331162779 -0.9820877133854189
0000d0 6d ae 56 dc 8c 58 01 40 44 e0 68 a4 e3 3f f7 3f
       2.1682374204590844 1.4530979559185804
0000e0 db e4 11 68 64 5b c1 bf a4 72 47 16 21 e3 07 40
       -0.1356015689996529 2.985902952247061
0000f0 88 88 8f 25 57 19 f0 3f 6b be 26 e6 74 37 ce bf
       1.0061866252149532 -0.23606740224703357
000100 cf a8 9e db c9 29 11 40 e6 6a e0 15 28 c5 f9 3f
       4.290809089239885 1.610633931594458
000110 e1 03 f8 80 58 0f a0 3f df 15 b4 66 bb 57 14 40
       0.031367078536284294 5.0856758162894655
000120 93 5a 4e 66 bf e0 a1 3f 25 e4 19 2f 76 f4 f3 bf
       0.03491781352857006 -1.2471830215347464
000130 8f bd 87 7b 47 99 11 40 24 aa 48 70 8f 9f c8 bf
       4.399686746749821 -0.1923693941365211
000140 2a 5c 0d 63 4e 13 fb bf 60 81 f5 2a 86 52 08 40
       -1.692213427469833 3.0402949672863286
000150 6b a7 9f 84 6f 53 f3 bf c2 ca bd ef 97 3c 05 c0
       -1.2078700237857116 -2.654586670855992
000160 69 f9 3d 94 bf aa 06 40 32 3e e7 3a 68 02 f6 bf
       2.833373220578484 -1.3755876828107714
000170 dc df 94 33 34 e1 07 c0 33 10 13 03 34 00 fd 3f
       -2.9849628476913335 1.8125496025177312
000180 91 aa 19 58 2a 14 fe bf d7 f8 05 7d d0 4a 09 c0
       -1.8799231950203288 -3.1615304725120086
000190 11 d5 35 39 1a 4d 0f 40 db 81 54 00 34 27 05 c0
       3.912647673564273 -2.644142153338391
0001a0 c4 85 36 82 76 3f 0f c0 17 5a a1 a1 75 36 0e 40
       -3.9059877560509637 3.776591551529474
0001b0 f9 7d 91 7a fc f0 f9 bf 9e d3 e1 ab a3 0b 06 c0
       -1.6213345325303392 -2.7556832721988505
0001c0 ac 24 72 b7 13 f6 14 40 08 d7 30 10 64 99 01 c0
       5.240309587804557 -2.199897886744001
0001d0 0f 0d 9b 32 df 32 09 c0 21 b5 3d 93 5e 3c 18 40
       -3.1498397782867253 6.0589545256055155
0001e0 23 1d 46 56 91 78 e4 bf c3 b7 11 ec 4c 50 fc bf
       -0.6397177395855674 -1.7696046086743855
0001f0 09 d4 2d d8 40 0e 16 40 d2 e7 d3 5e 25 0a dc bf
       5.513919236943374 -0.43811926136515666
000200 2d bf 1d 27 92 44 f6 bf 51 70 d2 49 3a 05 1a 40
       -1.3917409446693896 6.50510516497532
000210 3e e2 05 a5 25 e5 01 40 1e b1 c1 c5 e8 ed e1 3f
       2.2368882076664525 0.5602916586335913
000220 49 d0 81 f9 a6 48 05 40 31 67 bf 24 86 2e fa bf
       2.660474728845689 -1.6363583980041307
000230 f4 66 12 33 9e 71 ca 3f f9 ca 5e db 32 1a f4 3f
       0.206592345178073 1.2563961571838134
000240 b4 80 a5 55 37 7b fd bf 11 1f 49 b7 30 01 eb bf
       -1.8425820680204597 -0.8438952998921839
000250 70 c5 05 9b 2c d9 a9 3f 49 ed 80 a8 60 1d d9 3f
       0.05048503296246565 0.3924180646460696
000260 25 7c 1c fe 4e f9 ef 3f eb d7 cd 6c 09 fe d4 3f
       0.999183174429963 0.328005176786404
000270 cb 09 93 84 d4 7a ef 3f 1e 46 a5 63 31 c6 e4 3f
       0.9837439145415429 0.6491934725001476
000280 a4 3a fc f0 14 6b 08 c0
       -3.0522860362028315

energy f8 []
000000 a0 af ac c4 68 02 4c 40
       56.01882227355895

noise_sigma f8 []
000000 7b 14 ae 47 e1 7a 94 3f
       0.02

features f8 [27, 14, 5]
000000 5a ee e4 35 f6 d6 33 c0 40 17 e6 2f b1 9c 44 40
       -19.839694374457714 41.22415732130912
000010 2b ba 3b 49 c7 8e 21 40 85 93 45 25 7e f3 de 40
       8.778864182034416 31693.97102488905
000020 16 16 b1 61 53 56 4c c0 8d 6d 61 7d fa 70 04 c0
       -56.67441960474768 -2.5551652713163038
000030 2a 44 52 db cf 38 38 40 aa 8e cf 56 47 7a ff 3f
       24.22192164190725 1.9673531905217865
000040 f9 3f 72 ac 3c 8e 20 41 b2 dc 47 f0 1c cb 39 c0
       542494.3368091575 -25.793410317940193
000050 c6 70 1c b8 3d 3b f7 bf 43 54 88 0a f8 06 39 40
       -1.4519631568755798 25.02722230747555
000060 6d 5c 76 f8 b0 57 fc 3f 44 e8 88 f7 cd d6 d5 40
       1.7714090066490613 22363.218233324835
000070 5d 69 46 5e ee 97 39 c0 9d c2 25 02 73 3e f0 bf
       -25.593480961027456 -1.0152463992964507
000080 3b f7 d8 8b 57 88 3a 40 0e b6 50 7c f7 05 01 40
       26.532585850210335 2.1279134475833024
000090 fa 75 46 55 b5 74 e0 40 fe 47 36 44 df 7b 3a c0
       33701.66665957491 -26.483875525715113
0000a0 c9 d2 89 f5 7e 40 05 40 32 22 5d 20 f3 49 3a 40
       2.656492155331169 26.28886606477517
0000b0 62 b3 ad 2d 1e de fd 3f b0 9c bf 11 d9 da e1 40
       1.8667279991452337 36566.78341656306
0000c0 2c 79 3e 50 f2 b2 36 c0 05 df 14 e8 5a fa e0 bf
       -22.699009909870412 -0.5305609257547707
0000d0 29 69 2c e9 81 20 3b 40 b9 03 2e 85 3d 23 01 40
       27.126982282011486 2.1422071842830204
0000e0 c3 d0 01 9d 9a 73 e7 40 64 32 1a e8 20 96 3a c0
       48028.83166590475 -26.586439615627015
0000f0 7f 71 be 73 d8 ad e2 bf 9f 78 ef 65 59 a8 39 40
       -0.5837213764785217 25.657614108051913
000100 45 f6 e2 d3 13 4f fa 3f 17 d0 ee e2 7c 50 74 40
       1.6443060185259963 325.0304898575427
000110 6d 54 ee 8a 4f 6b 39 c0 8a bb b2 94 18 8c bb bf
       -25.419182475267394 -0.1076064456017162
000120 e1 5c 12 2c d5 83 39 40 b6 80 48 d9 90 81 fa 3f
       25.514971498950107 1.6566322791696115
000130 f0 af 76 0a 32 12 75 40 6f cb dc bd 54 cb 38 c0
       337.13721701013765 -24.794261804966876
000140 7d 6f 01 e5 33 f4 e1 bf 5c db 77 ac b3 52 3a 40
       -0.5610599015012522 26.32305410314744
000150 d6 da 88 2a 80 16 fd 3f 96 4a 59 63 ff 1b 75 40
       1.8179933225161924 337.74985060576853
000160 96 a0 4b 4a a1 f9 39 c0 78 d6 f4 17 cb c0 09 40
       -25.975117343391126 3.2191373702615316
000170 b1 3d 6e 78 6b 8b 3b 40 06 d4 5e c2 b2 26 e6 3f
       27.54460861865454 0.6922239109322852
000180 9f e2 5c 90 5c d6 64 40 d3 27 66 4a b7 fa 37 c0
       166.69879930631302 -23.979359292927096
000190 35 78 84 a6 d0 fe 09 40 bb ba 75 45 30 cc 3b 40
       3.2494214066673757 27.797611562006505
0001a0 4e 2a e8 90 4d 41 e6 3f 4e 28 1e 04 0e 7a 60 40
       0.6954715566838077 131.81421094789624
0001b0 4c 8b 61 fa 50 33 38 c0 00 54 c2 48 a3 1b 0a 40
       -24.200454376997456 3.263495033674644
0001c0 46 4f 2e 87 a6 e2 3b 40 e0 94 a1 bb fb 54 e7 3f
       27.885353516393728 0.7291239418670123
0001d0 eb 91 0e c8 18 54 65 40 5b 7e 27 2f de 41 38 c0
       170.62802508207037 -24.257296511785494
0001e0 75 60 ce 23 d6 8a 09 40 21 94 56 5b e0 ba 3b 40
       3.1927912518840977 27.729985912930832
0001f0 34 26 31 46 8f 8d e6 3f f9 b0 fb 0a 38 5c 29 40
       0.7047802325188912 12.680115073417698
000200 d3 03 c4 59 4f 2f 38 c0 f9 82 2a 6d 7f 89 09 40
       -24.184804544787607 3.192137577876903
000210 2a 99 a0 46 0f 7c 3b 40 11 de d2 0e 7d e4 e5 3f
       27.484608091553277 0.6841416635060701
000220 29 df 5f b6 1e a2 61 40 49 fd bf 64 4d f3 37 c0
       141.0662490723128 -23.950399681923304
000230 51 10 cd bc c7 07 f3 3f eb 1a c6 da 77 87 42 40
       1.189399468902611 37.058345171671895
000240 c1 0d 58 1f 5b 2c 10 40 ab 70 63 4b 7a c6 e8 40
       4.04331635451257 50739.82170269018
000250 ec 30 ea ea 73 ec 40 c0 9b 7b 25 87 92 59 f0 3f
       -33.84728752551186 1.0218682555348326
000260 3c 79 11 25 34 f3 34 40 b0 63 40 5e 87 7b da 3f
       20.95001441647149 0.413789598505498
000270 65 1d 65 89 85 39 23 41 81 9b e2 ed a3 b8 33 c0
       629954.7683495699 -19.721251361679155
000280 33 07 ce 69 78 22 ee 3f 20 52 92 18 72 b4 33 40
       0.9417078081607769 19.704865966532566
000290 90 f4 c2 9f d2 61 d2 3f 18 99 60 12 a6 06 b3 40
       0.287220626847394 4870.648717915894
0002a0 aa 5c 04 b0 9a 9e 32 c0 c6 2d 1f 1e d2 b5 f6 3f
       -18.619547844948706 1.4193898369438656
0002b0 e6 35 ca 76 7e c0 36 40 ef 96 e5 8d b5 86 df 3f
       22.75192968785077 0.49259699685204245
0002c0 2b ac 92 8b 87 cd e1 40 36 78 cc e9 13 16 35 c0
       36460.23578771235 -21.086241352481203
0002d0 66 6c 51 96 01 95 0a 40 18 ed b7 80 37 d0 36 40
       3.322756933555456 22.813346905616612
0002e0 c6 bb 09 c3 a2 e2 e3 3f 0f 96 5b 11 b2 33 e4 40
       0.6214155015312535 41373.564618867
0002f0 c2 96 e1 c2 0c 2e 33 c0 46 34 a2 48 c8 f0 fc 3f
       -19.179882221293845 1.8087847554445644
000300 a9 d3 98 30 b2 87 37 40 28 9f 25 db 9a a8 e3 3f
       23.530062711058836 0.6143316536153849
000310 a2 75 dd ad 0d 62 e9 40 ed 19 a2 40 03 6a 35 c0
       51984.42747376418 -21.414112128806597
000320 11 1c 3c 3c f2 3f e9 3f 34 fd 94 02 80 50 33 40
       0.7890559364758493 19.31445327889851
000330 96 10 c2 42 9f a8 d1 3f 6b 70 30 88 45 cb 83 40
       0.27591687697737066 633.4089511665637
000340 20 98 2d 32 2f 63 32 c0 d4 97 3a 29 11 c0 f1 3f
       -18.387438903933912 1.1093913660529227
000350 af a5 0d 96 89 a5 33 40 fc 40 86 68 27 a0 d4 3f
       19.646630647975766 0.32227502067054536
000360 2a 65 2d f7 0c 16 8f 40 2e ef a8 34 48 60 32 c0
       994.7563308283327 -18.37610177158711
000370 47 b1 2d 40 84 ff ee 3f e6 86 86 c4 1b 97 34 40
       0.968690991734129 20.59026745113706
000380 97 fc 0f 1d d3 44 d6 3f ae de 27 8e 2c 80 7c 40
       0.3479507240117043 456.01087775777967
000390 1f fa 4a fc 95 72 33 c0 60 a1 a3 b2 23 b7 02 40
       -19.447601097397747 2.3394235569177653
0003a0 84 58 89 2c fc 2e 37 40 60 06 4a 83 22 a2 c6 3f
       23.183535369426423 0.17682296190837388
0003b0 b6 24 9d b4 86 95 63 40 f0 99 b1 93 75 c1 34 c0
       156.67269354526587 -20.755700331554124
0003c0 e3 b0 2a a3 c1 a4 03 40 88 09 f3 b5 70 8d 37 40
       2.4554474589732407 23.55250107940222
0003d0 60 84 7a 20 11 c9 cb 3f 93 2a 95 01 b0 da 57 40
       0.21707357488506585 95.41699256484053
0003e0 dc 38 6d 70 0f fd 34 c0 32 0d ff ca ab d5 03 40
       -20.988516832986406 2.4793315753064684
0003f0 95 ed 8c 1b 01 bd 37 40 45 f7 f0 cc 00 5f cf 3f
       23.73829815092684 0.24508676535509202
000400 d4 13 b6 f9 c2 44 62 40 30 1b 60 a1 ec 22 35 c0
       146.14880071222308 -21.136423192943028
000410 c5 ad 1e c1 0c bd 01 40 2a f6 88 e0 30 7a 37 40
       2.217309483288519 23.477308305204282
000420 34 d9 7e 70 8f 0b c6 3f 61 19 b3 03 0b a0 39 40
       0.17222779267258093 25.62516806719339
000430 88 a1 f4 b8 83 2c 35 c0 72 22 da d0 36 d4 01 40
       -21.173884925579415 2.228620177895487
000440 58 f0 37 bf ef 17 37 40 93 84 50 00 97 ac c6 3f
       23.093501998097366 0.17714202418668332
000450 4b 2a a5 75 02 4c 5c 40 aa 5b 1c 4e bc c6 34 c0
       113.18765011910834 -20.77631080810867
000460 15 e6 16 6f 72 c8 25 c0 58 28 f0 dc 51 7e 3d 40
       -10.891498061700114 29.49343663085196
000470 bf 6d d2 66 08 bd 1b 40 d8 91 da 8c 91 74 2d 40
       6.934602362245129 14.727672959977028
000480 cc a6 d0 03 75 75 42 c0 73 3a f9 16 c3 15 dc 3f
       -36.91763351142944 0.4388282512999588
000490 1e 4c 11 8d 38 f5 34 40 29 5c 4b f8 2b b3 f0 3f
       20.957894150469762 1.0437431048392318
0004a0 39 1e c7 6a cf 9c 87 40 ba 0c f3 20 48 ff 33 c0
       755.6012778812502 -19.997194346750554
0004b0 9e 95 19 e3 d5 81 e4 3f ca 88 ab 40 f8 66 34 40
       0.6408490596337975 20.402225534323215
0004c0 11 c6 de e3 83 c3 e1 3f d7 2d 75 e5 47 62 72 40
       0.5551166010465655 294.1425528123195
0004d0 e4 40 03 82 db 7b 33 c0 4f e1 01 90 63 81 c9 3f
       -19.483818174166018 0.1992611363564358
0004e0 f5 a2 75 20 ad af 35 40 bc fe af e3 1f d3 e8 3f
       21.68623545524584 0.7757720419903857
0004f0 bc ff 81 19 97 37 47 40 25 df c6 d9 5d 19 35 c0
       46.4342986950646 -21.099088297894145
000500 3f c4 91 fd 64 86 d0 3f 92 3a 65 4e 36 ee 35 40
       0.2582027889503173 21.930516147340832
000510 db eb 5c f7 bd 59 ed 3f ec 6e 4e c6 bb 9d 4b 40
       0.9172048407848438 55.23229292707205
000520 dd 7f 91 c2 b5 36 35 c0 96 86 cf ec 1b 8e d6 3f
       -21.213710937998133 0.35242365003623755
000530 01 d5 ff 53 2b 7f 35 40 db 68 52 6e 35 cd ef 3f
       21.496754884680744 0.9937998919224599
000540 3b f9 6c a2 2b a9 5a 40 ac 4d 93 0e be a5 34 c0
       106.6432882370181 -20.64743128868365
000550 a4 00 4f df a1 7b e8 3f 24 6d 55 21 de 49 34 40
       0.7650918351646578 20.28854568801502
000560 ee 5f a0 8c 3e 72 d4 3f 26 75 8b f9 e8 82 3e 40
       0.3194729207330046 30.511367413089054
000570 5f b4 41 95 1c 5d 33 c0 cb 55 a7 ee 24 48 e8 3f
       -19.36371739248386 0.7588066731647641
000580 c7 5a 89 e7 f8 a0 34 40 fd db 35 4e fc f6 dc 3f
       20.628797980340803 0.4525748027585335
000590 80 6e cc 9a ed 71 3f 40 6b b4 77 c7 c9 a4 33 c0
       31.44503180972106 -19.64370390579681
0005a0 01 e0 4c 45 99 a5 e7 3f e3 ac 9a 59 19 df 34 40
       0.7389646867295597 20.871480560553106
0005b0 c9 5d 4d 92 4c 02 e3 3f e4 5d a0 95 24 e8 50 40
       0.5940306527581295 67.62723293934647
0005c0 56 10 27 5d e3 d5 33 c0 81 30 e7 c7 0a 29 01 40
       -19.835500547444404 2.145040094130366
0005d0 91 43 0b cf 40 f7 36 40 aa 09 14 13 2e c5 d9 3f
       22.965832653284057 0.4026599108039145
0005e0 a5 40 50 eb 53 35 da 3f 6b 35 e8 19 95 9e 34 c0
       0.4095048711760774 -20.619462603751725
0005f0 dd 2f 98 6e 9f df 01 40 86 ab 50 e9 4f 9b 37 40
       2.2341908111757065 23.60668810100062
000600 49 0c cd 84 3f 3e e0 3f a3 81 4c 6b 5a 85 08 40
       0.507598647477047 3.065113867065706
000610 58 71 6a fd 62 1e 35 c0 f7 30 94 34 4c 87 02 40
       -21.118697966086387 2.3160633189892184
000620 31 36 85 1d 5a 71 37 40 e4 30 57 2b fc f2 dc 3f
       23.442781300566086 0.45233062965850324
000630 cd 68 b6 a9 9a 8b 49 40 ad 01 9c 9e 8a e6 34 c0
       51.09065743834217 -20.900552666747604
000640 3d 6f 42 db 9a 31 01 40 2e 90 b7 5e 98 37 37 40
       2.149221146550103 23.217168731513247
000650 fd 53 4c 60 e3 6d da 3f a8 e7 c4 f0 92 58 08 40
       0.41295704273335315 3.043249016770421
000660 98 a9 8e 3c 89 dc 34 c0 01 6f cc bf 5c f7 00 40
       -20.861469063596445 2.120782373834914
000670 43 53 18 69 e2 e8 36 40 4d c7 a2 cc 94 96 d8 3f
       22.909704750479488 0.38419074996919705
000680 3d 03 27 1d 00 f2 bb 3f d8 7f 85 a7 c9 98 34 c0
       0.10916138374069546 -20.59682700165999
000690 8a 96 fe bb 5e 59 34 c0 b3 b3 c8 f9 fb 0b 3f 40
       -20.349101781516346 31.0468135943408
0006a0 cb 76 be 8a ad 71 23 40 5c 95 38 99 c6 24 01 40
       9.722027145147328 2.142956921614923
0006b0 4b d6 8b a9 77 44 47 c0 b0 6b 8e ef 58 5e d8 bf
       -46.534901803283525 -0.3807585086266796
0006c0 d9 19 bb e1 82 83 34 40 4f 05 28 15 9f bd fd 3f
       20.513715847186038 1.8587942911547832
0006d0 3d a1 f5 eb 16 9f 32 40 67 13 d0 4c 0f f7 33 c0
       18.62144350764105 -19.96507721023536
0006e0 df c5 5b 2c 41 59 f8 3f e2 8d 07 97 aa 97 34 40
       1.5217906697038115 20.592446746200842
0006f0 3d f0 32 6d cd 68 e7 3f 5b 33 fe ea 9f 3d 24 40
       0.7315432675163788 10.120360702066753
000700 c1 05 8d 4e 73 b4 32 c0 d5 03 fd 54 32 aa ca bf
       -18.704884442738834 -0.20831898832150722
000710 03 30 5b ee 3b f2 34 40 02 cb 1c a1 c4 39 fa 3f
       20.9462269756914 1.639103535981747
000720 74 dd b2 de ba 51 16 40 ae 43 fc 2d c2 55 34 c0
       5.5798144146605075 -20.334994196022016
000730 ba a1 22 5b a3 8d b6 bf 09 97 4e e9 8f 1b 35 40
       -0.08809872603399685 21.107664663016326
000740 8b dd a8 53 72 af fa 3f 71 75 78 d1 c3 64 23 40
       1.66783363990348 9.696806474642218
000750 c1 72 0c fa a1 5c 34 c0 02 9b 39 14 da 6f c4 bf
       -20.361846569098592 -0.1596634482150066
000760 f4 b4 4f 51 7d 14 35 40 60 ff 7c 51 70 fd fb 3f
       21.080037195167236 1.7493746932159056
000770 56 89 6d 53 5d 35 18 40 34 40 ec 82 71 5d 34 c0
       6.052113822517944 -20.365013296774308
000780 e8 54 6d 6c c3 8a f5 3f 13 f1 cd df 0d dd 33 40
       1.3463777766640366 19.863492954043135
000790 82 dc 3d 40 63 43 e0 3f 40 25 62 9c d3 7e 09 40
       0.5082260374755523 3.1869270532085068
0007a0 52 24 06 1c 54 43 32 c0 13 8a 07 eb f8 4b f5 3f
       -18.26300215864132 1.331047933658401
0007b0 b1 d1 23 d7 16 ec 33 40 7b 3a b8 3a 49 e3 e1 3f
       19.922223516697787 0.5589948794239058
0007c0 57 68 25 3e ff e4 1a 40 23 78 88 23 ca 4f 32 c0
       6.723629923852136 -18.311678143327423
0007d0 06 56 d6 b6 1d ac f5 3f 6c f8 60 20 e1 fd 33 40
       1.3545205251770098 19.991716407465375
0007e0 55 91 0c c8 ed 75 e2 3f d2 7b 54 e9 4b ff 03 40
       0.5768956095894661 2.4996565083415385
0007f0 c7 60 d3 8d 47 59 32 c0 25 2e 14 52 c0 35 09 40
       -18.348748077493635 3.1512457287224316
