try_energies_noise_scf_features/try_noise_scf_dft_b3lyp_def2-SVP_184.npz (npz, 11964 bytes, 4 tensors)

coords f8 [27, 3]
00000000: 0000 0000 0000 0000 0000 0000 0000 0000
00000010: 0000 0000 0000 0000 c512 1cd0 bed1 78bf
00000020: f50a 5737 fb9f 813f 65e7 62fe 64fd a23f
00000030: 2fb7 156e 3fa1 ca3f 1c7f 1354 f397 c5bf
00000040: c114 3489 9684 f7bf 919e 7bab e326 cbbf
00000050: aa62 fd02 64be f0bf 7677 ab1d 4da9 01c0
00000060: 90ac d2f0 350f ee3f 5956 4a71 408b ea3f
00000070: 6000 bea1 e4c8 00c0 4332 4bf4 ff39 e83f
00000080: 75bd 3065 72f3 f1bf 3e8c 4076 d01a e73f
00000090: 945b 8e7f 1fe2 fc3f 557d f8f9 d25d f1bf
000000a0: f0f0 7936 0512 dc3f d0a8 21d4 1a19 da3f
000000b0: 255d 5b40 6fdf 00c0 5a5d f69a 8de1 db3f
000000c0: 5c33 6be8 e182 e53f 1360 4cc6 3c5d efbf
000000d0: 9c48 7c07 339b 0140 5e71 6a46 680a f73f
000000e0: 4468 3271 2deb bfbf 8fc3 f36d 45f1 0740
000000f0: 590f b5bf fab2 f03f 34ad 4d00 58c5 cfbf
00000100: 3b91 8eb5 3453 1140 9a83 6325 3464 f93f
00000110: b6c9 0ab3 49ab ae3f 4b04 3e3e 6e3c 1440
00000120: c8ef 7a43 e021 b13f a7fa 31c1 3fd3 f3bf
00000130: cc09 d037 9d95 1140 cad3 da85 76bb cabf
00000140: 660e dab6 f701 fbbf 5a24 291e a198 0840
00000150: 1d7a 6747 1e0e f3bf d16f 2d71 710d 05c0
00000160: 9a99 811e ac2e 0740 35de 807a 3917 f6bf
00000170: 734f 4fce cb30 08c0 a1fe 03b2 28c8 fc3f
00000180: 5130 1f53 3b53 febf 6952 ca82 54a2 09c0
00000190: ff73 2f28 6759 0f40 05ae 2e7a 6d5b 05c0
000001a0: 277d e5d2 875a 0fc0 6b04 967e 1545 0e40
000001b0: a0db 2ea3 81c3 f9bf 20c4 32ea 09d7 05c0
000001c0: 217e 37dc cde1 1440 12af 9b95 62a0 01c0
000001d0: 21d4 1bf2 0a88 09c0 486a b7c0 c54e 1840
000001e0: 1a84 4ee5 c688 e4bf 3f0f cf2a 02de fcbf
000001f0: a315 e5cb b6fd 1540 2d80 65d4 f16d dbbf
00000200: 53a3 d0ad b948 f6bf 3c71 6caf b41a 1a40
00000210: f9f5 084c 73e4 0140 3da7 ae55 9223 e23f
00000220: 6ba8 e14e 4b38 0540 7e93 dd4e 1a3b fabf
00000230: 5048 14c9 f91e c63f 1507 4f9b 5f4b f43f
00000240: 008f 9f00 ea18 febf 863b 9581 b717 ecbf
00000250: 28da a930 e892 76bf 2039 0312 bb11 da3f
00000260: e58b 9307 96c1 ee3f 7b31 4374 9dbc d63f
00000270: ef7f 4d84 1425 f03f 84fa 3d7b 2aed e53f
00000280: 9e0e f451 1954 08c0
0.0 0.0 0.0 -0.006059403765679765 0.008605921388953311 0.03708949666311304 0.20804589152560868 -0.16869966130524794
-1.4698701247701111 -0.21212430833042054 -1.0464820973194642 -2.2076666181519 0.9393567756245762 0.8294985020354019 -2.0980923305615278 0.7570800563203836
-1.1219352677106518 0.7220232305156811 1.805205820337254 -1.085406280944729 0.4385998756404339 0.40778227535214473 -2.1090989139444383 0.4356416714958492
0.6722268618992575 -0.9801315186514351 2.2007809243014673 1.4400408506981743 -0.12468227399441029 2.9928082075134124 1.0436961639943176 -0.24820995344939834
4.331255757166498 1.5869637928483145 0.05990057287762644 5.059014294181064 0.06692315719095554 -1.239074473065253 4.39610755164399 -0.20884591613653775
-1.6879803793571226 3.0745260578446905 -1.190946844980892 -2.6315640298834997 2.8977892287541183 -1.3806700501717277 -3.023826228900299 1.798866935132459
-1.8953202483126186 -3.2042627542489766 3.918653787563471 -2.6696424050803693 -3.9192043758663604 3.783732403710521 -1.6102310537660074 -2.7299993798010433
5.2205118569250155 -2.2033130348335215 -3.1914271273367523 6.076926242060445 -0.6416964033743426 -1.8042012855739384 5.49776762567254 -0.42858548871845664
-1.392755202259839 6.526079884523195 2.2365480365976933 0.5668422387582052 2.6524873888602563 -1.639429386204227 0.1728203040916605 1.2684017245050587
-1.8810825371119222 -0.8778951197544849 -0.005511195175691465 0.40733219870607407 0.9611311099982883 0.35526214936978534 1.0090527694774172 0.6852009207794514
-3.041063919315845

energy f8 []
00000000: 9016 d2dd a983 69c0
-204.1144856551441

noise_sigma f8 []
00000000: 7b14 ae47 e17a 943f
0.02

features f8 [27, 14, 5]
00000000: a324 5f89 845b 31c0 9fba 415d 0d2a 4440
00000010: 1e63 3df6 f7d2 1f40 4acd 500a 44bc de40
00000020: 9f76 8d22 a0da 4ac0 dc1f 39c6 b3a6 02c0
00000030: 7e40 cd3b 262d 3840 3c99 52a5 7b45 ff3f
00000040: 640b fe86 8a71 2041 20d5 69d7 d087 39c0
00000050: 12ef a60b bec1 f6bf d0ed 43cc dc00 3940
00000060: 261c 88ea 3d67 fc3f 1bbb 0877 229a d840
00000070: 381b aabd be89 39c0 04d1 0e32 8fda e3bf
00000080: 3ba1 a89a ae91 3a40 01fb 5d72 389f 0040
00000090: 1b5d caa1 fc65 d340 8f37 138d 8f26 3ac0
000000a0: 99c6 84b6 7748 d6bf 26e7 e463 f0e3 3a40
000000b0: f413 c33c c0fc 0040 8d47 bf51 8afb d440
000000c0: 4bc8 f23e 462d 3ac0 1d31 f52d 4464 0d40
000000d0: 0350 a4ab 4ac2 3a40 7331 8031 89ca fb3f
000000e0: 3865 fca9 99be d140 5bab 59dc 6d37 36c0
000000f0: 7be7 5cd3 143a e2bf 1ab9 1d1e f293 3940
00000100: 029e 9af2 8cdc f93f 5ae6 ce06 053d 6340
00000110: 64cb 235d de56 39c0 01ef 689e ca6b dbbf
00000120: 9108 9633 f1a4 3940 4352 5175 2566 fb3f
00000130: de6d 24fe 7ccc 4040 b121 6532 6f37 39c0
00000140: eb5e 4ee3 598f bc3f a330 3e28 94ec 3940
00000150: 1a3f 85c8 efec fa3f 5993 011c 8ea2 9640
00000160: 16b8 1650 9df8 38c0 8d86 914d 9db3 0940
00000170: 4453 215c 4e8f 3b40 fede ef8f 4daf e73f
00000180: 17f6 8614 d59b 4940 8862 2f7c 1dfa 37c0
00000190: ee7e 1363 8302 0940 6c1d 8704 5584 3b40
000001a0: a9d4 0612 fc98 e53f 7278 2fe4 3c95 5a40
000001b0: 1b92 dca7 a00d 38c0 84ae 0440 4ac6 0840
000001c0: 63b6 d966 7993 3b40 00a8 13ae 8bec e53f
000001d0: 2133 2659 f1d3 4c40 c2d1 20f0 fd22 38c0
000001e0: d59e 79be 8a7b 0840 eb98 ad83 3a73 3b40
000001f0: da18 c39a a74b e53f 22ff 437e 9425 4840
00000200: 8858 738d 9a0e 38c0 d795 445c 515e 0940
00000210: 26bc c072 4d76 3b40 5d18 ddb6 da16 e73f
00000220: edc8 5e34 6551 4240 01b5 5cdc 27ee 37c0
00000230: c2be f14f 4417 0dc0 3fe3 8d44 dea7 4240
00000240: 807a c8b5 0ee5 1140 d19a c3ec 457a e940
00000250: a577 309e 015b 43c0 329e 8705 a51a f13f
00000260: c050 b86e 1f07 3540 b05a 03ac e44d dc3f
00000270: 1026 d023 270e 2441 dccf 0755 d9bc 33c0
00000280: 99bd 27bb 460f f03f 2690 753f 5dc4 3340
00000290: b39d a21a 4d8a d33f c62e 3887 8831 c140
000002a0: c3d1 8d39 549c 32c0 eb52 ac25 b696 f93f
000002b0: 14db 4c81 25fb 3640 efc0 2105 4659 e13f
000002c0: b0c5 2815 6cf0 d640 3e90 dd06 551c 35c0
000002d0: 3e9a d8cb d8ab ff3f 653a 2589 134a 3740
000002e0: 4eb9 a1f0 428f e53f 0439 934d 3a03 d740
000002f0: 252a a5f0 18f9 34c0 5a6a 5516 186c 0c40
00000300: 41ca 936b cbfd 3740 1aaf 29ae d700 e63f
00000310: dc07 afba f072 cd40 3e78 100a 4518 34c0
00000320: c592 c20e 1b3c ea3f 6539 4a7d 8066 3340
00000330: 42c3 1dbf 51cb d23f cd5c df2a 6799 8240
00000340: 65e9 5501 096f 32c0 c1cc 656e 0b7e f03f
00000350: fa40 ac59 d8d9 3340 3c4b 03bc a9b8 d53f
00000360: a32b 3495 bee4 8140 6fdd 4d4f 86a6 32c0
00000370: 3ac2 09d5 e193 f33f 2420 a52a 32a8 3440
00000380: 50d3 37c3 d6f0 d73f 36aa 066a 027c 9e40
00000390: 8314 ce5f 123f 33c0 5136 b9ba 418e 0340
000003a0: 64e9 c915 5a5a 3740 d353 9ecc bcd5 c73f
000003b0: 76c3 d77c e39a 5e40 6e24 a621 bcd0 34c0
000003c0: 6c31 4414 e396 0240 51cd 7c4a 99c9 3740
000003d0: 1ee1 2448 417f cd3f 7e6b e7c9 f956 3e40
000003e0: 4022 aca6 3d59 35c0 3193 adbc fedc 0140
000003f0: d0c2 eccd 24fb 3740 d46a a9e1 688c cd3f
00000400: 760e cd8a 5f78 3e40 b366 758d f8a1 35c0
00000410: 1a28 6605 9b15 0140 e064 e5ee 80a9 3740
00000420: f284 dc3e 921f c73f 32c2 88c4 cbc8 1640
00000430: 86c3 f9fb ad6f 35c0 0f72 be87 e033 0240
00000440: 1505 c091 5941 3740 0f29 93bf 5d36 c73f
00000450: bb41 e9cc c432 4a40 b9a3 0823 a7e3 34c0
00000460: c08f 979c 7ace 25c0 090e 2e35 c163 3d40
00000470: f037 b575 5bd1 1b40 e053 1b2e 1cb1 3640
00000480: 7897 618a 6968 42c0 d348 93a2 60e0 da3f
00000490: bf19 b702 37f1 3440 07c7 5848 9a83 f03f
000004a0: 283e 6550 c5a8 8840 8506 eaad 9801 34c0
000004b0: aacc 2b80 a292 e43f 9966 551e 3b58 3440
000004c0: 49cf 9909 9baf e13f f29c 81c7 1b30 7040
000004d0: dea0 2d9e e76c 33c0 2cae 7118 4ec6 ca3f
000004e0: 447c 27af 23a6 3540 9b62 6ae2 0163 e83f
000004f0: 8631 0bce 8f06 3140 5bef 6c0b 0b0f 35c0
00000500: 285d cab3 314c d23f d370 3ebc 2de3 3540
00000510: f985 f96d 9e78 ec3f f752 d424 6d8c 3140
00000520: 4161 b77b 1a28 35c0 f4b8 f5f2 d8c2 d73f
00000530: 0ecc 1435 666d 3540 a7aa 9ca5 46aa ef3f
00000540: 8a9c 565d 2d7f 6240 1c82 b2b6 b18f 34c0
00000550: 2798 761a 3cf4 e83f 178b b5d0 253d 3440
00000560: 981a ef5b fd29 d43f 7a42 9440 a1b6 2940
00000570: 1ef8 29f5 2f4d 33c0 cbaf 0391 da73 e83f
00000580: f287 3256 179b 3440 7b7a 690d b727 dc3f
00000590: 436a 99e1 6c82 2140 6697 8f13 299f 33c0
000005a0: 1f71 8a58 b76f e83f cbe0 6fe1 c5cf 3440
000005b0: 41af 3bc4 2f0a e33f 379e f52d d12f 6240
000005c0: 699e 9a67 1fc0 33c0 de57 bb71 8638 0140
000005d0: dd32 77a6 18df 3640 f52e ce1d cdce d83f
000005e0: 168c a2dd 46f6 c23f 812b 043e 6a86 34c0
000005f0: 9c98 035b 09ee 0140 3921 b7c4 4281 3740
00000600: 8183 6774 c258 df3f 6076 730a d1fb fe3f
00000610: 1adf 6d14 d004 35c0 019e 9125 9983 0240
00000620: 6084 638e 475a 3740 fe3e ee53 ed9c db3f
00000630: 5f15 d62d 8097 3c40 2074 098f 9ad2 34c0
00000640: 8e7d 0226 5343 0140 fca1 3729 d723 3740
00000650: 6bf5 a920 551f da3f 4b6c b6f2 45b0 ff3f
00000660: 5bfe 351a 2ec7 34c0 6d94 d939 d50d 0140
00000670: 8213 7697 85d0 3640 1e50 4af5 98b7 d73f
00000680: 2b51 5177 ae01 b73f 4f4c 50be 5b7f 34c0
00000690: 3372 dc84 8d5b 34c0 069e 032b 25e2 3e40
000006a0: c077 bb69 d175 2340 1366 21cf 6e89 0240
000006b0: 2599 b82a 1f30 47c0 8270 7a0f 3233 dabf
000006c0: f0f6 fc13 6878 3440 0b7c 0a42 b01b fe3f
000006d0: 9932 f99f bd3b 3940 d58c 2a5a 57f0 33c0
000006e0: 0b80 2a47 6624 f83f 46a7 8251 d96b 3440
000006f0: 003d 951d f20c e73f aca0 bf38 00bb 2740
00000700: 66aa 9924 5f8d 32c0 d2f8 d5fb f631 c9bf
00000710: db65 9bcb ffd5 3440 33f5 5ef2 5417 fa3f
00000720: b2fe 694e e253 1340 271a 0012 a937 34c0
00000730: 7644 1a03 3a1a bbbf 1c3d 19ab d4f6 3440
00000740: 7883 2a2d 28b2 fa3f f0a1 189b 0a06 2140
00000750: 3d03 b3a3 5d3c 34c0 9723 421f 5c0d c7bf
00000760: 2d1f e806 09f3 3440 fe40 4b96 9e63 fc3f
00000770: 0397 4470 54a9 f33f 7249 74ca 063e 34c0
00000780: ac36 286e a6bb f53f a53c 5d94 b9bf 3340
00000790: ac2b 5e3f b100 e03f cb46 9f72 387a 0640
000007a0: 8940 7d68 fc23 32c0 3f6d 802b 6786 f53f
000007b0: cece 9fba 78d1 3340 e281 5208 457a e13f
000007c0: c6f0 18d5 938e 1640 f17d c633 2933 32c0
000007d0: 5c87 207f ace6 f53f 509c e092 a0e3 3340
000007e0: 30db 90ee 1a6c e23f 0564 e0f6 bb77 e43f
000007f0: 6b50 345f 853b 32c0 c958 90fe b74c 0940
-17.357491098144816 40.328532845587 7.956024024483467 31473.06312961624 -53.70801193148986 -2.331397579782772 24.176364648447354 1.9544636209407846
538821.2636569557 -25.53053041776468 -1.422300382152518 25.003369108757227 1.7752055322068911 25192.538515265198 -25.538066724805702 -0.6204296090786845
26.569070497674357 2.0777443823748176 19863.94737490742 -26.150627915565163 -0.3481730730446571 26.890386813530448 2.123413538649851 21486.16123945224
-26.176853117249532 3.67395816711918 26.758951881041877 1.7369472440360283 18170.401000117155 -22.216520091907437 -0.5695900085622577 25.577913172012906
1.6163453556745258 153.90686359796638 -25.339330502737894 -0.42845406980244155 25.644305442933334 1.7124380667420531 33.5975644758107 -25.216540479364713
0.11156236457315642 25.924135699446776 1.6828458626586724 1448.6387787100014 -24.971150403544094 3.2127023754154096 27.559789426933335 0.7401492892522297
51.21744019117266 -23.97701240689142 3.1262271633457805 27.516922266947788 0.6749248840411798 106.33184151302137 -24.0532326615813 3.096821308272242
27.57607119384046 0.6851251983582642 57.65580286374303 -24.136687286388913 3.060323227011262 27.45011160839287 0.665485193509791 48.29359415359637
-24.05704578462658 3.171053620188768 27.46211926656192 0.7215398379855845 36.635901018411325 -23.93029572738033 -3.636360764088608 37.31147057464704
4.47368892704128 52178.185151865364 -38.71098687521525 1.0690050331121594 21.027823371886143 0.4422542266669707 657171.5699474234 -19.73769122544023
1.0037295637847363 19.76704784984772 0.30531623459907137 8803.066626570548 -18.6106601687659 1.5992948028189697 22.981041032088868 0.5421476459723901
23489.688791459135 -21.11067240628494 1.9794547999132557 23.289360591496365 0.6737379741514731 23564.910984807662 -20.973036804507633 3.552780317765877
23.991385196286732 0.6876028443925606 15077.880697134817 -20.09480345632641 0.8198371208460108 19.400398092862265 0.29365962661454514 595.1753747415729
-18.433731158709083 1.0307726204307956 19.85095749335685 0.3393959365904953 572.5930580211465 -18.650486904630664 1.2236040422250327 20.657015481294493
0.37407464088692155 1951.0023575822247 -19.246374118626147 2.4444613063595075 23.352937089724392 0.1862102507699591 122.420134745318 -20.815370657980047
2.3236753066359395 23.78749528452801 0.23044601462039166 30.339748972891805 -21.348596970581866 2.232907747313583 23.981030340483642 0.2308474637855712
30.47020785814535 -21.632698861277003 2.1355495855141386 23.66212361431542 0.18065097875027153 5.696089812132913 -21.43624853942631 2.2753306012148253
23.25527296960816 0.18134662489166728 52.39663087262621 -20.889269055947555 -10.903279202939189 29.38966686605821 6.954450453935337 22.69183624427012
-36.81572084202975 0.4199449145936686 20.94224564523915 1.03212955723251 789.0963447484583 -20.006235952029346 0.6428997519818911 20.344652076577947
0.5526862323299407 259.00678206091027 -19.425409208431 0.20917679017598922 21.648981997623437 0.762085859506516 17.02563178799894 -21.058762277694182
0.2859005218283124 21.887416615719143 0.8897239826148385 17.548540403210577 -21.156654102583392 0.37126754499958214 21.427340810372748 0.9895356402024235
147.97428767124467 -20.5613054452716 0.7798138157711535 20.238858265230274 0.31506284692697184 12.856699007127862 -19.301513025995625 0.7641423065483591
20.605824839913062 0.4399240141846474 8.754736947991779 -19.62172052627229 0.7636372308075215 20.811613168539036 0.5949934799841473 145.49428461048385
-19.75047919773934 2.15260018208481 22.87146988306164 0.3876221457546614 0.1481407720758347 -20.52505862809949 2.241228781745191 23.504925055226725
0.48979245536434496 1.936478653740231 -21.018800045799345 2.314256948000321 23.352654361053624 0.4314530677447549 28.59179960705421 -20.82267087918092
2.1578734368810677 23.140001846391883 0.40816238584360204 1.9805354577026886 -20.778047216589 2.1317543525242884 22.814538446738432 0.3705809016621532
0.08986940777805745 -20.49749364338305 -20.357628158397528 30.88337963903725 9.730113319525003 2.317105882841824 -46.37595113767228 -0.40937472831297594
20.47033810544866 1.8817598895764174 25.23336219629218 -19.93883288897344 1.5088866023943435 20.421284765622907 0.7203302934448459 11.865236066238445
-18.552233016506214 -0.19683730408355032 20.835934377135214 1.6306962459196483 4.83191797754232 -20.217423558258954 -0.10586893630740399 20.96418256155185
1.6684953464793733 8.511799666172891 -20.23580382461954 -0.18009521032606976 20.949356490774495 1.774321162305625 1.2288402924982058 -20.242291119947772
1.3583130171786406 19.748925469172395 0.5000845182088276 2.809677978025183 -18.14057019288933 1.3453132342609277 19.81824842835959 0.5461754953903972
5.639235810897111 -18.199847446403457 1.3688168493176454 19.889168910824367 0.5756964358796264 0.6396159955794479 -18.2325038435669 3.1624603164483216
