try_energies_noise_scf_features/try_noise_scf_dft_b3lyp_def2-SVP_111.npz (npz, 11967 bytes, 4 tensors)

coords f8 [27, 3]
000000 00 00 00 00 00 00 00 00 00 00 00 00 00 00 00 00
       0.0 0.0
000010 00 00 00 00 00 00 00 00 b2 f3 45 18 b4 0f 8b bf
       0.0 -0.013213545790444179
000020 01 45 50 13 38 f0 69 3f 89 b3 c2 5a 11 f9 a8 3f
       0.0031663031791216993 0.04877523644368071
000030 a6 73 ed e0 47 5a cb 3f 21 1b e1 b5 9e ac c2 bf
       0.21369265063085868 -0.1458929431994074
000040 b4 40 eb 79 f2 43 f8 bf 5f 45 b4 35 89 d5 c9 bf
       -1.5165886652430745 -0.2018291008212527
000050 b1 2d f0 77 e9 83 f0 bf ae ef b8 ba 63 10 02 c0
       -1.032205074795325 -2.2580027187049927
000060 66 02 58 c7 01 6d ed 3f 92 60 84 c7 5b 50 ea 3f
       0.9195565122063953 0.8223093888109523
000070 bd 46 25 04 77 c0 00 c0 b4 80 ef f5 3f c8 e8 3f
       -2.093977005374511 0.7744445613316402
000080 ef ef 25 b2 e4 45 f2 bf be 6f c2 95 9a ce e7 3f
       -1.1420638045228733 0.7439701962462022
000090 5d cc 98 c6 88 79 fc 3f 6c 30 c4 25 04 06 f2 bf
       1.7796714551630182 -1.1264687991379345
0000a0 35 03 b3 31 48 bd d8 3f a4 61 d4 85 92 d7 d7 3f
       0.38655285695499525 0.3725324923448403
0000b0 75 fc 79 8a 51 30 01 c0 ff b5 20 27 49 bd dc 3f
       -2.1485930269696447 0.44905308552810647
0000c0 de b0 d6 2d 4d 19 e5 3f 95 04 b9 ee c9 87 ee bf
       0.6593385596547952 -0.9540757811120267
0000d0 5f 3e 9d d5 30 8b 01 40 5b 1b 87 84 c3 8e f7 3f
       2.1929642380344343 1.4723544289460821
0000e0 8f a3 02 a0 b9 b6 bd bf 81 81 fa 6d 1c ba 07 40
       -0.1160694137239615 2.9658745376656843
0000f0 4e 44 b0 19 c1 7e f0 3f cf a3 c4 54 2b 78 cd bf
       1.0309458735903436 -0.23022977484768467
000100 75 f8 fa 22 82 4b 11 40 7b c7 76 12 19 b5 f9 3f
       4.32373861939242 1.6067133637666007
000110 5f fc b1 5f 51 cd ac 3f 8d b3 a3 a9 92 57 14 40
       0.05625395100741381 5.085520411125697
000120 d0 36 a6 76 10 76 72 3f af a5 5d 86 91 16 f4 bf
       0.004507126150554888 -1.255509877077525
000130 6a fc aa 35 b5 ad 11 40 3d 66 de ae f0 ba cc bf
       4.419636572419316 -0.22445496119034827
000140 16 7c 8b 1a 34 36 fb bf 84 02 54 c0 fd 78 08 40
       -1.7007332837017706 3.059077742160584
000150 62 d8 ad a0 67 0e f3 bf 27 43 c5 46 74 11 05 c0
       -1.1910167957808189 -2.633522560973137
000160 3c d5 bd ff 86 63 06 40 3c 85 cd f7 9c 52 f6 bf
       2.798597333889715 -1.3951692275807792
000170 7a c2 e8 8c 32 20 08 c0 5b ea e2 a9 49 9a fc 3f
       -3.0157214172871223 1.7876679073512125
000180 9c 5f a6 7f d5 f0 fd bf 15 ec 0d 79 bf 60 09 c0
       -1.8712973581623151 -3.1722402055143086
000190 ae 5a c9 ec 3f 46 0f 40 72 cb ed 8b d9 50 05 c0
       3.909301614661067 -2.66447743720476
0001a0 bd d2 10 81 ab 93 0f c0 b2 7d c6 eb 1f 3e 0e 40
       -3.9471044619807274 3.780334321970906
0001b0 66 dc 78 06 d3 2e fa bf 7b c3 40 49 ef 7f 05 c0
       -1.6364317181412615 -2.6874681208504945
0001c0 f9 d5 5f ea a7 f9 14 40 3b 5a 9a b2 99 9e 01 c0
       5.243804609393458 -2.2024415925364145
0001d0 6d 3a c4 1f 4b 4a 09 c0 56 a4 f8 1b 3c 29 18 40
       -3.1612761003264525 6.040268361140155
0001e0 fd b6 84 a9 f3 d1 e4 bf 1d b4 c9 42 ca 1e fc bf
       -0.6506288824946008 -1.757517109766247
0001f0 f2 f7 ad 1c 85 cf 15 40 25 90 5d ee 5c d3 dc bf
       5.452656219595143 -0.45040057447318055
000200 8b 8b ad 0a a3 a0 f6 bf 61 14 33 71 31 1b 1a 40
       -1.4142179886918906 6.526555794470455
000210 99 5e 5e c0 00 e3 01 40 90 b5 44 66 68 01 e1 3f
       2.235841277007989 0.5314218518666838
000220 b0 cd 35 93 87 50 05 40 92 0a aa 2d 18 5f f9 bf
       2.6643210888666644 -1.5857164176710836
000230 b4 04 c0 bf 52 68 c9 3f 8e 19 fd d9 c7 f5 f3 3f
       0.19849619257732842 1.2475050463850468
000240 e9 80 ad 50 1c f9 fd bf 27 18 28 5a fa 93 eb bf
       -1.8733180190538923 -0.861813713156839
000250 e9 5c 1f 55 e5 82 90 bf 49 93 09 d0 ad 3e da 3f
       -0.016124327965226923 0.41007561985161495
000260 3b 19 a4 f8 c6 64 ef 3f 73 f9 4b 6c c5 de d5 3f
       0.9810519081372954 0.34172187400681436
000270 34 92 ff d5 2e f3 f0 3f 1b 4d ce 8e b1 0b e4 3f
       1.0593708380994373 0.6264274396111519
000280 db 87 95 fd fa f4 07 c0
       -2.99461935150701

energy f8 []
000000 90 75 5f f5 1e 15 75 c0
       -337.32005822457086

noise_sigma f8 []
000000 7b 14 ae 47 e1 7a 94 3f
       0.02

features f8 [27, 14, 5]
000000 eb 8d 5e d1 6f 46 31 c0 28 ef 0c 11 a6 d8 43 40
       -17.27514370497185 39.69256795054963
000010 5f 76 e6 89 44 68 1e 40 a3 24 11 33 2e 98 da 40
       7.6018239542878225 27232.721866880205
000020 12 cf 1d b1 59 95 4a c0 06 d6 6b a9 40 55 fe bf
       -53.16679967837821 -1.8958136194245312
000030 fc 58 b4 2c 57 22 38 40 09 a4 88 47 0c 6f fe 3f
       24.134142679243254 1.9021113199507929
000040 60 e3 63 7f c5 5d 1c 41 6c c0 0e d5 32 14 39 c0
       464753.3744044807 -25.078900638677098
000050 66 9c 06 6d 67 83 f4 bf 62 bb 35 8e 5d f0 38 40
       -1.282081056482434 24.93892754375282
000060 fa 24 8d 2b 21 10 fc 3f df 74 97 51 15 6a d5 40
       1.7539378834938462 21928.333104957706
000070 14 ba a9 fb 12 58 39 c0 8d 1a 19 eb 70 a9 b9 bf
       -25.34403965848658 -0.1002417158098103
000080 b0 eb df 8a 87 a8 3a 40 51 82 8a 46 41 02 00 40
       26.658318214100007 2.0011010657329185
000090 00 46 ce bd e7 c7 c2 40 7e 5b 62 e7 0c c2 39 c0
       9615.810479911976 -25.758009397042308
0000a0 0e 34 2f 3b c6 3f c8 bf a8 6a c1 96 e4 f4 3a 40
       -0.18944623842108438 26.956612989636284
0000b0 97 b5 09 c8 e3 96 00 40 04 52 ab d6 0c a2 c3 40
       2.0736766460383467 10052.100301184699
0000c0 86 2b b7 e6 f5 1b 3a c0 42 d2 aa 92 79 83 0c 40
       -26.109220905036203 3.564196725690892
0000d0 d3 f4 fd f6 49 1f 3b 40 48 5b 75 3a 48 a3 fa 3f
       27.122222363472996 1.6648638042003814
0000e0 92 e2 2f 70 ff 0a c0 40 53 ef d4 82 c0 b9 36 c0
       8213.995611177092 -22.72559373568158
0000f0 88 63 ec 58 f3 71 e0 bf 85 c9 c1 b5 af 85 39 40
       -0.5139099823746713 25.522212371646237
000100 3e 60 9b 3a 3c 5b f9 3f f8 7b 46 23 87 45 4a 40
       1.5847742356618393 52.5431865781938
000110 bb 51 b4 6e 65 3e 39 c0 a3 2b 0f 25 64 e8 dc bf
       -25.243735236190087 -0.4516840326220352
000120 c0 d0 5f d4 22 a2 39 40 cc 18 43 f9 6a 1d fb 3f
       25.633343957321586 1.6946820961762112
000130 04 65 6e 58 78 bd 44 40 96 f4 29 0d d9 3c 39 c0
       41.48023515119897 -25.23768694185545
000140 ac 59 32 fc 7b 53 d8 3f f3 dc 7a 4a 4a d5 39 40
       0.38009547833044155 25.83316483974063
000150 1d ff 19 bc 4f f8 f9 3f 88 a3 0b 2d 92 d6 9b 40
       1.6231229160038716 1781.6427499598085
000160 76 43 a9 dc 39 a4 38 c0 3a ab aa 20 b4 19 09 40
       -24.641507903408147 3.1375505973896027
000170 ba 06 6c ca 0c 5f 3b 40 f0 29 be 66 25 7d e7 3f
       27.371288920758822 0.7340266234107826
000180 09 37 3a 70 da ae 2b 40 d4 b8 bb b0 e1 dd 37 c0
       13.841510302645036 -23.866725011663974
000190 69 17 d4 cd 26 4c 08 40 f4 71 54 bd 86 47 3b 40
       3.0371833877897427 27.27939971267365
0001a0 ee 75 07 5f 9d e5 e4 3f 36 68 4a d0 20 b1 4b 40
       0.6530291420019105 55.38381389268072
0001b0 9b d1 1d 6e 6b ea 37 c0 ce 56 d9 e6 cb 4b 08 40
       -23.915701753883337 3.037010005481398
0001c0 e5 e4 08 3e c7 52 3b 40 b2 ec 97 19 02 1d e5 3f
       27.323352696582237 0.659791040408342
0001d0 41 0d 4d 33 13 18 3d 40 46 5a c7 b8 d9 f4 37 c0
       29.094042974769085 -23.956447170896602
0001e0 05 ee 83 dc e8 ee 07 40 96 cc f5 fc 87 36 3b 40
       2.9916550853502053 27.2130125141235
0001f0 29 6e 71 1b 7d 92 e4 3f 6d 6c de 7c 8d 9d 3e 40
       0.6428819213865086 30.61544018202078
000200 00 89 f7 ec 60 e6 37 c0 2f ef 52 9b 0d ce 08 40
       -23.899916468079937 3.100611890285925
000210 e8 9e 87 7c 8e 46 3b 40 cd af 9b 8f 2c f1 e6 3f
       27.27561167059949 0.7169401936384873
000220 3c 5c 71 50 09 ca 2e 40 f6 d1 de 16 08 d1 37 c0
       15.394602311933447 -23.816529683494046
000230 a0 fc ff ab a5 ad 1e c0 31 60 48 2c 10 a8 42 40
       -7.669577300547786 37.312993560161324
000240 ba 28 1b 53 a5 6c 13 40 b0 17 38 67 1f d5 e5 40
       4.856099413426074 44712.98134998919
000250 95 ab 96 8c fa 46 45 c0 d4 40 97 4f 43 ce f0 3f
       -42.554521153993086 1.050357161428157
000260 72 e1 fd df d3 1e 35 40 88 c9 e0 f9 21 8d de 3f
       21.120420455439167 0.4773640575614526
000270 23 bc d6 1a 29 23 21 41 5b 8f 10 67 d5 d4 33 c0
       561556.5524195473 -19.831381265204396
000280 cb 74 54 fe 74 76 ef 3f 86 c9 bd 14 9c ce 33 40
       0.9832100837117194 19.80706910737492
000290 d8 6c 32 8b 16 0c d5 3f 8e 4d ba 57 12 be be 40
       0.3288627967210238 7870.0716511191695
0002a0 ee c0 b4 3f d0 a8 32 c0 68 04 62 33 03 b9 fc 3f
       -18.659427625302605 1.7951690680640926
0002b0 3d 59 a4 3f 89 3d 37 40 0e 3d bd 46 1f 19 e3 3f
       23.24037549745957 0.596816671526456
0002c0 bd b8 8f a5 7c ca c6 40 40 43 53 8f 94 25 35 c0
       11668.973802533344 -21.14679809363156
0002d0 40 ff 98 8b 0b 3a 00 40 c4 50 fe 65 a5 88 37 40
       2.0283423334184647 23.533773779476874
0002e0 80 86 38 86 d9 b1 e6 3f 62 8f 59 bc 8b 11 c4 40
       0.7092101689815564 10275.091685481082
0002f0 26 4d 72 8e 9c 26 35 c0 9e 55 96 49 d1 b0 09 40
       -21.150826361566168 3.2113366841319495
000300 3f 2f 44 62 aa 76 38 40 5f a3 5c a6 a3 5a e8 3f
       24.463537351271267 0.7610643624549133
000310 20 05 c1 ea e7 a8 b4 40 86 ef 77 aa 25 df 34 c0
       5288.90592581153 -20.871668485909616
000320 9e f1 97 05 e1 ab ea 3f ac e3 7a 00 43 79 33 40
       0.8334813222168582 19.473678617479592
000330 9c 1c 3f 3d 18 fd d3 3f 72 50 ea 00 2a 8f 81 40
       0.3123226736174247 561.8955095582771
000340 1f a6 d3 c7 e9 7b 32 c0 91 77 18 b2 53 74 f0 3f
       -18.484035958454225 1.0284001309259774
000350 40 3f 32 5c ed f6 33 40 ff 7e a1 e1 e3 d7 d6 3f
       19.96455932833419 0.35692688974630465
000360 25 54 90 4b b1 1d 82 40 4f 75 4d 59 f8 c1 32 c0
       579.71156990773 -18.757695752535536
000370 86 d9 81 e5 5a fa f3 3f 15 32 54 f5 b0 c3 34 40
       1.2486218419195168 20.764418919616293
000380 e4 4d 6f 24 7e 12 d9 3f 4d b4 90 e6 d0 99 9c 40
       0.391753707486002 1830.4540045366332
000390 84 35 b3 4a e6 51 33 c0 d4 54 02 a7 10 32 03 40
       -19.319920223953446 2.399445824392936
0003a0 ac 31 c1 e5 1e 6b 37 40 c4 f8 0a 1d a0 b0 c8 3f
       23.41844020811702 0.19289018076046294
0003b0 f3 fa fb e4 41 b5 4d 40 fe db c3 30 2c ec 34 c0
       59.4160734396336 -20.922549293343756
0003c0 6b 7a 9e 5a fe 05 02 40 f8 6a 94 90 cd e3 37 40
       2.2529265479673106 23.889855419382883
0003d0 0a 4a c9 97 d7 14 ce 3f 00 3e 80 e3 d7 41 14 40
       0.23501105224075075 5.064300112440378
0003e0 5a d2 a8 ed f8 84 35 c0 26 c1 b3 5e 18 79 01 40
       -21.519423345295174 2.1841285132033077
0003f0 74 21 5f 28 44 0a 38 40 22 e9 bf 37 80 c1 cd 3f
       24.040102503991378 0.2324676773276418
000400 5b f1 c6 da fb ed 33 40 ab e9 50 9c 5f bd 35 c0
       19.929624246187227 -21.739740152124494
000410 90 0e 71 af e4 d6 00 40 44 df de 1e 81 b7 37 40
       2.104928370130274 23.716813973819868
000420 df 75 ee 91 16 08 c8 3f 92 11 7d 4d 67 8d 0e 40
       0.18774683118401378 3.819044690493862
000430 ef ce 5e 72 9c 84 35 c0 c9 e4 ac e2 bd e0 01 40
       -21.51801218809754 2.234737177754685
000440 a2 fd a1 d2 83 54 37 40 29 8d 85 40 f5 55 c8 3f
       23.330136456059 0.19012323046181592
000450 e5 68 b1 cb ed 47 37 40 56 db 0b 21 16 00 35 c0
       23.280972224057127 -21.000337663073275
000460 a2 5d 80 5a 1a cc 25 c0 e3 66 21 03 36 48 3d 40
       -10.898638561410568 29.282074161200295
000470 15 dc ab b3 29 cb 1b 40 7e 42 b2 1a e0 fe 34 40
       6.948401267399295 20.995607059975093
000480 1d 0d f6 fc 6e 5a 42 c0 66 2f aa 90 aa 01 db 3f
       -36.706512088911246 0.421976701044278
000490 64 4f af 85 a6 e9 34 40 1c a6 c0 5b 43 b3 f0 3f
       20.912697177219698 1.0437654098590263
0004a0 0f 57 40 78 be 77 87 40 f3 a0 8e c0 05 f8 33 c0
       750.9680027987068 -19.968837771245443
0004b0 5c 14 39 e1 fa 9b e4 3f 7c 1f 62 63 ac 36 34 40
       0.6440405272375176 20.21356793542462
0004c0 40 fd 41 fb a9 58 e1 3f 2e 5a c4 e2 a6 73 70 40
       0.5420732409838038 263.2282436056147
0004d0 ed 4e 6b e4 69 4c 33 c0 ea c4 eb 7f 35 c2 ca 3f
       -19.298490787695233 0.20905178781644135
0004e0 93 3c de 1f 74 95 35 40 b9 dd 63 7d 64 8c e8 3f
       21.583803169018733 0.7671377610230855
0004f0 50 ee 79 49 c6 96 2d 40 92 d5 e8 22 be fd 34 c0
       14.794481559881348 -20.991182500690748
000500 2c e2 08 d1 9d 3f d2 3f 64 00 62 f9 a0 dc 35 40
       0.28513284123940497 21.861831270624307
000510 f8 6e 83 00 71 d9 ec 3f e5 0c c0 37 88 bc 32 40
       0.9015431413676813 18.736453518283174
000520 16 cf 1b be 3c 20 35 c0 c7 a9 c5 85 8d fd d6 3f
       -21.12592685870103 0.35922563613590025
000530 cc bc b4 31 36 59 35 40 25 27 02 b8 16 d3 ef 3f
       21.348483187318195 0.9945176690973524
000540 f8 96 82 9b d6 d5 59 40 f8 9d bd a0 f3 7d 34 c0
       103.34122359993842 -20.491998716634015
000550 84 50 9e 3d da 0e e9 3f f7 3a c2 a2 6e 2a 34 40
       0.7830630496487321 20.1657506679721
000560 92 02 68 9e d3 27 d4 3f 2b 7e 7c b7 28 5c 23 40
       0.31493082494129354 9.679998144099121
000570 73 78 98 29 a8 39 33 c0 fd 56 fb 3b 7e 74 e8 3f
       -19.22522220585274 0.7642203494567351
000580 e6 be 7e 5b d6 84 34 40 1d c6 b9 a5 08 3d dc 3f
       20.518895834392332 0.44122520622394906
000590 b2 1f 3f d7 87 a6 23 40 aa 70 53 58 b8 88 33 c0
       9.82525513310961 -19.53406288182365
0005a0 c1 22 21 a8 d5 60 e8 3f b9 0d e2 6d 26 b4 34 40
       0.7618206294801767 20.70371138352286
0005b0 53 e0 29 23 5c c2 e2 3f 12 87 5f 0d 80 df 58 40
       0.5862255751408249 99.49219068840856
0005c0 e9 5c 14 50 16 a6 33 c0 8d 48 6c 27 13 54 01 40
       -19.64877796647207 2.1660521583481285
0005d0 d2 d5 14 54 a1 cb 36 40 ef 4c f6 a1 60 46 d9 3f
       22.795430426680305 0.39492049996006434
0005e0 5c 85 55 12 cd ef b9 3f 20 60 e3 2d 92 6e 34 c0
       0.10131532380684888 -20.43191801835212
0005f0 dc 91 a4 1f 01 e1 01 40 59 e3 e7 74 94 67 37 40
       2.234865424356242 23.404609018910694
000600 8b e7 c0 f2 fa ab df 3f e5 06 0e 23 1c f6 f8 3f
       0.4948718424453708 1.5600854272201385
000610 55 cf 0d 5b 1c ec 34 c0 3b 37 b1 3a 32 86 02 40
       -20.92230767333179 2.315525492222972
000620 e5 3d a3 cb a5 44 37 40 2c 01 ba 1d 23 fa db 3f
       23.26815483794589 0.43714216139780393
000630 99 8c 32 78 53 62 31 40 f8 a2 11 3e eb bb 34 c0
       17.384086143818966 -20.734058265024004
000640 22 b3 da 8a 8c 36 01 40 8c 98 2a 66 49 09 37 40
       2.151635250853716 23.036276231192957
000650 17 ef 21 a6 90 46 da 3f 34 4a fa a0 29 05 f0 3f
       0.410556947935889 1.0012604034606172
000660 50 fe 82 b3 ea ad 34 c0 8f 5b 6b 7d e3 36 01 40
       -20.67936250637132 2.151801090086742
000670 ca 67 8d 0b 0d be 36 40 12 80 d2 a1 e3 1a d8 3f
       22.74238655283242 0.3766411857886861
000680 c6 eb a0 46 d0 1d b5 3f 5d 57 9c d4 fa 66 34 c0
       0.08248616909342762 -20.402264869851354
000690 9e 1a 2c 43 32 59 34 c0 fd f5 95 35 e8 cf 3e 40
       -20.34842319323308 30.812136983024164
0006a0 f5 47 03 d4 0a 76 23 40 15 82 99 c5 93 6f 01 40
       9.730551362419627 2.1794810712310757
0006b0 50 9f e0 e1 cb 25 47 c0 a4 a5 4d e8 fe 6d da bf
       -46.29528449504744 -0.41296360669965737
0006c0 a9 0b 24 94 46 6a 34 40 99 29 5d 88 96 34 fe 3f
       20.41513944511431 1.8878388716426342
0006d0 86 ec 0b 97 82 54 31 40 f2 58 82 db 59 e2 33 c0
       17.33011764565574 -19.884183615992647
0006e0 ca 3e 6d ce 55 2b f8 3f 96 43 c4 45 41 57 34 40
       1.510579878191424 20.340839729705827
0006f0 fa 53 e6 06 67 fc e6 3f e8 73 79 5a 46 05 1c 40
       0.7183108458290228 7.005151189482582
000700 6b d6 c1 4c 9a 78 32 c0 92 2d f2 d8 97 01 c9 bf
       -18.471104428599954 -0.19536111920420446
000710 c9 d9 25 41 3d c5 34 40 1b ef 05 dc b4 47 fa 3f
       20.77046591924753 1.64250646540217
000720 06 3c b0 07 f8 fc 08 40 a7 8e f7 c9 02 25 34 c0
       3.1235199547440997 -20.144573805750635
000730 3b 81 a4 99 d2 f0 b9 bf 65 d5 31 05 68 e5 34 40
       -0.10133091212310756 20.896118473688507
000740 ad 07 fc 63 54 c7 fa 3f 76 18 7f 18 1c 41 17 40
       1.6736644654888366 5.813583739049241
000750 a9 99 ab 34 1e 29 34 c0 42 83 9a 84 44 60 c6 bf
       -20.160617153067196 -0.1748128554800364
000760 54 0f 50 27 99 e2 34 40 5c d6 a0 02 09 6d fc 3f
       20.8851494379481 1.7766199209849196
000770 b6 85 07 35 41 e8 fc 3f af 3d 44 68 f1 2b 34 c0
       1.8067028113804162 -20.171652332935704
000780 f9 58 97 bc c1 d8 f5 3f 8d 92 5f 9b 22 af 33 40
       1.3654191367000392 19.684121809800263
000790 cd 4d 8a 70 ea 08 e0 3f ef 68 4c d7 02 aa fa 3f
       0.5010883520175696 1.6665066156479573
0007a0 c5 f3 d3 d5 72 11 32 c0 7e 9e bc fd bb ab f5 3f
       -18.068158497091435 1.3544273292153828
0007b0 96 8b fa 1a dc c1 33 40 fc 79 82 9b 9f 7a e1 3f
       19.757264791649128 0.5462186848924939
0007c0 4c 67 5d 62 d1 6f 0d 40 c7 b7 b0 dc 35 21 32 c0
       3.679598587489556 -18.1297281199875
0007d0 d3 9a 4f d6 5b 01 f6 3f 92 7c e0 95 2e d3 33 40
       1.3753317233583189 19.824929587656307
0007e0 5f c8 37 b1 33 5a e2 3f 3c 0f 60 68 63 17 f3 3f
       0.5735109769141323 1.193210036960365
0007f0 ca a3 b6 09 b0 29 32 c0 f3 1c 26 62 42 5c 09 40
       -18.162842375840945 3.170048491275901
