methanol_energies_noise/methanol_noise_dft_b3lyp_def2-SVP_661.npz (npz, 730 bytes, 3 tensors)

coords f8 [6, 3]
00000000: 0000 0000 0000 0000 0000 0000 0000 0000
00000010: 0000 0000 0000 0000 99c1 3cc5 333d e03f
00000020: fa8d ad4a fa06 913f c73a b840 af64 ef3f
00000030: b837 aa0c 6f01 d23f 63b6 4d22 9e2b ec3f
00000040: 4c27 acab 28d7 e1bf 7fe5 d3b3 3969 d53f
00000050: d109 d652 c26c ecbf 9d73 4432 ffab e1bf
00000060: eb67 f583 c692 f6bf 1a15 1fe0 9ce3 893f
00000070: 0c81 7972 0785 d53f 367c 25c9 eb15 fdbf
00000080: 2338 888e a6e3 9abf 4dbc eb8b 65cf e0bf
0.0 0.0 0.0 0.5074709751407226 0.016628180320720866 0.9810405983024219 0.2813375114136494 0.8803244276038636
-0.5575145104387302 0.3345474487428745 -0.8882762544529276 -0.5522457105431503 -1.4108338503488038 0.012641168203013243 0.3362444513241065 -1.817851815918187
-0.026259043168515583 -0.5253169758633561

energy f8 []
00000000: f81c 5416 fc8a 5cc0
-114.17163618292022

noise_sigma f8 []
00000000: 7b14 ae47 e17a 943f
0.02
