methanol_energies_noise/methanol_noise_dft_b3lyp_def2-SVP_272.npz (npz, 730 bytes, 3 tensors)

coords f8 [6, 3]
0	0x0000000000000000	0.0
1	0x0000000000000000	0.0
2	0x0000000000000000	0.0
3	0x3fe0c616c258065b	0.5241807742861043
4	0x3fa277a4c0b58b98	0.03606905796438936
5	0x3feea7ad4d21a7e5	0.9579683786844241
6	0x3fd01b4701a6ca79	0.2516648784759706
7	0x3feb765607d6c7e4	0.8581953194718577
8	0xbfe3176d891c54df	-0.5966098478262686
9	0x3fd49d11266e5d98	0.3220866084388603
10	0xbfec857647cb8783	-0.8912917520758444
11	0xbfdfbaa5471f3be1	-0.49576694436558283
12	0xbff5a0b97c5c4de7	-1.3517393930277366
13	0xbf9a2b9486413a0a	-0.025556870168935965
14	0x3fd55312e92506d8	0.3331954266360362
15	0xbffd7985364a084c	-1.8421680565520715
16	0xbfa34b80641c2df2	-0.0376854059414561
17	0xbfe0c1c0b4949bd8	-0.5236514594042729

energy f8 []
0	0xc05c8ad7340af233	-114.1693849665542

noise_sigma f8 []
0	0x3f947ae147ae147b	0.02
