co2_energies_noise_scf_features/co2_noise_scf_dft_b3lyp_def2-SVP_410.npz (npz, 2497 bytes, 4 tensors)

coords f8 [3, 3]
00000000: 0000 0000 0000 0000 0000 0000 0000 0000
00000010: 0000 0000 0000 0000 57e1 6a27 5a1d f23f
00000020: dc4a 7c68 ab53 8a3f 0cce 8f23 28bb 99bf
00000030: 8d5d 2c0b a342 f2bf d25a 4a55 b4cf 94bf
00000040: da04 4cd5 fc29 82bf
0.0 0.0 0.0 1.1321660556551103 0.012854899526734291 -0.025128009005085203 -1.1412687717873695 -0.020323579507556762
-0.008869147548013979

energy f8 []
00000000: 7077 2849 976f 67c0
-187.48721750167488

noise_sigma f8 []
00000000: 7b14 ae47 e17a 943f
0.02

features f8 [3, 14, 5]
00000000: 9784 1627 35fd 25c0 04b0 f167 841d 3140
00000010: e17b c6e5 9269 1b40 b505 4348 de8b ff3f
00000020: d322 c49e ecae 38c0 801c 275a 4887 d73f
00000030: 0293 411e 010b 2440 c86b c245 5f5c f33f
00000040: c329 2587 acaf 1c40 f233 14e7 0019 22c0
00000050: a4e6 a008 fdcf de3f a424 3010 0d1d 2040
00000060: a8c8 efe9 c792 d93f 76f0 9a8b 98e6 f73f
00000070: 7bbc 8610 8480 1dc0 aee6 52b8 a594 b03f
00000080: 1a25 bed5 e099 2540 631a c818 78c1 f33f
00000090: 4469 353b 393a 0540 e1fd c008 a03c 24c0
000000a0: 6d7c 0662 0997 ad3f 2dea d32b ef98 2340
000000b0: c8c1 258c eb34 e63f 1929 3bcd 2270 c13f
000000c0: a3b5 10c6 b0c9 22c0 7a75 bc34 b29a ad3f
000000d0: b129 06a4 f498 2340 c671 286b 0935 e63f
000000e0: 3d9e c62f 2c76 c13f ae29 78a6 b1c9 22c0
000000f0: 49b6 bbb4 080f e33f 6435 ef3b e7e0 2140
00000100: 7ba2 0d58 892f e33f 38d3 280e 9e11 de3f
00000110: f90c e365 7a16 20c0 52dc 1201 894b e43f
00000120: b2cf ef87 7ca0 2040 c00e 8751 45e3 ca3f
00000130: 3f0c 37b8 e86a be3f 9a27 77da fa4b 1ec0
00000140: f651 242c ae4b e43f e430 5c8a 7da0 2040
00000150: 7cdf b0e0 36e3 ca3f 81f2 4bb5 586a be3f
00000160: 0b14 b173 f84b 1ec0 f5ac 6b89 981f 0240
00000170: f2a6 6ca0 0d0f 2640 42d0 9e7d 85eb df3f
00000180: 30b9 27b8 857b 903f 7440 1b68 7907 21c0
00000190: 879c 32cf b2e5 fd3f cfd8 2206 3787 2440
000001a0: d5c6 037a 25c5 d03f abcc d260 e663 d33e
000001b0: 1c76 5416 6c87 20c0 7464 ad34 63eb ff3f
000001c0: bca1 de70 b420 2540 a36a 7fbd eb46 d63f
000001d0: f954 c4f7 c64e a73f 83f7 525b 2cca 20c0
000001e0: 06ff f874 801f 0240 41b5 350e 0a0f 2640
000001f0: 53da 0b9d 3eec df3f 7378 bb17 f675 903f
00000200: 1846 83f6 7807 21c0 f70f 5fda a8fa 0140
00000210: 4028 3cd2 8e53 2640 4a44 4578 aaa5 e03f
00000220: 2434 5f58 c47c c13f 223a e247 b74f 21c0
00000230: 0e56 fa37 f56e 34c0 57ff 537f 3ebe 3440
00000240: ace3 8503 a066 2340 2c28 dd4b fe69 ff3f
00000250: 396e 36db c529 42c0 cc3d 2cd2 9e8e dcbf
00000260: ef1a c5bd b4a2 2440 adc2 8ca1 3d2d fe3f
00000270: 3b0d eb85 5cf4 1140 ccb0 3dda 55a4 23c0
00000280: a0e2 7d0f 156a f63f fa39 99fb 42a4 2440
00000290: 7bc5 44fe 6ed8 e63f c0ba af60 02e7 f03f
000002a0: bf57 b7e1 3c20 21c0 8434 1a97 a9d7 8fbf
000002b0: d2b1 f6f7 1770 2640 1a9d b519 3b38 fa3f
000002c0: 7827 21c8 f735 c13f 951e c130 8ad4 24c0
000002d0: 5f15 212a 6ea8 d4bf 3e78 acce 3195 2540
000002e0: e966 c8eb f61a fb3f 2b5e f236 1ad7 e63f
000002f0: 7afa 40d1 c588 24c0 6640 ae01 bda3 d4bf
00000300: 2677 2f2b 4195 2540 b312 dfaf f719 fb3f
00000310: bb57 1aab 7cc7 e63f fff7 3e98 bf88 24c0
00000320: b9c5 1df7 d152 f33f 9a57 5cfe a421 2440
00000330: 6174 91f2 0a27 e23f d02f 3c3f 3bdd e73f
00000340: 4c13 e467 1226 21c0 b018 e89b d41a f43f
00000350: 3690 cb3f 99bf 2340 6fdb 32cc d549 e03f
00000360: 41a7 b761 a782 a13f 4af6 ecfd efb9 20c0
00000370: ab65 2f0f de1a f43f 7362 4660 9ebf 2340
00000380: 21e7 c3fa 8149 e03f d5ac 615c dcbb a13f
00000390: 8d56 8a8e f6b9 20c0 880f 4588 4768 0940
000003a0: ba0e 8d54 4f1e 2640 c438 1116 ecaa e23f
000003b0: 1a10 544c b3a8 773f 3882 9623 cc5d 1ec0
000003c0: 918c 352a 575f 0740 16b9 aa99 c5a3 2540
000003d0: cb0c 2e20 cee5 e13f 96d9 b08b 8678 d23e
000003e0: 0bcb 37bc 8279 1ec0 e080 fedb 97e1 0740
000003f0: 8b41 8cb7 b8c7 2540 bc51 fa69 c84b e23f
00000400: 475c b123 bbb8 963f 8f9d 79fa e879 1ec0
00000410: d216 549e 7f68 0940 aa9d 0407 551e 2640
00000420: a1f4 957d f6aa e23f 4fa8 7cc2 a007 783f
00000430: aad0 05d7 ba5d 1ec0 88a4 c894 8ae5 0840
00000440: 08c6 98c2 920f 2640 de53 a6be 6b18 e33f
00000450: 2595 2f72 d90f b13f 92d4 e27e d97a 1ec0
00000460: d07a 0121 e26f 34c0 a08c 64e8 fdb9 3440
00000470: 96f3 c304 0368 2340 b7f8 5c3e 5c68 ff3f
00000480: 4785 1aa4 ef27 42c0 abe7 9d58 d0fc dcbf
00000490: 6845 eb35 ac9e 2440 8417 7df6 2438 fe3f
000004a0: 8997 acd8 5b90 1140 5f63 4869 10a3 23c0
000004b0: 2f1b 4afa cc5a f63f 49b4 0b2a 869a 2440
000004c0: 649b dfbe 9ac7 e63f 4b22 86fa 87ba ef3f
000004d0: d573 cbb4 ef18 21c0 7c11 ab7b 09d3 8ebf
000004e0: 75b9 a3ee 9f65 2640 67df e0da 2118 fa3f
000004f0: c4d9 0d9d d816 be3f 4096 5493 d2cb 24c0
00000500: d59e b2e7 aed5 d4bf 6dd4 53d0 aa90 2540
00000510: 189d cd4b 6c32 fb3f 86ac 3abf 56da e63f
00000520: 948f d482 3184 24c0 5858 dff3 97d5 d4bf
00000530: 4358 2c0e 9a90 2540 1bb5 70b7 2032 fb3f
00000540: 00bd f3f5 9ad4 e63f b647 54c2 2484 24c0
00000550: 0134 8b4a 3861 f33f 2c0c 5ecb d81d 2440
00000560: ba5a 6d87 e701 e23f daa1 42af ddfd e63f
00000570: d33a d185 a221 21c0 acfd c1f9 6f24 f43f
00000580: 242a 960d 38ba 2340 79b0 ea63 a44a e03f
00000590: a512 f157 041b a13f e594 3eeb 54b3 20c0
000005a0: 44b9 d101 ab24 f43f 0446 611c 39ba 2340
000005b0: 63ec eec2 784a e03f 87f2 09f7 ce14 a13f
000005c0: 7897 0ff6 4fb3 20c0 d658 7344 7363 0940
000005d0: 6437 80f5 e617 2640 3819 7ea1 d99c e23f
000005e0: e9e5 388b cc66 773f d0e0 aeae 4654 1ec0
000005f0: f010 f230 6666 0740 7fce 2a95 f69d 2540
00000600: 45d7 1a44 84eb e13f b22f fa38 6812 c63e
00000610: 17e7 9acd 016a 1ec0 1c5a a270 14ec 0740
00000620: a652 5409 b8c1 2540 1ea1 7403 ab4a e23f
00000630: cb2d be43 c752 963f 312e 202a bb68 1ec0
00000640: 63ce c4df 9463 0940 7702 d1bd e517 2640
00000650: 1c30 5c26 9c9c e23f 90ec e930 591e 773f
00000660: bfda 5949 3754 1ec0 2050 eac0 d1f7 0840
00000670: 8c16 4653 5009 2640 44aa da8d 2909 e33f
00000680: ad90 6c62 00ba b03f 645a 392d 2566 1ec0
-10.994546147822161 17.115301605706932 6.853099432219978 1.9716475317694464 -24.683298037419103 0.3676319961927632 10.02149290609805 1.2100517964342874
7.171556579249628 -9.0488350116884 0.4814446052801975 8.056740289570662 0.39958379598022953 1.4937978223161088 -7.375503786300324 0.06476817846387448
10.800543479405452 1.2347336738618189 2.653429472510796 -10.118408464010772 0.05779294320677129 9.798699731462955 0.6939599740272167 0.13623461743402102
-9.393926801242577 0.05782086271049543 9.798741460563948 0.6939742176942267 0.136418841674855 -9.39393348900634 0.5955852060266774 8.93926417632128
0.5995527953901524 0.46982528097878484 -8.043902572599551 0.6342206021280481 8.313450096153108 0.21006075363958665 0.11881880280911704 -7.5741991172052625
0.6342383253236779 8.313457797769338 0.2100590321658692 0.11881021906078539 -7.5741899563627255 2.265427659605502 11.029400838149261 0.4987500883828525
0.016096200337352318 -8.514598134352333 1.8685787290249054 10.264091674569867 0.26203286090377037 4.622992048886026e-06 -8.264496515093064 1.9949676568706112
10.563876654793482 0.3480786657870942 0.04552289747713618 -8.394869665029324 2.265381730889092 11.029373592430263 0.49879422508766885 0.01607498664713387
-8.51459474899734 2.2473923740635615 11.163199014514362 0.5202228879007944 0.1366200858596197 -8.655695196500407 -20.433429239861702 20.743141134268935
9.700439558118738 1.9633772815163963 -36.32635059507124 -0.44620485806168797 10.317785196600623 1.886045104078373 4.488634197684685 -9.82096750262317
1.4008989911218706 10.32082353825989 0.7139201131996481 1.0563987519087021 -8.562964490538318 -0.015548062251833146 11.218932865966881 1.6387282375597523
0.1344594695277086 -10.415116809438851 -0.3227801715296063 10.791395624688558 1.6940831384912889 0.7137576172999095 -10.26713422697252 -0.32249379314544624
10.791512822670096 1.6938397283530946 0.711851438699106 -10.267086751638997 1.2077197697620774 10.065711926243058 0.5672659623775297 0.7457557902393948
-8.574359175292237 1.256550416002522 9.874216073607482 0.5090130794768423 0.03419993465270333 -8.363159117866548 1.2565594285173158 9.874255188552729
0.5089731118925763 0.034636389042896155 -8.36320920408914 3.175917687041821 11.059198991984307 0.5833645277978339 0.0057761195978436545 -7.591599041043587
2.9215529725639233 10.819866945352754 0.5593023899567923 4.403782607068082e-06 -7.618662777810424 2.9851529299777297 10.890081153746697 0.5717508382681937
0.02218906789161348 -7.619052804634875 3.1760246629154176 11.059242457688772 0.5833694889876321 0.005866649596820108 -7.591533050279546 3.1120807288867276
11.030416566037289 0.5967310641886987 0.06664809262982326 -7.619970305056215 -20.43704420362593 20.726530575321362 9.703148030204641 1.9629785953580219
-36.312000763844985 -0.45293053297029456 10.309907612771624 1.8887071255171302 4.3909753661481625 -9.818484582983443 1.3971681382115084 10.30180484192728
0.7118657806393967 0.9915199177785977 -8.548703813395983 -0.01505095871596817 11.19848581074323 1.6308916616380544 0.11753610452965463 -10.398090938640166
-0.3255421888993458 10.782553205712441 1.6998103104650166 0.7141526923127379 -10.258190239379282 -0.3255367166106047 10.782425349152737 1.6997382321963588
0.7134527972938542 -10.258092949665166 1.2112353240838731 10.05829463503877 0.562732471948798 0.7184894965221773 -8.565693074980492 1.2588958507693446
9.863708901005403 0.5091115905284048 0.03340924809939353 -8.350257254971845 1.2589521475852772 9.863716971277434 0.5090907866755398 0.0333618809281449
-8.350219430354386 3.173559698839294 11.046683952237522 0.5816467432166865 0.005713271140444822 -7.582300881789891 2.924999601733468 10.80852190158407
0.5599995927975462 2.6311758530346926e-06 -7.603522503451834 2.990273361162748 10.878357211631123 0.5716147487155785 0.021800149450013778 -7.60227647611059
3.1736237985549436 11.04667466331851 0.5816174267979508 0.005644176867117726 -7.5822421513645955 3.121005541945138 11.018190958314584 0.5948684473599504
0.0653381576817675 -7.599751192689471
