co2_energies_noise_scf_features/co2_noise_scf_dft_b3lyp_def2-SVP_79.npz (npz, 2500 bytes, 4 tensors)

coords f8 [3, 3]
0.0 0.0 0.0 1.1523960654585517 0.025947814649025135 0.00014758310449748108 -1.1993438703104482 0.011012258702389272
-0.012014990678212047
00000000: 0000 0000 0000 0000 0000 0000 0000 0000
00000010: 0000 0000 0000 0000 d7ef 52db 3670 f23f
00000020: 13eb 475d 1092 9a3f 2da1 ea36 1158 233f
00000030: 5743 ba32 8330 f3bf ead5 da57 988d 863f
00000040: e183 32c0 509b 88bf

energy f8 []
-187.47851013939496
00000000: 2ff0 7ef4 4f6f 67c0

noise_sigma f8 []
0.02
00000000: 7b14 ae47 e17a 943f

features f8 [3, 14, 5]
-11.061687030470003 16.89092448791505 6.876283881220565 1.9453973145593149 -24.51446957777478 0.32778991400281376 9.896656468330526 1.18773484613552
6.279030599618308 -8.974999131259978 0.4566862316224949 7.970697681775342 0.3926286648256238 1.4709051988019366 -7.317697117740017 0.06097260298290063
10.60689273655451 1.2014022127919053 2.192723326755123 -9.94521902717571 0.02822066415461591 9.665213300158959 0.682419289057914 0.1361569189304701
-9.295782991475392 0.028194674218906646 9.664994585258023 0.6822948393107146 0.13551972170959342 -9.295652491383759 0.5491250062697854 8.841409105971634
0.5899389719063062 0.590937723458601 -7.99731461374876 0.6297453494868576 8.215764039831145 0.20542134953506783 0.10471783721276265 -7.48330801557674
0.6297357400244811 8.215614409733238 0.20534789673727696 0.10463180256027542 -7.483204721340122 2.2142228172280407 10.84029220457214 0.4721769762495423
0.010637695433225807 -8.389980899219335 1.8568996495090886 10.093001396193603 0.2536345017523009 1.271111172674886e-06 -8.10928449580836 1.977573858732337
10.382619530620808 0.33371789342280483 0.04079317890831816 -8.238186725177053 2.2142117623345 10.840079395474591 0.4720704072919437 0.010560120770303523
-8.389832429494119 2.219386503115636 10.962286308972827 0.49390502067495745 0.12223761932214768 -8.49594729551972 -20.46503250434134 20.623610808365164
9.708488041187014 1.9609440007639038 -36.23439929211301 -0.48947504201051273 10.22513569044415 1.8908778234476535 4.327878742690177 -9.769171820730902
1.3784719583010503 10.210923374443674 0.710193151853311 0.9071689353624175 -8.477354840216119 -0.0451864966410039 11.093519854161915 1.6293788953349233
0.15613988499452486 -10.32401690313549 -0.34185155157732566 10.69854495015984 1.6920050387954086 0.7026110853103156 -10.19439398233945 -0.3421665879649945
10.698394851508812 1.69226314619473 0.7045309436482209 -10.19442986637644 1.1945406227695938 9.979090413849757 0.5598211758282455 0.7136680873233874
-8.504639203166056 1.2461134040634232 9.782567472733698 0.5055217562867438 0.03497053618527939 -8.283693190526899 1.2460961384363836 9.782462953753857
0.50554943997143 0.03447033633744999 -8.283592095331752 3.1453977899217826 10.951777565238034 0.5787939478874088 0.004560340437248264 -7.516982801372552
2.911576229617609 10.716714773491404 0.5563753248462229 2.9308234417053504e-06 -7.526950881450686 2.9780489886641606 10.78674128762343 0.568040178537614
0.022117495568337548 -7.5246722096904595 3.1452424342452185 10.95170938163497 0.578782197942346 0.0044298723981989864 -7.517075848418578 3.1112803776940963
10.926971456960747 0.5912880113398223 0.06621657488562367 -7.520047073596735 -20.476155500936482 20.54172395695196 9.719341670151042 1.963152091343844
-36.15820862281292 -0.5203673607087982 10.194814453933287 1.90707171281997 3.914691751986718 -9.761645958232165 1.3647859937746525 10.113162766596474
0.7002486068169891 0.6376418831528625 -8.398252469413304 -0.043851394582208485 10.990486718906787 1.5876920608788634 0.0821978865623172 -10.24049208304957
-0.35366767398777244 10.655719903229745 1.722224994254636 0.7102699799870749 -10.148275080090198 -0.3537584606226942 10.65576117590737 1.722354391204152
0.7112769526564368 -10.148342440927985 1.2136710550921033 9.939856662588411 0.5372550613864141 0.5862295586688611 -8.457558076803098 1.2581458564670327
9.731728534045676 0.5068068513227211 0.030382172403865086 -8.220179251917285 1.2580966000443967 9.731679016077177 0.5068244019586021 0.0302512838113619
-8.22017021505348 3.1324692968546235 10.886430540351023 0.5699221454395899 0.004011967056460763 -7.469000170776602 2.9300157634874098 10.660670292438429
0.5605940516933868 1.1080114470671152e-06 -7.450357503104323 3.002756859529943 10.72952304061641 0.5677621428045636 0.019484456034747646 -7.44288510968418
3.1323986959034644 10.886416331770471 0.5699386227005109 0.004023727932417708 -7.469048324516752 3.148223891785079 10.867192702668545 0.582059279800494
0.05845502786515322 -7.427939170983217
00000000: 7be9 4471 951f 26c0 facc 92a0 13e4 3040
00000010: c76a cf8f 5081 1b40 be22 3cef 5820 ff3f
00000020: 6154 3b47 b483 38c0 7c72 268c 82fa d43f
00000030: f473 7e8e 16cb 2340 e18b 0741 f600 f33f
00000040: 8ec6 8f32 ba1d 1940 b0c7 0c16 33f3 21c0
00000050: c088 56e3 583a dd3f c91c b692 fee1 1f40
00000060: 1b7c b9fa d320 d93f 5fee c5e3 d388 f73f
00000070: 47e8 aa64 5245 1dc0 0ff0 860f cd37 af3f
00000080: f65c 0fa5 ba36 2540 4288 d486 f138 f33f
00000090: 73b7 0c87 b28a 0140 a08d 92bf f3e3 23c0
000000a0: 083f 76b6 e0e5 9c3f 0b18 72d6 9654 2340
000000b0: d939 15fa 60d6 e53f 601a f704 976d c13f
000000c0: 2033 46de 7097 22c0 202d c48e 10df 9c3f
000000d0: 8d66 972b 7a54 2340 0536 a2fc 5bd5 e53f
000000e0: 3255 5ad2 b558 c13f c6f2 6ac3 5f97 22c0
000000f0: 5606 eb9a 6e92 e13f d768 a12c cdae 2140
00000100: 7c26 dfb1 c7e0 e23f b946 873a f6e8 e23f
00000110: c47e c70a 40fd 1fc0 2555 1bb8 df26 e43f
00000120: 8974 cd9f 786e 2040 5f9f 132d 3f4b ca3f
00000130: a2fc 22c6 c9ce ba3f e12f e34b e8ee 1dc0
00000140: 51e1 1091 cb26 e43f 82b3 0c03 656e 2040
00000150: 9dfd 6402 d748 ca3f 7b2f 1e5a 26c9 ba3f
00000160: e7b6 ed37 cdee 1dc0 4f69 d073 bab6 0140
00000170: 3271 a3c7 3aae 2540 f99e bac7 2538 de3f
00000180: 4992 ec4f 37c9 853f 666c 9093 abc7 20c0
00000190: c086 2968 dcb5 fd3f 8a44 06e1 9d2f 2440
000001a0: ef74 8a34 8c3b d03f 74ae b983 6153 b53e
000001b0: dce9 2e23 f437 20c0 ebe0 8a7c 24a4 ff3f
000001c0: 8ca7 05b5 e6c3 2440 4bd2 954b a25b d53f
000001d0: f548 9ff2 d7e2 a43f 1df4 459c f379 20c0
000001e0: 6029 0da8 b4b6 0140 b136 f3e2 1eae 2540
000001f0: 709c 2ecc 6636 de3f 3157 cd6a 8ba0 853f
00000200: e731 bf1d 98c7 20c0 0f86 00b6 4dc1 0140
00000210: 8bda 84ca b0ec 2540 ee43 c8cd 239c df3f
00000220: 8d5b 54f1 f64a bf3f fc97 cdcd ecfd 20c0
00000230: 19b9 c55e 0c77 34c0 4a5c 3bf5 a49f 3440
00000240: ba02 cdf1 be6a 2340 0718 09d1 0660 ff3f
00000250: 5cea c6cb 001e 42c0 1c2d 6920 8f53 dfbf
00000260: 713d 37fc 4473 2440 8307 c71a 0941 fe3f
00000270: b3a1 f371 bf4f 1140 8716 8ee3 d089 23c0
00000280: 88b2 b59c 380e f63f 2465 0626 fe6b 2440
00000290: 43b3 21fd e6b9 e63f e284 aa25 8707 ed3f
000002a0: 8ea1 86da 67f4 20c0 6b7d 963a af22 a7bf
000002b0: e24d 96d5 e12f 2640 ff18 c49a ef11 fa3f
000002c0: 328b d349 64fc c33f e2a2 248b e5a5 24c0
000002d0: 5722 8754 e5e0 d5bf e771 07af a765 2540
000002e0: 24b2 24e0 7312 fb3f 3ae0 263e ca7b e63f
000002f0: d15f a99b 8763 24c0 ddfc 45b0 0ee6 d5bf
00000300: aad9 8d02 9465 2540 711e 5285 8213 fb3f
00000310: efa6 3f7a 848b e63f a9e7 ba4f 8c63 24c0
00000320: 3f9f c8a0 d61c f33f a69f b656 4bf5 2340
00000330: 6f4c 3919 0eea e13f 1c17 e874 5ed6 e63f
00000340: 63c1 d311 6002 21c0 45f4 d89b 14f0 f33f
00000350: f59b 0caf ac90 2340 a460 55f6 3b2d e03f
00000360: 578d 7a7a a8e7 a13f 65d2 de3b 4091 20c0
00000370: 3719 2481 02f0 f33f a468 f9fb 9e90 2340
00000380: 6e07 e604 762d e03f 6ec0 808e 18a6 a13f
00000390: 3eb5 adfb 3291 20c0 75ff 0451 c629 0940
000003a0: 1987 9763 4fe7 2540 a192 a9e2 7a85 e23f
000003b0: e3f1 9510 ddad 723f 53f5 81f0 6311 1ec0
000003c0: 2126 707a e84a 0740 4869 213d f56e 2540
000003d0: 4882 10a0 d3cd e13f 9a9f ff39 e595 c83e
000003e0: 5eb7 0903 991b 1ec0 6a96 2159 0bd3 0740
000003f0: d982 09c1 cf92 2540 f941 b498 622d e23f
00000400: 65af 8a00 f8a5 963f 5af6 f6ab 4319 1ec0
00000410: df98 88dd 7429 0940 50d6 ba73 46e7 2540
00000420: 846b 753e 6285 e23f cd23 36d1 0e25 723f
00000430: 7809 ca54 7c11 1ec0 b60f 77f7 e6e3 0840
00000440: 9af1 b700 9cda 2540 d315 e7d5 d4eb e23f
00000450: 553e 96c7 91f3 b03f f7e9 5538 8714 1ec0
00000460: 2b55 b053 e579 34c0 8191 d66b ae8a 3440
00000470: c2e5 278d 4d70 2340 4255 d62a 1269 ff3f
00000480: 9e76 1e2e 4014 42c0 d0cd 8473 d9a6 e0bf
00000490: f6dc 58b8 be63 2440 fe03 dba0 5d83 fe3f
000004a0: 95a1 c5e8 4951 0f40 b879 8375 f685 23c0
000004b0: ddd0 94d6 29d6 f53f 4050 5b78 f039 2440
000004c0: 2a27 2bc4 6f68 e63f da71 56f3 8f67 e43f
000004d0: de5c 67bf e7cb 20c0 d7a9 3aa3 b073 a6bf
000004e0: 6ca7 4113 21fb 2540 387f 59ca 2f67 f93f
000004f0: 61e1 95b2 eb0a b53f 264a 3fc7 217b 24c0
00000500: 0883 5bbd 7da2 d6bf 846a e784 ba4f 2540
00000510: d5d6 aacb 3b8e fb3f 8000 ec1b 88ba e63f
00000520: 2e99 17b6 ea4b 24c0 98b2 c386 faa3 d6bf
00000530: 6f04 c9ed bf4f 2540 4c80 657a c38e fb3f
00000540: 9dda 41e2 c7c2 e63f fdc9 588a f34b 24c0
00000550: f18e 1b57 326b f33f 687d 79e4 34e1 2340
00000560: df7b c886 3131 e13f facc cd7d 64c2 e23f
00000570: a9c7 5f0d 45ea 20c0 26fb b18c 5d21 f43f
00000580: 6a8d 561f a576 2340 fa3b 7a00 c337 e03f
00000590: 3e94 6c13 811c 9f3f 277c bc55 bb70 20c0
000005a0: 4164 86e6 2921 f43f 1e71 caa1 9e76 2340
000005b0: 3643 e7ce e737 e03f 25fa 864a 31fa 9e3f
000005c0: 7d6a 8226 ba70 20c0 c1b7 0d10 4c0f 0940
000005d0: 6df7 4939 dac5 2540 f5bb fd5d cd3c e23f
000005e0: 6653 cd34 da6e 703f 3737 ad94 41e0 1dc0
000005f0: 0d8b c71a ac70 0740 72ec 6660 4352 2540
00000600: 0b5e cbef 62f0 e13f a723 4278 df96 b23e
00000610: 7a5d 6d84 2acd 1dc0 8a2a 6c63 a505 0840
00000620: 7e40 420b 8475 2540 5614 6883 1b2b e23f
00000630: 9461 ccb5 bbf3 933f 6cea 97ac 83c5 1dc0
00000640: e781 270c 270f 0940 5d30 875c d8c5 2540
00000650: 353b 27ec ef3c e23f a534 0b3e 2f7b 703f
00000660: 142c 3834 4ee0 1dc0 3f9f fd01 902f 0940
00000670: 1f95 92ae 00bc 2540 2872 62c8 3aa0 e23f
00000680: 8069 ef41 d1ed ad3f 7a33 a0af 35b6 1dc0
