co2_energies_noise_scf_features/co2_noise_scf_dft_b3lyp_def2-SVP_89.npz (npz, 2500 bytes, 4 tensors)

coords f8 [3, 3]
0	0x0000000000000000	0.0
1	0x0000000000000000	0.0
2	0x0000000000000000	0.0
3	0x3ff2b40f379e9c96	1.168959824813816
4	0x3f9343c7b0c9c58b	0.018813247838300334
5	0x3f7b96874ea02f47	0.006735352080806062
6	0xbff2715ec6132ecd	-1.152678273897368
7	0x3f634e0b65013a35	0.0023565504598430883
8	0x3f87af3d2b1cc06e	0.011564710500891997

energy f8 []
0	0xc0676f7fa29d91dc	-187.48433047080368

noise_sigma f8 []
0	0x3f947ae147ae147b	0.02

features f8 [3, 14, 5]
0	0xc026130021e52d91	-11.037110385156469
1	0x4030f96b4353e86f	16.974292953477228
2	0x401b77ff0a4bc372	6.86718383872436
3	0x3fff413c79379753	1.9534268126530676
4	0xc03893eb72fd06c7	-24.57781141927151
5	0x3fd5feaf9bf7a788	0.34366979819480337
6	0x4023e3828766fbfd	9.944355231591539
7	0x3ff322a2bbd6f798	1.1959559762467276
8	0x401a571a4675f608	6.585061169576427
9	0xc0220162dec9cf71	-9.002707445273446
10	0x3fddcd1e276fba15	0.4656443963166635
11	0x40200222e99e2fd4	8.00417261177055
12	0x3fd94abf88d57fa9	0.3951872669476822
13	0x3ff7bc48125f5630	1.4834671704933378
14	0xc01d5d1df47eb7d7	-7.34093458198
15	0x3faf9a5f66212f26	0.06172464486789257
16	0x40255cdba450a2da	10.681363234370497
17	0x3ff36d9edcc8ed96	1.214262831154746
18	0x4002a7cdc2a04757	2.3319354252970856
19	0xc0240667571df2f3	-10.012507173925291
20	0x3fa3d4efb1ef97e8	0.03873395011014208
21	0x40236e66cfc25609	9.715628139946618
22	0x3fe5f9f8a55834a5	0.6867640714059645
23	0x3fc164cd1da74f74	0.13588870952537102
24	0xc022aac21ae5a4d1	-9.333512154133503
25	0x3fa3d43cf9bc8e63	0.03872862385312883
26	0x40236e5f16d40b9b	9.715569222816887
27	0x3fe5f9b6d049574a	0.6867326801391098
28	0x3fc160b718a86f83	0.13576401428224125
29	0xc022aabd23580459	-9.333474258894215
30	0x3fe21a4fa1a0ae8b	0.5657117993154811
31	0x4021c1f22450bcde	8.878800520759281
32	0x3fe2fe1f19320d4a	0.5935206882572086
33	0x3fe11cd211b405c0	0.534768137528026
34	0xc020085c316d2162	-8.016328377315123
35	0x3fe43368e1d3231f	0.631275597633337
36	0x402081971234f6bd	8.253105706181822
37	0x3fca803d7a4e8708	0.20703857872018028
38	0x3fbc0e898c5b2a38	0.10959682156241335
39	0xc01e12c012464ef0	-7.518310819188386
40	0x3fe43371defb60dd	0.6312798838726185
41	0x402081920c7fcc01	8.253067389106947
42	0x3fca7f812ba047c5	0.20701613073521066
43	0x3fbc0cfcdbeac014	0.10957317704264852
44	0xc01e12b7d871aac7	-7.518279439866723
45	0x4001df011d0b0f02	2.2338888424873184
46	0x4025d3c7ca681a8c	10.913633656700107
47	0x3fdedb38ff6a9bae	0.4821302885342743
48	0x3f896d2acab7bfde	0.012415251075225283
49	0xc020e09a9f27ac57	-8.43867966994564
50	0x3ffdc6cb4e6ce265	1.8610337317933496
51	0x402450d231230ac2	10.157853637244788
52	0x3fd06e1a66814afe	0.2567201615358242
53	0x3eaab274233861bf	7.956351226216922e-07
54	0xc02056405dbb694c	-8.16845982468353
55	0x3fffbef3b889a51a	1.984119149065299
56	0x4024e73d02fb4f59	10.45163735692738
57	0x3fd5b41fa7dafbd0	0.33911887542847996
58	0x3fa5c23312200ac7	0.042497249567551125
59	0xc020988e0d4aaec5	-8.297958770147838
60	0x4001def56013fed8	2.2338664537527215
61	0x4025d3bde6b138b4	10.913558205731853
62	0x3fdedad9f99b2a11	0.48210763335797063
63	0x3f895edb96bea632	0.012387958085883975
64	0xc020e09526c5cc51	-8.438637935300138
65	0x4001d7c56a20442a	2.2303570071312793
66	0x4026141d408db897	11.039285676288541
67	0x3fe020361b9dbc36	0.5039320506456366
68	0x3fc0508c4761de7c	0.12745812879051133
69	0xc0211d2a3528b9b0	-8.556962643834453
70	0xc03475f76077ef13	-20.46080592086862
71	0x4034a016dd2c2f46	20.625348876273414
72	0x40236c7dc79362b4	9.711897122136499
73	0x3fff625f8ec8a8ab	1.9615169122212517
74	0xc0421d7765dfa2d3	-36.23020623607376
75	0xbfdf5c04ec9d7e07	-0.48999140841439764
76	0x40247be93043aa81	10.242013462314619
77	0x3ffe595b64a60305	1.8968156749326124
78	0x401088a7873c59b8	4.13345156961298
79	0xc0239133a15e3658	-9.783597033262751
80	0x3ff60dbd82442a63	1.3783545578504792
81	0x402467457b914760	10.20170198582099
82	0x3fe6995db1582f91	0.7062214339980405
83	0x3fe988e1d07872f8	0.7979592391671693
84	0xc020f0c2ddbe0040	-8.470236710971335
85	0xbfa105b53d74ce4e	-0.03324667334746022
86	0x40262c83f21d77d6	11.086944166276151
87	0x3ff9c9d97b88a901	1.611779673151034
88	0x3fbaa15b1b4afa2f	0.10402459541635588
89	0xc024a0ec0fa2621e	-10.314301003048111
90	0xbfd5dcfd33b6f2b4	-0.34161310243852516
91	0x40256be2e643abdf	10.710715480576196
92	0x3ffb55b49072f777	1.7084241526167412
93	0x3fe6b9628fada9de	0.7101300054758288
94	0xc024656f86da33fe	-10.198116506706352
95	0xbfd5deb90b13e8f4	-0.34171892244161417
96	0x40256bd9339e62c0	10.71064149197025
97	0x3ffb5606834db925	1.7085023049399493
98	0x3fe6bd66876502b4	0.7106201786446804
99	0xc024656e93c22675	-10.19810926194189
100	0x3ff358e0bc84e5f9	1.2091987003353764
101	0x4023fbc7ac790c7e	9.991757764603104
102	0x3fe19ea0415e8944	0.5506135250800885
103	0x3fe4f9ac4ca29b5f	0.6554776665478633
104	0xc02103b692dd7b85	-8.507252301727712
105	0x3ff419f982ed1798	1.256341468267669
106	0x402394853bb6d942	9.790078989096063
107	0x3fe03bf4add902f2	0.5073188205206789
108	0x3fa076ea7c1ec656	0.03215725674762086
109	0xc0208f6665ea6e37	-8.280078110568054
110	0x3ff41a045a1553ec	1.2563518065337531
111	0x40239482099996b9	9.790054607390049
112	0x3fe03c05b84b9b50	0.5073269462126095
113	0x3fa0612faa55af8f	0.03199147180825356
114	0xc0208f6150948f58	-8.280039327749975
115	0x400933b02a85f28d	3.1502383539321444
116	0x4025eae4139541df	10.958771335573088
117	0x3fe26e058f3a9fa5	0.5759303853455903
118	0x3f7340233eb45f8f	0.004699838328882224
119	0xc01e150fb8f3e070	-7.520567788968137
120	0x400765e8814eca22	2.924759874550788
121	0x402573bdc4835c2e	10.72605718711392
122	0x3fe1e786a48bf9f2	0.5595124448589657
123	0x3ebd96e40e3630e0	1.7636667103164544e-06
124	0xc01e160ede1693b6	-7.521541090133658
125	0x4007f40651301b54	2.994152673988916
126	0x4025974224795b73	10.795426502050509
127	0x3fe236b819e293db	0.5691795831268068
128	0x3f956f2fb8bfce75	0.020931955004881837
129	0xc01e11159ebc7ffb	-7.516684036498186
130	0x4009339438d1b7c2	3.150185054683761
131	0x4025eae0e46ccc0e	10.958747041970152
132	0x3fe26df2368f5275	0.5759211602804287
133	0x3f7307ce0f86bc51	0.004646115230953888
134	0xc01e15188907c71c	-7.520601407146184
135	0x4009107c9ad2993e	3.1330501647491067
136	0x4025de56f699fbf2	10.93425722722711
137	0x3fe2d4e6621f9dc6	0.5884887615656502
138	0x3fb00fd587c6feee	0.0627416092383972
139	0xc01e072139a8b166	-7.506962681695176
140	0xc03474badcefb89c	-20.4559763036019
141	0x4034a79872af0499	20.65466992161655
142	0x40236a54ed7e14d5	9.707679196968835
143	0x3fff614d87db7386	1.9612555796549898
144	0xc04220df0a1f9c01	-36.25680662673404
145	0xbfdea219ded43ff6	-0.47864386330274955
146	0x4024820f33904b7a	10.25402222763454
147	0x3ffe43551b842e34	1.8914385866982117
148	0x40112875286840aa	4.2895094216948255
149	0xc02392eab0ceaaa8	-9.786946797588215
150	0x3ff62470482e5339	1.3838961429184578
151	0x402478f618de8ff5	10.23625257222009
152	0x3fe6b6d4b7af98d7	0.7098182284942379
153	0x3fecd3ef3dcce328	0.9008709151304162
154	0xc020feb16a1b489e	-8.49744731505444
155	0xbfa134de1fd82f44	-0.03360647333837943
156	0x40263f5ca372e9d4	11.123753650453104
157	0x3ffa048a301f2d53	1.6261083488232841
158	0x3fc0c6c8e1d2af1d	0.13106642748368183
159	0xc024b048de90cf2d	-10.344305949379839
160	0xbfd595acfd4ab58f	-0.3372604821732574
161	0x402573beb1b1226f	10.72606425559317
162	0x3ffb2ad654116dde	1.6979583057317238
163	0x3fe6acfc49bb181f	0.7086163940482527
164	0xc0246dbeb45a6140	-10.21434558490057
165	0xbfd59501d5063317	-0.3372196750940914
166	0x402573c358ce0e58	10.726099753526043
167	0x3ffb2ab7d34616cb	1.697929215706085
168	0x3fe6aba5c10a38de	0.7084530611334932
169	0xc0246dbfea41de86	-10.214354820767095
170	0x3ff33dd80c8d1bf3	1.202598618534236
171	0x402402d088e7b7a3	10.005497244153792
172	0x3fe1e06f3803c361	0.5586467832600698
173	0x3fe67ab9d4027882	0.7024811878980162
174	0xc0210c120d95f609	-8.52357523398952
175	0x3ff40897b8223599	1.252097815773004
176	0x40239de55d3c9738	9.808390535017324
177	0x3fe0392e9cd03e4c	0.5069802344095904
178	0x3fa12de5f9a2cf85	0.03355330154718587
179	0xc0209b08f151ce92	-8.302802602039524
180	0x3ff4088aeaee0e38	1.252085607237758
181	0x40239de49d8b748c	9.808384822152469
182	0x3fe0392214fc5015	0.5069742593645993
183	0x3fa1363e091b1fb1	0.03361696110874791
184	0xc0209b0a2f85d046	-8.302812085232414
185	0x40093cff71d69f5b	3.154784097063311
186	0x4025f6a40714d6bc	10.981720181745338
187	0x3fe2876cbf958470	0.5790313474536912
188	0x3f73b297403699dd	0.004808989356581664
189	0xc01e265189450582	-7.53742041095518
190	0x4007588bb758187e	2.9182352374801317
191	0x40257df9a62e5a92	10.746045296820089
192	0x3fe1dc1f706e2f36	0.5581204601198582
193	0x3ea892982252c58e	7.323215568592313e-07
194	0xc01e31eb79a9c5f3	-7.5487498292800295
195	0x4007e189c48bf703	2.9851260524000067
196	0x4025a1c2b7a1d6be	10.81593870020458
197	0x3fe2381201418918	0.5693445229083265
198	0x3f9654e8587173b5	0.021808271787779627
199	0xc01e2f3f6ce99965	-7.546140386350406
200	0x40093d048406bad1	3.1547937693170316
201	0x4025f6a4bac9f78e	10.981725537447144
202	0x3fe28776f0e978ac	0.5790362077057316
203	0x3f73cd524a175b14	0.004834481661837104
204	0xc01e264fc481fa24	-7.537413664277242
205	0x4008f367eef1c396	3.1188505809336204
206	0x4025e950838dff91	10.955692397197511
207	0x3fe2f00d88954e26	0.5918033282891357
208	0x3fb0c117372bfa1d	0.06544633004157459
209	0xc01e29ec3719c876	-7.540940152119324
