co2_energies_noise_scf_features/co2_noise_scf_dft_b3lyp_def2-SVP_412.npz (npz, 2489 bytes, 4 tensors)

coords f8 [3, 3]
0	0x0000000000000000	0.0
1	0x0000000000000000	0.0
2	0x0000000000000000	0.0
3	0x3ff20398bcbb1a76	1.1258780834483821
4	0xbf792332792f0125	-0.006137082254042779
5	0xbf8334e360e58783	-0.00937821998076394
6	0xbff2a26ae7719998	-1.1646527329226952
7	0xbf768032e418f8d2	-0.005493353646271086
8	0x3f6ace5b2972c55a	0.0032722263818746712

energy f8 []
0	0xc0676f8a13a608f2	-187.4856050722952

noise_sigma f8 []
0	0x3f947ae147ae147b	0.02

features f8 [3, 14, 5]
0	0xc026044e49139181	-11.00840977062103
1	0x4031115b17952339	17.067796205435318
2	0x401b6e92f1d39042	6.857982424295246
3	0x3fff73fd394c4d89	1.9658176649289507
4	0xc038a5afdde479fb	-24.64721476390876
5	0x3fd707512f075db4	0.3598216017976157
6	0x4023fd707bb09d2d	9.994998803433726
7	0x3ff348bc69c5da13	1.205257809806089
8	0x401bff70826c1950	6.999452627036888
9	0xc02210aa2b9c04ca	-9.032548296733143
10	0x3fde78926c07b671	0.4761091284734454
11	0x402013960dc275f7	8.038254194248095
12	0x3fd9796a4b060c65	0.39803559614683187
13	0x3ff7ce9661814228	1.4879363831315775
14	0xc01d73d7a26c4023	-7.363127267701233
15	0x3fb04e815caf20de	0.06369789612574858
16	0x402584e59be54f44	10.75956427740278
17	0x3ff3a562a88197de	1.2278772909426077
18	0x40047015697bc6fd	2.5547283402346452
19	0xc02429f26ea3d74d	-10.08192773580563
20	0x3faa65ade32aa5fe	0.051557001095101626
21	0x40238a58fa067184	9.77021008804946
22	0x3fe6208516f14f19	0.6914697120759882
23	0x3fc15ecf01abfc59	0.13570582944518852
24	0xc022beef236bbc65	-9.372918230916364
25	0x3faa654f1dab51fd	0.05155417668507665
26	0x40238a5ae0ee2541	9.770224598951815
27	0x3fe620973dbee39a	0.6914783674211435
28	0x3fc160057dd866c7	0.13574284214774066
29	0xc022bef0d7e282d2	-9.372931238556166
30	0x3fe2be5cf561d60e	0.5857376854534679
31	0x4021d65989543c84	8.918651858837855
32	0x3fe320b004dea923	0.5977401824104941
33	0x3fdf66e82881bafd	0.4906559367727111
34	0xc020116e39d729af	-8.034044082179063
35	0x3fe4441f7827de82	0.6333157870094086
36	0x402095e598881d8f	8.292767302146585
37	0x3fcac217f96fbf4f	0.20904826812283736
38	0x3fbdb3b4acbbccb1	0.1160233422959205
39	0xc01e383ee2258055	-7.554927381075761
40	0x3fe4441c8f47ac32	0.6333143995701731
41	0x402095e6ed80d473	8.292777463890365
42	0x3fcac2531e3bdebe	0.2090553186060244
43	0x3fbdb43119499eca	0.11603075854656733
44	0xc01e3840fc9fc3e7	-7.554935405017182
45	0x400208b61cf2c1b3	2.2542536031325766
46	0x4025fa5aae31d385	10.988973086912447
47	0x3fdf8cd19975c841	0.49296989427887544
48	0x3f8e0f1812bbd43e	0.014677227088649155
49	0xc020f9f9e08f4bfb	-8.488234536640439
50	0x3ffddacf955d0d1c	1.8659206232558239
51	0x4024746aa1cea8f3	10.227376038052602
52	0x3fd0a6eb6e9214da	0.2601879672805133
53	0x3ea2996c24a68fb0	5.543025250365297e-07
54	0xc02076750168beff	-8.231361431156527
55	0x3fffdb3ed9f12421	1.9910267365796772
56	0x40250cdcb8a554bd	10.525121469671257
57	0x3fd6147bf18641aa	0.3450002535473923
58	0x3fa6d498ab4f64b9	0.04459073153675192
59	0xc020b922eda11734	-8.361594606317887
60	0x400208b9f5bab9e8	2.254260940323764
61	0x4025fa5dbf039400	10.98899647635153
62	0x3fdf8cd8ff5c6809	0.49297165811151494
63	0x3f8e14448dfba7b6	0.01468709524438681
64	0xc020f9fbdd9773e4	-8.488249706972006
65	0x4001ee1498084579	2.2412502172016358
66	0x40263dc1541f2933	11.120615605167222
67	0x3fe077b64e9eebb7	0.5146132979929153
68	0x3fc11f7cf742f1ef	0.1337734420138896
69	0xc0213e7e7ba82071	-8.622058738969118
70	0xc0346f8d85547994	-20.435753186343916
71	0x4034bcc44b6bc382	20.7373702180953
72	0x402365d0dbb0921b	9.69885908632664
73	0x3fff69ff164c2008	1.9633780356398365
74	0xc042296eccea0c4a	-36.32369386127591
75	0xbfdca0765732c886	-0.4472938396021465
76	0x40249d4558e88890	10.307169702897482
77	0x3ffe244f23a771b7	1.8838645355927903
78	0x40124dcfae5f5c79	4.575987553186786
79	0xc023a0041967a79e	-9.812531274703186
80	0x3ff6693e7e8df72f	1.4006943648850656
81	0x4024a3df7b00aed0	10.320064395745618
82	0x3fe6e66a70eed6de	0.715626926967811
83	0x3ff1a97ba6e1d490	1.1038776892503712
84	0xc0211f8457a77939	-8.561556567376657
85	0xbf96cbae6a9d6853	-0.022261357552771987
86	0x40266f18968203e6	11.216984465952873
87	0x3ffa55e96288237a	1.645974526300249
88	0x3fc4589ccb287544	0.15895423812700404
89	0xc024d51fd78ed06d	-10.416258560355539
90	0xbfd4b46dc862b261	-0.32351250237369383
91	0x4025905dc76897cb	10.781965476529782
92	0x3ffafc990ea3481c	1.6866694042005355
93	0x3fe6bc0cffb65aa3	0.7104554170972118
94	0xc0248637a4c178da	-10.262143276803204
95	0xbfd4b45961ca0a3c	-0.32350763845184694
96	0x4025906042313d90	10.781984394560624
97	0x3ffafc9eb568bccc	1.6866747938436673
98	0x3fe6bc6ee5905eef	0.7105020984335776
99	0xc024863921e90211	-10.26215463609063
100	0x3ff3350c46cc0a6c	1.2004511609563009
101	0x40241c8520115c19	10.055703165167914
102	0x3fe246821cde72e8	0.571106964478159
103	0x3fe8c44cb9f03c1f	0.7739623672113146
104	0xc02123af8650e73a	-8.569698521972544
105	0x3ff405e9744026b8	1.2514433423079208
106	0x4023bbf0748bd5d3	9.867068903035863
107	0x3fe042a26431b6e0	0.5081340748708634
108	0x3fa2233483efeea8	0.035424843888873625
109	0xc020b91e32e24343	-8.361558523292507
110	0x3ff405e31226870c	1.251437254810699
111	0x4023bbf0a5cb3a51	9.867070370729524
112	0x3fe042a86623855e	0.5081369395158324
113	0x3fa225c65a3e23b4	0.035444448963125735
114	0xc020b91f00554d3d	-8.361564646160895
115	0x400960f360dd0edd	3.172339207407147
116	0x40261a393293a530	11.051217632792572
117	0x3fe2b3e8620d065e	0.5844613947921962
118	0x3f76c6f4bbc5e115	0.005560832967937542
119	0xc01e58ba2e97f27a	-7.586647727989311
120	0x400751ed09e7ffe1	2.915002896683277
121	0x40259f468d1695cb	10.8110851373739
122	0x3fe1d9f765785509	0.557857225593268
123	0x3ea6d33631cf09c7	6.802393702698292e-07
124	0xc01e77f71ee1a660	-7.617153627893998
125	0x4007d0fb3f3dd552	2.977041715692999
126	0x4025c36fc9affedb	10.881712248548345
127	0x3fe24728ae5d388e	0.5711863904523555
128	0x3f9755a4e9befb08	0.022787644163822868
129	0xc01e79ef68db3f77	-7.6190773376291565
130	0x400960ef79590084	3.172331760433794
131	0x40261a39983cbb06	11.051220662511252
132	0x3fe2b3f0bebcf442	0.5844653821328694
133	0x3f76d20566a2d0b8	0.005571385476447137
134	0xc01e58bc67e12688	-7.586656211011025
135	0x4008cf06ebc95c12	3.1010874195885743
136	0x40260bbf16d50373	11.022942269804593
137	0x3fe321871b18d73c	0.5978427438010168
138	0x3fb180bf90239e52	0.06837079304715957
139	0xc01e7de24613cb6b	-7.622933478315512
140	0xc034732cb064fe37	-20.449900650650502
141	0x4034aa9d4dec2e23	20.666462774430453
142	0x40236b7f4ddef339	9.709955628839099
143	0x3fff6632f7e5431c	1.9624509509487273
144	0xc0422175156cb7c4	-36.26138561066139
145	0xbfde6f82e233471e	-0.4755561074244826
146	0x40248cdbddade19e	10.275114943958041
147	0x3ffe552252c4d8db	1.8957846863900645
148	0x4010aff70e577072	4.1718408814305
149	0xc0239b05cf932e3c	-9.802778708187468
150	0x3ff62b8523ea5b5b	1.3856250193545836
151	0x402479e20ce95a3e	10.238052752957739
152	0x3fe69ec27b6cb5ed	0.7068798456800188
153	0x3feac4398e54368f	0.8364532260763599
154	0xc020ff7b5490a8f8	-8.498987810763069
155	0xbf9549ee45f880f0	-0.020789835949586555
156	0x402641fba649bc6d	11.128873058796865
157	0x3ff9cba597beaac1	1.6122184684306122
158	0x3fb6fc0c3cd9c7d6	0.08978344426739623
159	0xc024afe643f0ce0a	-10.34355366053116
160	0xbfd5740bc9460ce9	-0.3352078881800496
161	0x40257d029f093319	10.744160623429297
162	0x3ffb62d3867e64dd	1.7116275075589364
163	0x3fe6dbd11eddef5f	0.7143331148977089
164	0xc0247275c4eb7d31	-10.223554757829875
165	0xbfd5745f0cb2e409	-0.33522773971668635
166	0x40257d02795b9f15	10.744159500536208
167	0x3ffb62ebb82bca07	1.7116505808049867
168	0x3fe6dd23d171d7c5	0.714494618484189
169	0xc0247276b63e7993	-10.223561949850398
170	0x3ff373f5be968902	1.2158105320782515
171	0x40240c04ef6248ba	10.02347515177495
172	0x3fe1a7d6a9e95411	0.5517381018240731
173	0x3fe50f0408be59a0	0.6580829783222732
174	0xc021104782402cf9	-8.531795568784661
175	0x3ff42f7a6483babf	1.2615913320875476
176	0x4023a50e080ab6d8	9.822372676189318
177	0x3fe04769d07f0ae7	0.5087174484436588
178	0x3fa01fe5e0ffaabe	0.031493362155591495
179	0xc0209ce36cf64726	-8.306422619879935
180	0x3ff42f78923be6d6	1.2615895950570368
181	0x4023a50e17703579	9.822373135039685
182	0x3fe047746fcfdb1d	0.5087225135638139
183	0x3fa01cb0ebb9ab02	0.031468895697647895
184	0xc0209ce361aa39c2	-8.306422283200735
185	0x40094b2a77e06a92	3.161702095543043
186	0x4025fe6e28c54760	10.996934198457609
187	0x3fe277172f7ba30d	0.5770374228860377
188	0x3f74ebc727cbc995	0.005107667876233531
189	0xc01e2fd5a2a29f45	-7.546713391471546
190	0x400771107379540f	2.9302071591760135
191	0x402586889c76d4a6	10.762761010652252
192	0x3fe1f366f0f381bf	0.5609621721342178
193	0x3e8aab1c250c2fd2	1.986950502120187e-07
194	0xc01e35529021c730	-7.552072765409136
195	0x4007fea8a8d29649	2.9993451298967426
196	0x4025aa048d8ef97a	10.832065986350006
197	0x3fe2426ceb49f91f	0.5706085772979214
198	0x3f9552fd28fd9988	0.020824390055531633
199	0xc01e308df800083c	-7.5474165678043015
200	0x40094b248c4dfa7d	3.161690803651537
201	0x4025fe6dfaf2ebf8	10.996932832864317
202	0x3fe27719f09381b9	0.5770387362245436
203	0x3f74e8d3496f51a8	0.005104852046276788
204	0xc01e2fd810b5a294	-7.546722661100507
205	0x400919dc82a03034	3.1376276211867893
206	0x4025f0fc14ff2931	10.970673233172962
207	0x3fe2e06824ebf172	0.5898934098363908
208	0x3faffc07ac0090ca	0.062469711061824265
209	0xc01e2703665f7b31	-7.538098907067977
