co2_energies_noise_scf_features/co2_noise_scf_dft_b3lyp_def2-SVP_891.npz (npz, 2498 bytes, 4 tensors)

coords f8 [3, 3]
0	0x0000000000000000	0.0
1	0x0000000000000000	0.0
2	0x0000000000000000	0.0
3	0x3ff318c060de3a81	1.1935428413304694
4	0xbf8103c1a8cbb18c	-0.008307946170554435
5	0x3fa380d3e29249e5	0.03809225216641091
6	0xbff22d8d18bdead6	-1.1361208883742413
7	0x3f9c3bad68fb9b1a	0.027571401150363696
8	0xbf86e8255734abb6	-0.011184970592315806

energy f8 []
0	0xc0676f6262e52a57	-187.4807600475203

noise_sigma f8 []
0	0x3f947ae147ae147b	0.02

features f8 [3, 14, 5]
0	0xc02615b6c73e2e61	-11.042410112705683
1	0x4030f41d67adeb81	16.953573684655115
2	0x401b7ac516b027c0	6.869892458440461
3	0x3fff3d798d3b5a16	1.952508498846901
4	0xc0388fa02876fdb8	-24.561037568140563
5	0x3fd5ba22b5a34d82	0.33948581445766746
6	0x4023dcbe337de1c2	9.931138619533957
7	0x3ff31a1852f7f68a	1.1938708535157354
8	0x401a3af54108456f	6.557576194887004
9	0xc021fd4b98a14806	-8.994717378318466
10	0x3fddaa9b39212114	0.46353798464817086
11	0x401ff9ebf33c8ccc	7.994064140864065
12	0x3fd93f290bc2dcf2	0.3944800009589492
13	0x3ff79905bfe9e915	1.4748589989308745
14	0xc01d5548f74c63c6	-7.333286155736408
15	0x3faf9a0b82775ad9	0.061722144771626915
16	0x4025518c8a2f7910	10.659275358481437
17	0x3ff35dc024b75bd3	1.2103883203724208
18	0x4002aac5d499aed1	2.333385144176511
19	0xc023fc167c618c31	-9.992359053523701
20	0x3fa2bbdcc1ca0c37	0.03658952584830682
21	0x40236793661bb21f	9.702296439057191
22	0x3fe5f19b0a7acd0f	0.6857428745919679
23	0x3fc1726c2c87c5d9	0.1363043992455875
24	0xc022a54ab10611ab	-9.322835475912902
25	0x3fa2c07573390aff	0.0366245940354215
26	0x402367acfba22207	9.70249163011705
27	0x3fe5f267e58d32ff	0.6858405574253935
28	0x3fc17911bde2a55a	0.13650724193329716
29	0xc022a55947027f66	-9.322946757368936
30	0x3fe1fef28ecac6b6	0.5623715199382875
31	0x4021bc842f2f56ac	8.868195986298211
32	0x3fe2f6673a2026d0	0.5925785193696473
33	0x3fe1ce1be8e3d7ce	0.556409792769722
34	0xc02004e1cc71a900	-8.009535206675082
35	0x3fe4319c81fdb60c	0.6310560740363953
36	0x40207c6215ae420e	8.242935826799137
37	0x3fca793246915ea0	0.20682362027831847
38	0x3fbbf10e2c71dbcd	0.10914696297719147
39	0xc01e08abd20287e3	-7.508467942623585
40	0x3fe431462c3a87aa	0.6310149062958221
41	0x40207c73a16f7a2f	8.243069691522662
42	0x3fca7bd065e87d44	0.2069035050962872
43	0x3fbbf676fcd16ed3	0.10922950432125882
44	0xc01e08cf3bc0016d	-7.50860303267869
45	0x4001d2271fa58e63	2.2276136848829977
46	0x4025c864e26a94fc	10.891394687185759
47	0x3fdeab9f8b9521ca	0.47922505026920403
48	0x3f8890d14d0158cc	0.011994967615617823
49	0xc020d92c9c52dcdf	-8.424168477168164
50	0x3ffdc3e84629b379	1.8603289356935575
51	0x402447f532d4ed97	10.140542591564367
52	0x3fd063f5096a391f	0.25610090178897055
53	0x3ee0d321c0d92527	8.022658245415163e-06
54	0xc0204de855ea0e41	-8.15216320497632
55	0x3fffb7f212eaf110	1.9824085940336467
56	0x4024dd83497cffb7	10.432642265804914
57	0x3fd59d2c09207809	0.33771801844875476
58	0x3fa581cd2e38f11d	0.042005931751619686
59	0xc020901056fb1fb5	-8.28137466254689
60	0x4001d273b56fdf5b	2.2277597594037792
61	0x4025c88d9e1cabe5	10.891705456733641
62	0x3fdeace34a356a50	0.47930223700465024
63	0x3f88c92c0a3299ec	0.012102455197532579
64	0xc020d93d2397de5e	-8.424294578827524
65	0x4001cfc27b5313a4	2.22644516322403
66	0x4026087d2ccf582d	11.01658000975666
67	0x3fe007616316cb85	0.5009009299595709
68	0x3fc024b1b96a8593	0.12611981919785062
69	0xc021145182e1dce7	-8.539684381552844
70	0xc0347805b2739525	-20.468836930483253
71	0x403492a66e87c9d9	20.572852047111017
72	0x40236f7ee1a404c3	9.717764903327753
73	0x3fff69cca61ad35d	1.9633299339741008
74	0xc042176634492ee2	-36.18280652593036
75	0xbfe04e63247b6b84	-0.509568759206886
76	0x40246f7f25e7cfd4	10.217766937777846
77	0x3ffe7ccb919bbd80	1.9054675758196424
78	0x400f9e92a622ca5f	3.952428148209307
79	0xc0238c989f15cab7	-9.774601909074915
80	0x3ff5eb16f5ecdf35	1.369894943853024
81	0x402448ade5c4f5bc	10.141951732914883
82	0x3fe66f378e1dd892	0.7010762954439704
83	0x3fe577b2f1e3484a	0.6708616947528381
84	0xc020d7d14a966b33	-8.421518641339935
85	0xbfa27b775843d31c	-0.036098222279099285
86	0x40260bb7ecfbe916	11.022887616873543
87	0x3ff971f5443b4146	1.5903217950145332
88	0x3fb39972b71c56f6	0.07656018228984948
89	0xc0248714101078d3	-10.263824941645373
90	0xbfd658633c57168d	-0.34914475338551015
91	0x40255c2a82cc6131	10.680011832665146
92	0x3ffb91be9f0368fb	1.7230821811158978
93	0x3fe6d24a998d568f	0.713170337587785
94	0xc02455d1b2bee356	-10.167615495492708
95	0xbfd6510a2da04863	-0.34869627433466216
96	0x40255c4f8f052d33	10.680294484502701
97	0x3ffb9039303aee8d	1.7227107891075406
98	0x3fe6c1d8d6479aff	0.711162966265732
99	0xc02455d44d6e808c	-10.16763536428359
100	0x3ff37951d9b73ee2	1.2171190742991986
101	0x4023ece8751f6422	9.96271101005738
102	0x3fe13f11447ae6d5	0.5389486634732871
103	0x3fe2fbcd7fb75345	0.5932376379447325
104	0xc020f3c5afc4a50c	-8.476117604021532
105	0x3ff42d698d7c81ac	1.2610869910059632
106	0x402382dbe081de77	9.7555837782413
107	0x3fe03ec87e39077e	0.507663961914872
108	0x3f9ed60c744a1b69	0.03011340579771674
109	0xc0207b386ae08603	-8.240664806277897
110	0x3ff42d381391a5eb	1.2610398067866935
111	0x402382e8d519eb3f	9.75568262044328
112	0x3fe03e6633a7b143	0.5076170929801623
113	0x3f9f7b17ba1e30c3	0.030742998823868783
114	0xc0207b4ea10a78ff	-8.240834267166518
115	0x40091f7470f6578f	3.1403588128259297
116	0x4025d4791930fbf5	10.914986407498853
117	0x3fe24696175d2f9e	0.5711164909675863
118	0x3f71880a261b51e7	0.004280128139459972
119	0xc01df4ce9870f91b	-7.489069349189118
120	0x400776c49006d1ac	2.932992100914097
121	0x4025603a22cc7edd	10.68794354196819
122	0x3fe1f65a189f67ab	0.5613222580825455
123	0x3ed5874898e33cfb	5.132782815844184e-06
124	0xc01de5ac5c0b9e6c	-7.474290312012823
125	0x40080b1d1c30f7d7	3.0054266169017683
126	0x4025837b2d524230	10.756799141208006
127	0x3fe2325e708ca68f	0.5686485479574958
128	0x3f93f99d845ab15b	0.019506894305480454
129	0xc01dde41e5833e0b	-7.4670482503274895
130	0x400920145d087bcc	3.1406638401235565
131	0x4025d48739c85147	10.91509419031412
132	0x3fe246d95d29ab64	0.5711485690675144
133	0x3f7266c771968c29	0.004492549015966887
134	0xc01df496af39c9f3	-7.488856065656807
135	0x4009331dbf7be2fe	3.1499590835268227
136	0x4025c9cc31c490be	10.894136004681396
137	0x3fe2ab6123c01d15	0.5834203432322363
138	0x3fae0f32546d6310	0.0587096908627186
139	0xc01dcf53718f2e2b	-7.452466749538455
140	0xc03473e13a6ec01a	-20.452655460394546
141	0x4034ace83f193d75	20.675418800031782
142	0x40236818abd0f9b7	9.703313225993822
143	0x3fff647699656a72	1.9620271675145458
144	0xc0422361a749df92	-36.276417647429426
145	0xbfde169b1c057782	-0.47012975441418103
146	0x4024847197fa1723	10.258679150847064
147	0x3ffe2e21ff1cd03b	1.8862628903707577
148	0x4011f9ea93f14619	4.494058906174836
149	0xc023924450e875c7	-9.78567746007583
150	0x3ff637ff23ae5459	1.388671054247672
151	0x402486b56190eec0	10.263102578107805
152	0x3fe6d5dbfaafc3f2	0.7136058708402955
153	0x3ff06a24c9e55825	1.0259139906461396
154	0xc02109069d45a604	-8.517628588439955
155	0xbfa335894ae5ad41	-0.037517824547502084
156	0x40264da29c188e3d	11.151631238935005
157	0x3ffa418779b41180	1.6409983400381805
158	0x3fc5cf8425a3618d	0.17039539182475175
159	0xc024bcbfadc832cd	-10.368649893463408
160	0xbfd55887c34ad538	-0.3335284621383212
161	0x402577d94a4f4bb1	10.734079668216369
162	0x3ffaf914106faf66	1.6858101503412057
163	0x3fe68b7b90843301	0.7045266935907365
164	0xc024730c4762a763	-10.224703055184085
165	0xbfd55c1c709bbdda	-0.33374701496992787
166	0x402577c08c99a120	10.73389090895995
167	0x3ffaf9ab6bda89dc	1.6859544957193213
168	0x3fe6936f144f1651	0.7054973026903985
169	0xc0247306b960d671	-10.224660676070217
170	0x3ff319aa4467e009	1.1937658950901116
171	0x402405a7634f360d	10.011042693538025
172	0x3fe2256aa726014b	0.5670674576395326
173	0x3fe8319bb5938bd3	0.7560556932843333
174	0xc0211146c5890a06	-8.533743069628155
175	0x3ff3f02da5897c67	1.2461372820178214
176	0x4023a3a1ebde0252	9.819594736910549
177	0x3fe033cb919a2550	0.5063226550857198
178	0x3fa271585f29f511	0.03602100526493691
179	0xc020a3fddaa0019c	-8.32029612734987
180	0x3ff3f063dc261419	1.246188983875305
181	0x4023a3a375eccd59	9.81960648074771
182	0x3fe033fee70da190	0.5063471329458924
183	0x3fa23ee0d8d366fa	0.03563597342299647
184	0xc020a3f7032f9dc8	-8.320243930399457
185	0x40094066b78392e5	3.156445916846098
186	0x4025fdd82fb42bc7	10.995789995902568
187	0x3fe2a05d059c7086	0.5820756063071861
188	0x3f747efb37d127a9	0.00500391132397652
189	0xc01e3177334cc717	-7.54830627590288
190	0x4007480237e2757d	2.910160481070021
191	0x40258412253160fd	10.757950937535947
192	0x3fe1cda42d1ba4ff	0.5563526993766174
193	0x3ece03d37644adcd	3.5780603174961598e-06
194	0xc01e4748eb9fccea	-7.569614106777616
195	0x4007ca7dae44fd61	2.9738725294879917
196	0x4025a81ed28f9d38	10.828360157042525
197	0x3fe23727c1b6156c	0.5692328246520169
198	0x3f9748f1b81efc91	0.02273919760022786
199	0xc01e478c51e15a65	-7.569871215228521
200	0x400940567996eff5	3.1564149378955286
201	0x4025fdd3a490a093	10.995755331663792
202	0x3fe2a02679356c17	0.5820495955807726
203	0x3f73ef7585c80377	0.004867037842360192
204	0xc01e3179a4c2726b	-7.548315595977878
205	0x4008d026e532f8eb	3.101636686914494
206	0x4025f04eee5c731e	10.969352196488725
207	0x3fe309c2406684da	0.5949412591764045
208	0x3fb16dfa65fe8301	0.06808438291637843
209	0xc01e47ee46190179	-7.570244879986029
